{"format": "graph-model", "generatedBy": "2.3.0", "convertedBy": "TensorFlow.js Converter v2.7.0", "userDefinedMetadata": {"signature": {"inputs": {"conv1d_input:0": {"name": "conv1d_input:0", "dtype": "DT_FLOAT", "tensorShape": {"dim": [{"size": "-1"}, {"size": "61"}, {"size": "64"}]}}}, "outputs": {"Identity:0": {"name": "Identity:0", "dtype": "DT_FLOAT", "tensorShape": {"dim": [{"size": "-1"}, {"size": "1"}]}}}}}, "modelTopology": {"node": [{"name": "StatefulPartitionedCall/sequential_2/gru_3/PartitionedCall/TensorArrayV2_1/element_shape", "op": "Const", "attr": {"value": {"tensor": {"dtype": "DT_INT32", "tensorShape": {"dim": [{"size": "2"}]}}}, "dtype": {"type": "DT_INT32"}}}, {"name": "StatefulPartitionedCall/sequential_2/gru_3/PartitionedCall/TensorArrayUnstack/TensorListFromTensor/element_shape", "op": "Const", "attr": {"value": {"tensor": {"dtype": "DT_INT32", "tensorShape": {"dim": [{"size": "2"}]}}}, "dtype": {"type": "DT_INT32"}}}, {"name": "unknown_10", "op": "Const", "attr": {"value": {"tensor": {"dtype": "DT_FLOAT", "tensorShape": {"dim": [{"size": "128"}, {"size": "384"}]}}}, "dtype": {"type": "DT_FLOAT"}}}, {"name": "ConstantFolding/StatefulPartitionedCall/sequential_2/gru_3/PartitionedCall/unstack-folded-0", "op": "Const", "attr": {"value": {"tensor": {"dtype": "DT_FLOAT", "tensorShape": {"dim": [{"size": "384"}]}}}, "dtype": {"type": "DT_FLOAT"}}}, {"name": "StatefulPartitionedCall/sequential_2/gru_2/PartitionedCall/transpose_1/perm", "op": "Const", "attr": {"dtype": {"type": "DT_INT32"}, "value": {"tensor": {"dtype": "DT_INT32", "tensorShape": {"dim": [{"size": "3"}]}}}}}, {"name": "StatefulPartitionedCall/sequential_2/gru_3/strided_slice/stack", "op": "Const", "attr": {"value": {"tensor": {"dtype": "DT_INT32", "tensorShape": {"dim": [{"size": "1"}]}}}, "dtype": {"type": "DT_INT32"}}}, {"name": "StatefulPartitionedCall/sequential_2/gru_3/strided_slice/stack_1", "op": "Const", "attr": {"value": {"tensor": {"dtype": "DT_INT32", "tensorShape": {"dim": [{"size": "1"}]}}}, "dtype": {"type": "DT_INT32"}}}, {"name": "StatefulPartitionedCall/sequential_2/gru_3/strided_slice/stack_2", "op": "Const", "attr": {"value": {"tensor": {"dtype": "DT_INT32", "tensorShape": {"dim": [{"size": "1"}]}}}, "dtype": {"type": "DT_INT32"}}}, {"name": "StatefulPartitionedCall/sequential_2/gru_3/zeros/packed/1", "op": "Const", "attr": {"value": {"tensor": {"dtype": "DT_INT32", "tensorShape": {}}}, "dtype": {"type": "DT_INT32"}}}, {"name": "StatefulPartitionedCall/sequential_2/gru_3/zeros/Const", "op": "Const", "attr": {"value": {"tensor": {"dtype": "DT_FLOAT", "tensorShape": {}}}, "dtype": {"type": "DT_FLOAT"}}}, {"name": "unknown_11", "op": "Const", "attr": {"value": {"tensor": {"dtype": "DT_FLOAT", "tensorShape": {"dim": [{"size": "128"}, {"size": "384"}]}}}, "dtype": {"type": "DT_FLOAT"}}}, {"name": "ConstantFolding/StatefulPartitionedCall/sequential_2/gru_3/PartitionedCall/unstack-folded-1", "op": "Const", "attr": {"value": {"tensor": {"dtype": "DT_FLOAT", "tensorShape": {"dim": [{"size": "384"}]}}}, "dtype": {"type": "DT_FLOAT"}}}, {"name": "StatefulPartitionedCall/sequential_2/gru_3/PartitionedCall/time", "op": "Const", "attr": {"value": {"tensor": {"dtype": "DT_INT32", "tensorShape": {}}}, "dtype": {"type": "DT_INT32"}}}, {"name": "StatefulPartitionedCall/sequential_2/gru_2/PartitionedCall/TensorArrayV2_1/element_shape", "op": "Const", "attr": {"value": {"tensor": {"dtype": "DT_INT32", "tensorShape": {"dim": [{"size": "2"}]}}}, "dtype": {"type": "DT_INT32"}}}, {"name": "StatefulPartitionedCall/sequential_2/gru_2/PartitionedCall/TensorArrayUnstack/TensorListFromTensor/element_shape", "op": "Const", "attr": {"value": {"tensor": {"dtype": "DT_INT32", "tensorShape": {"dim": [{"size": "2"}]}}}, "dtype": {"type": "DT_INT32"}}}, {"name": "unknown_7", "op": "Const", "attr": {"value": {"tensor": {"dtype": "DT_FLOAT", "tensorShape": {"dim": [{"size": "128"}, {"size": "384"}]}}}, "dtype": {"type": "DT_FLOAT"}}}, {"name": "ConstantFolding/StatefulPartitionedCall/sequential_2/gru_2/PartitionedCall/unstack-folded-0", "op": "Const", "attr": {"dtype": {"type": "DT_FLOAT"}, "value": {"tensor": {"dtype": "DT_FLOAT", "tensorShape": {"dim": [{"size": "384"}]}}}}}, {"name": "StatefulPartitionedCall/sequential_2/gru_1/PartitionedCall/transpose_1/perm", "op": "Const", "attr": {"value": {"tensor": {"dtype": "DT_INT32", "tensorShape": {"dim": [{"size": "3"}]}}}, "dtype": {"type": "DT_INT32"}}}, {"name": "StatefulPartitionedCall/sequential_2/gru_2/strided_slice/stack", "op": "Const", "attr": {"value": {"tensor": {"dtype": "DT_INT32", "tensorShape": {"dim": [{"size": "1"}]}}}, "dtype": {"type": "DT_INT32"}}}, {"name": "StatefulPartitionedCall/sequential_2/gru_2/strided_slice/stack_1", "op": "Const", "attr": {"value": {"tensor": {"dtype": "DT_INT32", "tensorShape": {"dim": [{"size": "1"}]}}}, "dtype": {"type": "DT_INT32"}}}, {"name": "StatefulPartitionedCall/sequential_2/gru_2/strided_slice/stack_2", "op": "Const", "attr": {"value": {"tensor": {"dtype": "DT_INT32", "tensorShape": {"dim": [{"size": "1"}]}}}, "dtype": {"type": "DT_INT32"}}}, {"name": "StatefulPartitionedCall/sequential_2/gru_2/zeros/packed/1", "op": "Const", "attr": {"value": {"tensor": {"dtype": "DT_INT32", "tensorShape": {}}}, "dtype": {"type": "DT_INT32"}}}, {"name": "StatefulPartitionedCall/sequential_2/gru_2/zeros/Const", "op": "Const", "attr": {"value": {"tensor": {"dtype": "DT_FLOAT", "tensorShape": {}}}, "dtype": {"type": "DT_FLOAT"}}}, {"name": "unknown_8", "op": "Const", "attr": {"value": {"tensor": {"dtype": "DT_FLOAT", "tensorShape": {"dim": [{"size": "128"}, {"size": "384"}]}}}, "dtype": {"type": "DT_FLOAT"}}}, {"name": "ConstantFolding/StatefulPartitionedCall/sequential_2/gru_2/PartitionedCall/unstack-folded-1", "op": "Const", "attr": {"value": {"tensor": {"dtype": "DT_FLOAT", "tensorShape": {"dim": [{"size": "384"}]}}}, "dtype": {"type": "DT_FLOAT"}}}, {"name": "StatefulPartitionedCall/sequential_2/gru_2/PartitionedCall/time", "op": "Const", "attr": {"dtype": {"type": "DT_INT32"}, "value": {"tensor": {"dtype": "DT_INT32", "tensorShape": {}}}}}, {"name": "StatefulPartitionedCall/sequential_2/gru_1/PartitionedCall/TensorArrayV2_1/element_shape", "op": "Const", "attr": {"value": {"tensor": {"dtype": "DT_INT32", "tensorShape": {"dim": [{"size": "2"}]}}}, "dtype": {"type": "DT_INT32"}}}, {"name": "StatefulPartitionedCall/sequential_2/gru_1/PartitionedCall/TensorArrayUnstack/TensorListFromTensor/element_shape", "op": "Const", "attr": {"value": {"tensor": {"dtype": "DT_INT32", "tensorShape": {"dim": [{"size": "2"}]}}}, "dtype": {"type": "DT_INT32"}}}, {"name": "unknown_4", "op": "Const", "attr": {"value": {"tensor": {"dtype": "DT_FLOAT", "tensorShape": {"dim": [{"size": "128"}, {"size": "384"}]}}}, "dtype": {"type": "DT_FLOAT"}}}, {"name": "ConstantFolding/StatefulPartitionedCall/sequential_2/gru_1/PartitionedCall/unstack-folded-0", "op": "Const", "attr": {"value": {"tensor": {"dtype": "DT_FLOAT", "tensorShape": {"dim": [{"size": "384"}]}}}, "dtype": {"type": "DT_FLOAT"}}}, {"name": "StatefulPartitionedCall/sequential_2/gru/PartitionedCall/transpose_1/perm", "op": "Const", "attr": {"value": {"tensor": {"dtype": "DT_INT32", "tensorShape": {"dim": [{"size": "3"}]}}}, "dtype": {"type": "DT_INT32"}}}, {"name": "StatefulPartitionedCall/sequential_2/gru_1/strided_slice/stack", "op": "Const", "attr": {"value": {"tensor": {"dtype": "DT_INT32", "tensorShape": {"dim": [{"size": "1"}]}}}, "dtype": {"type": "DT_INT32"}}}, {"name": "StatefulPartitionedCall/sequential_2/gru_1/strided_slice/stack_1", "op": "Const", "attr": {"dtype": {"type": "DT_INT32"}, "value": {"tensor": {"dtype": "DT_INT32", "tensorShape": {"dim": [{"size": "1"}]}}}}}, {"name": "StatefulPartitionedCall/sequential_2/gru_1/strided_slice/stack_2", "op": "Const", "attr": {"value": {"tensor": {"dtype": "DT_INT32", "tensorShape": {"dim": [{"size": "1"}]}}}, "dtype": {"type": "DT_INT32"}}}, {"name": "StatefulPartitionedCall/sequential_2/gru_1/zeros/packed/1", "op": "Const", "attr": {"value": {"tensor": {"dtype": "DT_INT32", "tensorShape": {}}}, "dtype": {"type": "DT_INT32"}}}, {"name": "StatefulPartitionedCall/sequential_2/gru_1/zeros/Const", "op": "Const", "attr": {"value": {"tensor": {"dtype": "DT_FLOAT", "tensorShape": {}}}, "dtype": {"type": "DT_FLOAT"}}}, {"name": "unknown_5", "op": "Const", "attr": {"dtype": {"type": "DT_FLOAT"}, "value": {"tensor": {"dtype": "DT_FLOAT", "tensorShape": {"dim": [{"size": "128"}, {"size": "384"}]}}}}}, {"name": "ConstantFolding/StatefulPartitionedCall/sequential_2/gru_1/PartitionedCall/unstack-folded-1", "op": "Const", "attr": {"value": {"tensor": {"dtype": "DT_FLOAT", "tensorShape": {"dim": [{"size": "384"}]}}}, "dtype": {"type": "DT_FLOAT"}}}, {"name": "StatefulPartitionedCall/sequential_2/gru_1/PartitionedCall/time", "op": "Const", "attr": {"value": {"tensor": {"dtype": "DT_INT32", "tensorShape": {}}}, "dtype": {"type": "DT_INT32"}}}, {"name": "StatefulPartitionedCall/sequential_2/gru/PartitionedCall/TensorArrayV2_1/element_shape", "op": "Const", "attr": {"value": {"tensor": {"dtype": "DT_INT32", "tensorShape": {"dim": [{"size": "2"}]}}}, "dtype": {"type": "DT_INT32"}}}, {"name": "StatefulPartitionedCall/sequential_2/gru/PartitionedCall/TensorArrayUnstack/TensorListFromTensor/element_shape", "op": "Const", "attr": {"dtype": {"type": "DT_INT32"}, "value": {"tensor": {"dtype": "DT_INT32", "tensorShape": {"dim": [{"size": "2"}]}}}}}, {"name": "unknown_1", "op": "Const", "attr": {"value": {"tensor": {"dtype": "DT_FLOAT", "tensorShape": {"dim": [{"size": "32"}, {"size": "384"}]}}}, "dtype": {"type": "DT_FLOAT"}}}, {"name": "ConstantFolding/StatefulPartitionedCall/sequential_2/gru/PartitionedCall/unstack-folded-0", "op": "Const", "attr": {"value": {"tensor": {"dtype": "DT_FLOAT", "tensorShape": {"dim": [{"size": "384"}]}}}, "dtype": {"type": "DT_FLOAT"}}}, {"name": "StatefulPartitionedCall/sequential_2/gru/strided_slice/stack", "op": "Const", "attr": {"value": {"tensor": {"dtype": "DT_INT32", "tensorShape": {"dim": [{"size": "1"}]}}}, "dtype": {"type": "DT_INT32"}}}, {"name": "StatefulPartitionedCall/sequential_2/gru/strided_slice/stack_1", "op": "Const", "attr": {"value": {"tensor": {"dtype": "DT_INT32", "tensorShape": {"dim": [{"size": "1"}]}}}, "dtype": {"type": "DT_INT32"}}}, {"name": "StatefulPartitionedCall/sequential_2/gru/strided_slice/stack_2", "op": "Const", "attr": {"value": {"tensor": {"dtype": "DT_INT32", "tensorShape": {"dim": [{"size": "1"}]}}}, "dtype": {"type": "DT_INT32"}}}, {"name": "StatefulPartitionedCall/sequential_2/gru/zeros/packed/1", "op": "Const", "attr": {"value": {"tensor": {"dtype": "DT_INT32", "tensorShape": {}}}, "dtype": {"type": "DT_INT32"}}}, {"name": "StatefulPartitionedCall/sequential_2/gru/zeros/Const", "op": "Const", "attr": {"value": {"tensor": {"dtype": "DT_FLOAT", "tensorShape": {}}}, "dtype": {"type": "DT_FLOAT"}}}, {"name": "unknown_2", "op": "Const", "attr": {"value": {"tensor": {"dtype": "DT_FLOAT", "tensorShape": {"dim": [{"size": "128"}, {"size": "384"}]}}}, "dtype": {"type": "DT_FLOAT"}}}, {"name": "ConstantFolding/StatefulPartitionedCall/sequential_2/gru/PartitionedCall/unstack-folded-1", "op": "Const", "attr": {"value": {"tensor": {"dtype": "DT_FLOAT", "tensorShape": {"dim": [{"size": "384"}]}}}, "dtype": {"type": "DT_FLOAT"}}}, {"name": "StatefulPartitionedCall/sequential_2/gru/PartitionedCall/time", "op": "Const", "attr": {"dtype": {"type": "DT_INT32"}, "value": {"tensor": {"dtype": "DT_INT32", "tensorShape": {}}}}}, {"name": "StatefulPartitionedCall/sequential_2/conv1d/conv1d/ExpandDims/dim", "op": "Const", "attr": {"value": {"tensor": {"dtype": "DT_INT32", "tensorShape": {}}}, "dtype": {"type": "DT_INT32"}}}, {"name": "StatefulPartitionedCall/sequential_2/conv1d/conv1d/ExpandDims_1", "op": "Const", "attr": {"value": {"tensor": {"dtype": "DT_FLOAT", "tensorShape": {"dim": [{"size": "1"}, {"size": "1"}, {"size": "64"}, {"size": "32"}]}}}, "dtype": {"type": "DT_FLOAT"}}}, {"name": "unknown_0", "op": "Const", "attr": {"value": {"tensor": {"dtype": "DT_FLOAT", "tensorShape": {"dim": [{"size": "32"}]}}}, "dtype": {"type": "DT_FLOAT"}}}, {"name": "StatefulPartitionedCall/sequential_2/gru/PartitionedCall/transpose/perm", "op": "Const", "attr": {"value": {"tensor": {"dtype": "DT_INT32", "tensorShape": {"dim": [{"size": "3"}]}}}, "dtype": {"type": "DT_INT32"}}}, {"name": "StatefulPartitionedCall/sequential_2/gru/PartitionedCall/strided_slice/stack", "op": "Const", "attr": {"value": {"tensor": {"dtype": "DT_INT32", "tensorShape": {"dim": [{"size": "1"}]}}}, "dtype": {"type": "DT_INT32"}}}, {"name": "StatefulPartitionedCall/sequential_2/gru/PartitionedCall/strided_slice/stack_1", "op": "Const", "attr": {"dtype": {"type": "DT_INT32"}, "value": {"tensor": {"dtype": "DT_INT32", "tensorShape": {"dim": [{"size": "1"}]}}}}}, {"name": "StatefulPartitionedCall/sequential_2/gru/PartitionedCall/strided_slice/stack_2", "op": "Const", "attr": {"value": {"tensor": {"dtype": "DT_INT32", "tensorShape": {"dim": [{"size": "1"}]}}}, "dtype": {"type": "DT_INT32"}}}, {"name": "StatefulPartitionedCall/sequential_2/gru/PartitionedCall/while/loop_counter", "op": "Const", "attr": {"value": {"tensor": {"dtype": "DT_INT32", "tensorShape": {}}}, "dtype": {"type": "DT_INT32"}}}, {"name": "StatefulPartitionedCall/sequential_2/gru/PartitionedCall/TensorArrayV2Stack/TensorListStack/element_shape", "op": "Const", "attr": {"value": {"tensor": {"dtype": "DT_INT32", "tensorShape": {"dim": [{"size": "2"}]}}}, "dtype": {"type": "DT_INT32"}}}, {"name": "StatefulPartitionedCall/sequential_2/gru_1/PartitionedCall/strided_slice/stack", "op": "Const", "attr": {"value": {"tensor": {"dtype": "DT_INT32", "tensorShape": {"dim": [{"size": "1"}]}}}, "dtype": {"type": "DT_INT32"}}}, {"name": "StatefulPartitionedCall/sequential_2/gru_1/PartitionedCall/strided_slice/stack_1", "op": "Const", "attr": {"dtype": {"type": "DT_INT32"}, "value": {"tensor": {"dtype": "DT_INT32", "tensorShape": {"dim": [{"size": "1"}]}}}}}, {"name": "StatefulPartitionedCall/sequential_2/gru_1/PartitionedCall/strided_slice/stack_2", "op": "Const", "attr": {"value": {"tensor": {"dtype": "DT_INT32", "tensorShape": {"dim": [{"size": "1"}]}}}, "dtype": {"type": "DT_INT32"}}}, {"name": "StatefulPartitionedCall/sequential_2/gru_1/PartitionedCall/while/loop_counter", "op": "Const", "attr": {"value": {"tensor": {"dtype": "DT_INT32", "tensorShape": {}}}, "dtype": {"type": "DT_INT32"}}}, {"name": "StatefulPartitionedCall/sequential_2/gru_1/PartitionedCall/TensorArrayV2Stack/TensorListStack/element_shape", "op": "Const", "attr": {"value": {"tensor": {"dtype": "DT_INT32", "tensorShape": {"dim": [{"size": "2"}]}}}, "dtype": {"type": "DT_INT32"}}}, {"name": "StatefulPartitionedCall/sequential_2/gru_2/PartitionedCall/strided_slice/stack", "op": "Const", "attr": {"value": {"tensor": {"dtype": "DT_INT32", "tensorShape": {"dim": [{"size": "1"}]}}}, "dtype": {"type": "DT_INT32"}}}, {"name": "StatefulPartitionedCall/sequential_2/gru_2/PartitionedCall/strided_slice/stack_1", "op": "Const", "attr": {"dtype": {"type": "DT_INT32"}, "value": {"tensor": {"dtype": "DT_INT32", "tensorShape": {"dim": [{"size": "1"}]}}}}}, {"name": "StatefulPartitionedCall/sequential_2/gru_2/PartitionedCall/strided_slice/stack_2", "op": "Const", "attr": {"value": {"tensor": {"dtype": "DT_INT32", "tensorShape": {"dim": [{"size": "1"}]}}}, "dtype": {"type": "DT_INT32"}}}, {"name": "StatefulPartitionedCall/sequential_2/gru_2/PartitionedCall/while/loop_counter", "op": "Const", "attr": {"value": {"tensor": {"dtype": "DT_INT32", "tensorShape": {}}}, "dtype": {"type": "DT_INT32"}}}, {"name": "StatefulPartitionedCall/sequential_2/gru_2/PartitionedCall/TensorArrayV2Stack/TensorListStack/element_shape", "op": "Const", "attr": {"value": {"tensor": {"dtype": "DT_INT32", "tensorShape": {"dim": [{"size": "2"}]}}}, "dtype": {"type": "DT_INT32"}}}, {"name": "StatefulPartitionedCall/sequential_2/gru_3/PartitionedCall/strided_slice/stack", "op": "Const", "attr": {"value": {"tensor": {"dtype": "DT_INT32", "tensorShape": {"dim": [{"size": "1"}]}}}, "dtype": {"type": "DT_INT32"}}}, {"name": "StatefulPartitionedCall/sequential_2/gru_3/PartitionedCall/strided_slice/stack_1", "op": "Const", "attr": {"value": {"tensor": {"dtype": "DT_INT32", "tensorShape": {"dim": [{"size": "1"}]}}}, "dtype": {"type": "DT_INT32"}}}, {"name": "StatefulPartitionedCall/sequential_2/gru_3/PartitionedCall/strided_slice/stack_2", "op": "Const", "attr": {"value": {"tensor": {"dtype": "DT_INT32", "tensorShape": {"dim": [{"size": "1"}]}}}, "dtype": {"type": "DT_INT32"}}}, {"name": "StatefulPartitionedCall/sequential_2/gru_3/PartitionedCall/while/loop_counter", "op": "Const", "attr": {"dtype": {"type": "DT_INT32"}, "value": {"tensor": {"dtype": "DT_INT32", "tensorShape": {}}}}}, {"name": "StatefulPartitionedCall/sequential_2/gru_3/PartitionedCall/TensorArrayV2Stack/TensorListStack/element_shape", "op": "Const", "attr": {"value": {"tensor": {"dtype": "DT_INT32", "tensorShape": {"dim": [{"size": "2"}]}}}, "dtype": {"type": "DT_INT32"}}}, {"name": "StatefulPartitionedCall/sequential_2/gru_3/PartitionedCall/strided_slice_2/stack", "op": "Const", "attr": {"value": {"tensor": {"dtype": "DT_INT32", "tensorShape": {"dim": [{"size": "1"}]}}}, "dtype": {"type": "DT_INT32"}}}, {"name": "StatefulPartitionedCall/sequential_2/gru_3/PartitionedCall/strided_slice_2/stack_1", "op": "Const", "attr": {"value": {"tensor": {"dtype": "DT_INT32", "tensorShape": {"dim": [{"size": "1"}]}}}, "dtype": {"type": "DT_INT32"}}}, {"name": "StatefulPartitionedCall/sequential_2/gru_3/PartitionedCall/strided_slice_2/stack_2", "op": "Const", "attr": {"value": {"tensor": {"dtype": "DT_INT32", "tensorShape": {"dim": [{"size": "1"}]}}}, "dtype": {"type": "DT_INT32"}}}, {"name": "unknown_13", "op": "Const", "attr": {"value": {"tensor": {"dtype": "DT_FLOAT", "tensorShape": {"dim": [{"size": "128"}, {"size": "1"}]}}}, "dtype": {"type": "DT_FLOAT"}}}, {"name": "unknown_14", "op": "Const", "attr": {"value": {"tensor": {"dtype": "DT_FLOAT", "tensorShape": {"dim": [{"size": "1"}]}}}, "dtype": {"type": "DT_FLOAT"}}}, {"name": "conv1d_input", "op": "Placeholder", "attr": {"shape": {"shape": {"dim": [{"size": "-1"}, {"size": "61"}, {"size": "64"}]}}, "dtype": {"type": "DT_FLOAT"}}}, {"name": "StatefulPartitionedCall/sequential_2/gru_3/PartitionedCall/while/enter/_244", "op": "Enter", "input": ["unknown_10"], "attr": {"frame_name": {"s": "U3RhdGVmdWxQYXJ0aXRpb25lZENhbGwvc2VxdWVudGlhbF8yL2dydV8zL1BhcnRpdGlvbmVkQ2FsbC93aGlsZQ=="}, "T": {"type": "DT_FLOAT"}, "is_constant": {"b": false}, "parallel_iterations": {"i": "32"}}}, {"name": "StatefulPartitionedCall/sequential_2/gru_3/PartitionedCall/while/enter/_245", "op": "Enter", "input": ["ConstantFolding/StatefulPartitionedCall/sequential_2/gru_3/PartitionedCall/unstack-folded-0"], "attr": {"T": {"type": "DT_FLOAT"}, "is_constant": {"b": false}, "parallel_iterations": {"i": "32"}, "frame_name": {"s": "U3RhdGVmdWxQYXJ0aXRpb25lZENhbGwvc2VxdWVudGlhbF8yL2dydV8zL1BhcnRpdGlvbmVkQ2FsbC93aGlsZQ=="}}}, {"name": "StatefulPartitionedCall/sequential_2/gru_3/PartitionedCall/while/enter/_246", "op": "Enter", "input": ["unknown_11"], "attr": {"T": {"type": "DT_FLOAT"}, "is_constant": {"b": false}, "parallel_iterations": {"i": "32"}, "frame_name": {"s": "U3RhdGVmdWxQYXJ0aXRpb25lZENhbGwvc2VxdWVudGlhbF8yL2dydV8zL1BhcnRpdGlvbmVkQ2FsbC93aGlsZQ=="}}}, {"name": "StatefulPartitionedCall/sequential_2/gru_3/PartitionedCall/while/enter/_247", "op": "Enter", "input": ["ConstantFolding/StatefulPartitionedCall/sequential_2/gru_3/PartitionedCall/unstack-folded-1"], "attr": {"T": {"type": "DT_FLOAT"}, "is_constant": {"b": false}, "parallel_iterations": {"i": "32"}, "frame_name": {"s": "U3RhdGVmdWxQYXJ0aXRpb25lZENhbGwvc2VxdWVudGlhbF8yL2dydV8zL1BhcnRpdGlvbmVkQ2FsbC93aGlsZQ=="}}}, {"name": "StatefulPartitionedCall/sequential_2/gru_3/PartitionedCall/while/enter/_239", "op": "Enter", "input": ["StatefulPartitionedCall/sequential_2/gru_3/PartitionedCall/time"], "attr": {"T": {"type": "DT_INT32"}, "is_constant": {"b": false}, "parallel_iterations": {"i": "32"}, "frame_name": {"s": "U3RhdGVmdWxQYXJ0aXRpb25lZENhbGwvc2VxdWVudGlhbF8yL2dydV8zL1BhcnRpdGlvbmVkQ2FsbC93aGlsZQ=="}}}, {"name": "StatefulPartitionedCall/sequential_2/gru_2/PartitionedCall/while/enter/_184", "op": "Enter", "input": ["unknown_7"], "attr": {"is_constant": {"b": false}, "parallel_iterations": {"i": "32"}, "frame_name": {"s": "U3RhdGVmdWxQYXJ0aXRpb25lZENhbGwvc2VxdWVudGlhbF8yL2dydV8yL1BhcnRpdGlvbmVkQ2FsbC93aGlsZQ=="}, "T": {"type": "DT_FLOAT"}}}, {"name": "StatefulPartitionedCall/sequential_2/gru_2/PartitionedCall/while/enter/_185", "op": "Enter", "input": ["ConstantFolding/StatefulPartitionedCall/sequential_2/gru_2/PartitionedCall/unstack-folded-0"], "attr": {"T": {"type": "DT_FLOAT"}, "is_constant": {"b": false}, "parallel_iterations": {"i": "32"}, "frame_name": {"s": "U3RhdGVmdWxQYXJ0aXRpb25lZENhbGwvc2VxdWVudGlhbF8yL2dydV8yL1BhcnRpdGlvbmVkQ2FsbC93aGlsZQ=="}}}, {"name": "StatefulPartitionedCall/sequential_2/gru_2/PartitionedCall/while/enter/_186", "op": "Enter", "input": ["unknown_8"], "attr": {"T": {"type": "DT_FLOAT"}, "is_constant": {"b": false}, "parallel_iterations": {"i": "32"}, "frame_name": {"s": "U3RhdGVmdWxQYXJ0aXRpb25lZENhbGwvc2VxdWVudGlhbF8yL2dydV8yL1BhcnRpdGlvbmVkQ2FsbC93aGlsZQ=="}}}, {"name": "StatefulPartitionedCall/sequential_2/gru_2/PartitionedCall/while/enter/_187", "op": "Enter", "input": ["ConstantFolding/StatefulPartitionedCall/sequential_2/gru_2/PartitionedCall/unstack-folded-1"], "attr": {"T": {"type": "DT_FLOAT"}, "is_constant": {"b": false}, "parallel_iterations": {"i": "32"}, "frame_name": {"s": "U3RhdGVmdWxQYXJ0aXRpb25lZENhbGwvc2VxdWVudGlhbF8yL2dydV8yL1BhcnRpdGlvbmVkQ2FsbC93aGlsZQ=="}}}, {"name": "StatefulPartitionedCall/sequential_2/gru_2/PartitionedCall/while/enter/_179", "op": "Enter", "input": ["StatefulPartitionedCall/sequential_2/gru_2/PartitionedCall/time"], "attr": {"T": {"type": "DT_INT32"}, "is_constant": {"b": false}, "parallel_iterations": {"i": "32"}, "frame_name": {"s": "U3RhdGVmdWxQYXJ0aXRpb25lZENhbGwvc2VxdWVudGlhbF8yL2dydV8yL1BhcnRpdGlvbmVkQ2FsbC93aGlsZQ=="}}}, {"name": "StatefulPartitionedCall/sequential_2/gru_1/PartitionedCall/while/enter/_124", "op": "Enter", "input": ["unknown_4"], "attr": {"frame_name": {"s": "U3RhdGVmdWxQYXJ0aXRpb25lZENhbGwvc2VxdWVudGlhbF8yL2dydV8xL1BhcnRpdGlvbmVkQ2FsbC93aGlsZQ=="}, "T": {"type": "DT_FLOAT"}, "is_constant": {"b": false}, "parallel_iterations": {"i": "32"}}}, {"name": "StatefulPartitionedCall/sequential_2/gru_1/PartitionedCall/while/enter/_125", "op": "Enter", "input": ["ConstantFolding/StatefulPartitionedCall/sequential_2/gru_1/PartitionedCall/unstack-folded-0"], "attr": {"T": {"type": "DT_FLOAT"}, "is_constant": {"b": false}, "parallel_iterations": {"i": "32"}, "frame_name": {"s": "U3RhdGVmdWxQYXJ0aXRpb25lZENhbGwvc2VxdWVudGlhbF8yL2dydV8xL1BhcnRpdGlvbmVkQ2FsbC93aGlsZQ=="}}}, {"name": "StatefulPartitionedCall/sequential_2/gru_1/PartitionedCall/while/enter/_126", "op": "Enter", "input": ["unknown_5"], "attr": {"parallel_iterations": {"i": "32"}, "frame_name": {"s": "U3RhdGVmdWxQYXJ0aXRpb25lZENhbGwvc2VxdWVudGlhbF8yL2dydV8xL1BhcnRpdGlvbmVkQ2FsbC93aGlsZQ=="}, "T": {"type": "DT_FLOAT"}, "is_constant": {"b": false}}}, {"name": "StatefulPartitionedCall/sequential_2/gru_1/PartitionedCall/while/enter/_127", "op": "Enter", "input": ["ConstantFolding/StatefulPartitionedCall/sequential_2/gru_1/PartitionedCall/unstack-folded-1"], "attr": {"T": {"type": "DT_FLOAT"}, "is_constant": {"b": false}, "parallel_iterations": {"i": "32"}, "frame_name": {"s": "U3RhdGVmdWxQYXJ0aXRpb25lZENhbGwvc2VxdWVudGlhbF8yL2dydV8xL1BhcnRpdGlvbmVkQ2FsbC93aGlsZQ=="}}}, {"name": "StatefulPartitionedCall/sequential_2/gru_1/PartitionedCall/while/enter/_119", "op": "Enter", "input": ["StatefulPartitionedCall/sequential_2/gru_1/PartitionedCall/time"], "attr": {"T": {"type": "DT_INT32"}, "is_constant": {"b": false}, "parallel_iterations": {"i": "32"}, "frame_name": {"s": "U3RhdGVmdWxQYXJ0aXRpb25lZENhbGwvc2VxdWVudGlhbF8yL2dydV8xL1BhcnRpdGlvbmVkQ2FsbC93aGlsZQ=="}}}, {"name": "StatefulPartitionedCall/sequential_2/gru/PartitionedCall/while/enter/_64", "op": "Enter", "input": ["unknown_1"], "attr": {"T": {"type": "DT_FLOAT"}, "is_constant": {"b": false}, "parallel_iterations": {"i": "32"}, "frame_name": {"s": "U3RhdGVmdWxQYXJ0aXRpb25lZENhbGwvc2VxdWVudGlhbF8yL2dydS9QYXJ0aXRpb25lZENhbGwvd2hpbGU="}}}, {"name": "StatefulPartitionedCall/sequential_2/gru/PartitionedCall/while/enter/_65", "op": "Enter", "input": ["ConstantFolding/StatefulPartitionedCall/sequential_2/gru/PartitionedCall/unstack-folded-0"], "attr": {"is_constant": {"b": false}, "parallel_iterations": {"i": "32"}, "frame_name": {"s": "U3RhdGVmdWxQYXJ0aXRpb25lZENhbGwvc2VxdWVudGlhbF8yL2dydS9QYXJ0aXRpb25lZENhbGwvd2hpbGU="}, "T": {"type": "DT_FLOAT"}}}, {"name": "StatefulPartitionedCall/sequential_2/gru/PartitionedCall/while/enter/_66", "op": "Enter", "input": ["unknown_2"], "attr": {"frame_name": {"s": "U3RhdGVmdWxQYXJ0aXRpb25lZENhbGwvc2VxdWVudGlhbF8yL2dydS9QYXJ0aXRpb25lZENhbGwvd2hpbGU="}, "T": {"type": "DT_FLOAT"}, "is_constant": {"b": false}, "parallel_iterations": {"i": "32"}}}, {"name": "StatefulPartitionedCall/sequential_2/gru/PartitionedCall/while/enter/_67", "op": "Enter", "input": ["ConstantFolding/StatefulPartitionedCall/sequential_2/gru/PartitionedCall/unstack-folded-1"], "attr": {"is_constant": {"b": false}, "parallel_iterations": {"i": "32"}, "frame_name": {"s": "U3RhdGVmdWxQYXJ0aXRpb25lZENhbGwvc2VxdWVudGlhbF8yL2dydS9QYXJ0aXRpb25lZENhbGwvd2hpbGU="}, "T": {"type": "DT_FLOAT"}}}, {"name": "StatefulPartitionedCall/sequential_2/gru/PartitionedCall/while/enter/_59", "op": "Enter", "input": ["StatefulPartitionedCall/sequential_2/gru/PartitionedCall/time"], "attr": {"parallel_iterations": {"i": "32"}, "frame_name": {"s": "U3RhdGVmdWxQYXJ0aXRpb25lZENhbGwvc2VxdWVudGlhbF8yL2dydS9QYXJ0aXRpb25lZENhbGwvd2hpbGU="}, "T": {"type": "DT_INT32"}, "is_constant": {"b": false}}}, {"name": "StatefulPartitionedCall/sequential_2/gru/PartitionedCall/while/enter/_57", "op": "Enter", "input": ["StatefulPartitionedCall/sequential_2/gru/PartitionedCall/while/loop_counter"], "attr": {"frame_name": {"s": "U3RhdGVmdWxQYXJ0aXRpb25lZENhbGwvc2VxdWVudGlhbF8yL2dydS9QYXJ0aXRpb25lZENhbGwvd2hpbGU="}, "T": {"type": "DT_INT32"}, "is_constant": {"b": false}, "parallel_iterations": {"i": "32"}}}, {"name": "StatefulPartitionedCall/sequential_2/gru_1/PartitionedCall/while/enter/_117", "op": "Enter", "input": ["StatefulPartitionedCall/sequential_2/gru_1/PartitionedCall/while/loop_counter"], "attr": {"T": {"type": "DT_INT32"}, "is_constant": {"b": false}, "parallel_iterations": {"i": "32"}, "frame_name": {"s": "U3RhdGVmdWxQYXJ0aXRpb25lZENhbGwvc2VxdWVudGlhbF8yL2dydV8xL1BhcnRpdGlvbmVkQ2FsbC93aGlsZQ=="}}}, {"name": "StatefulPartitionedCall/sequential_2/gru_2/PartitionedCall/while/enter/_177", "op": "Enter", "input": ["StatefulPartitionedCall/sequential_2/gru_2/PartitionedCall/while/loop_counter"], "attr": {"T": {"type": "DT_INT32"}, "is_constant": {"b": false}, "parallel_iterations": {"i": "32"}, "frame_name": {"s": "U3RhdGVmdWxQYXJ0aXRpb25lZENhbGwvc2VxdWVudGlhbF8yL2dydV8yL1BhcnRpdGlvbmVkQ2FsbC93aGlsZQ=="}}}, {"name": "StatefulPartitionedCall/sequential_2/gru_3/PartitionedCall/while/enter/_237", "op": "Enter", "input": ["StatefulPartitionedCall/sequential_2/gru_3/PartitionedCall/while/loop_counter"], "attr": {"T": {"type": "DT_INT32"}, "is_constant": {"b": false}, "parallel_iterations": {"i": "32"}, "frame_name": {"s": "U3RhdGVmdWxQYXJ0aXRpb25lZENhbGwvc2VxdWVudGlhbF8yL2dydV8zL1BhcnRpdGlvbmVkQ2FsbC93aGlsZQ=="}}}, {"name": "StatefulPartitionedCall/sequential_2/conv1d/conv1d/ExpandDims", "op": "ExpandDims", "input": ["conv1d_input", "StatefulPartitionedCall/sequential_2/conv1d/conv1d/ExpandDims/dim"], "attr": {"Tdim": {"type": "DT_INT32"}, "T": {"type": "DT_FLOAT"}}}, {"name": "StatefulPartitionedCall/sequential_2/gru_3/PartitionedCall/while/merge/_255", "op": "Merge", "input": ["StatefulPartitionedCall/sequential_2/gru_3/PartitionedCall/while/enter/_244", "StatefulPartitionedCall/sequential_2/gru_3/PartitionedCall/while/next_iteration/_291"], "attr": {"T": {"type": "DT_FLOAT"}, "N": {"i": "2"}}}, {"name": "StatefulPartitionedCall/sequential_2/gru_3/PartitionedCall/while/merge/_256", "op": "Merge", "input": ["StatefulPartitionedCall/sequential_2/gru_3/PartitionedCall/while/enter/_245", "StatefulPartitionedCall/sequential_2/gru_3/PartitionedCall/while/next_iteration/_292"], "attr": {"N": {"i": "2"}, "T": {"type": "DT_FLOAT"}}}, {"name": "StatefulPartitionedCall/sequential_2/gru_3/PartitionedCall/while/merge/_257", "op": "Merge", "input": ["StatefulPartitionedCall/sequential_2/gru_3/PartitionedCall/while/enter/_246", "StatefulPartitionedCall/sequential_2/gru_3/PartitionedCall/while/next_iteration/_293"], "attr": {"T": {"type": "DT_FLOAT"}, "N": {"i": "2"}}}, {"name": "StatefulPartitionedCall/sequential_2/gru_3/PartitionedCall/while/merge/_258", "op": "Merge", "input": ["StatefulPartitionedCall/sequential_2/gru_3/PartitionedCall/while/enter/_247", "StatefulPartitionedCall/sequential_2/gru_3/PartitionedCall/while/next_iteration/_294"], "attr": {"T": {"type": "DT_FLOAT"}, "N": {"i": "2"}}}, {"name": "StatefulPartitionedCall/sequential_2/gru_3/PartitionedCall/while/merge/_250", "op": "Merge", "input": ["StatefulPartitionedCall/sequential_2/gru_3/PartitionedCall/while/enter/_239", "StatefulPartitionedCall/sequential_2/gru_3/PartitionedCall/while/next_iteration/_286"], "attr": {"T": {"type": "DT_INT32"}, "N": {"i": "2"}}}, {"name": "StatefulPartitionedCall/sequential_2/gru_2/PartitionedCall/while/merge/_195", "op": "Merge", "input": ["StatefulPartitionedCall/sequential_2/gru_2/PartitionedCall/while/enter/_184", "StatefulPartitionedCall/sequential_2/gru_2/PartitionedCall/while/next_iteration/_231"], "attr": {"N": {"i": "2"}, "T": {"type": "DT_FLOAT"}}}, {"name": "StatefulPartitionedCall/sequential_2/gru_2/PartitionedCall/while/merge/_196", "op": "Merge", "input": ["StatefulPartitionedCall/sequential_2/gru_2/PartitionedCall/while/enter/_185", "StatefulPartitionedCall/sequential_2/gru_2/PartitionedCall/while/next_iteration/_232"], "attr": {"N": {"i": "2"}, "T": {"type": "DT_FLOAT"}}}, {"name": "StatefulPartitionedCall/sequential_2/gru_2/PartitionedCall/while/merge/_197", "op": "Merge", "input": ["StatefulPartitionedCall/sequential_2/gru_2/PartitionedCall/while/enter/_186", "StatefulPartitionedCall/sequential_2/gru_2/PartitionedCall/while/next_iteration/_233"], "attr": {"T": {"type": "DT_FLOAT"}, "N": {"i": "2"}}}, {"name": "StatefulPartitionedCall/sequential_2/gru_2/PartitionedCall/while/merge/_198", "op": "Merge", "input": ["StatefulPartitionedCall/sequential_2/gru_2/PartitionedCall/while/enter/_187", "StatefulPartitionedCall/sequential_2/gru_2/PartitionedCall/while/next_iteration/_234"], "attr": {"T": {"type": "DT_FLOAT"}, "N": {"i": "2"}}}, {"name": "StatefulPartitionedCall/sequential_2/gru_2/PartitionedCall/while/merge/_190", "op": "Merge", "input": ["StatefulPartitionedCall/sequential_2/gru_2/PartitionedCall/while/enter/_179", "StatefulPartitionedCall/sequential_2/gru_2/PartitionedCall/while/next_iteration/_226"], "attr": {"T": {"type": "DT_INT32"}, "N": {"i": "2"}}}, {"name": "StatefulPartitionedCall/sequential_2/gru_1/PartitionedCall/while/merge/_135", "op": "Merge", "input": ["StatefulPartitionedCall/sequential_2/gru_1/PartitionedCall/while/enter/_124", "StatefulPartitionedCall/sequential_2/gru_1/PartitionedCall/while/next_iteration/_171"], "attr": {"N": {"i": "2"}, "T": {"type": "DT_FLOAT"}}}, {"name": "StatefulPartitionedCall/sequential_2/gru_1/PartitionedCall/while/merge/_136", "op": "Merge", "input": ["StatefulPartitionedCall/sequential_2/gru_1/PartitionedCall/while/enter/_125", "StatefulPartitionedCall/sequential_2/gru_1/PartitionedCall/while/next_iteration/_172"], "attr": {"N": {"i": "2"}, "T": {"type": "DT_FLOAT"}}}, {"name": "StatefulPartitionedCall/sequential_2/gru_1/PartitionedCall/while/merge/_137", "op": "Merge", "input": ["StatefulPartitionedCall/sequential_2/gru_1/PartitionedCall/while/enter/_126", "StatefulPartitionedCall/sequential_2/gru_1/PartitionedCall/while/next_iteration/_173"], "attr": {"N": {"i": "2"}, "T": {"type": "DT_FLOAT"}}}, {"name": "StatefulPartitionedCall/sequential_2/gru_1/PartitionedCall/while/merge/_138", "op": "Merge", "input": ["StatefulPartitionedCall/sequential_2/gru_1/PartitionedCall/while/enter/_127", "StatefulPartitionedCall/sequential_2/gru_1/PartitionedCall/while/next_iteration/_174"], "attr": {"N": {"i": "2"}, "T": {"type": "DT_FLOAT"}}}, {"name": "StatefulPartitionedCall/sequential_2/gru_1/PartitionedCall/while/merge/_130", "op": "Merge", "input": ["StatefulPartitionedCall/sequential_2/gru_1/PartitionedCall/while/enter/_119", "StatefulPartitionedCall/sequential_2/gru_1/PartitionedCall/while/next_iteration/_166"], "attr": {"T": {"type": "DT_INT32"}, "N": {"i": "2"}}}, {"name": "StatefulPartitionedCall/sequential_2/gru/PartitionedCall/while/merge/_75", "op": "Merge", "input": ["StatefulPartitionedCall/sequential_2/gru/PartitionedCall/while/enter/_64", "StatefulPartitionedCall/sequential_2/gru/PartitionedCall/while/next_iteration/_111"], "attr": {"T": {"type": "DT_FLOAT"}, "N": {"i": "2"}}}, {"name": "StatefulPartitionedCall/sequential_2/gru/PartitionedCall/while/merge/_76", "op": "Merge", "input": ["StatefulPartitionedCall/sequential_2/gru/PartitionedCall/while/enter/_65", "StatefulPartitionedCall/sequential_2/gru/PartitionedCall/while/next_iteration/_112"], "attr": {"T": {"type": "DT_FLOAT"}, "N": {"i": "2"}}}, {"name": "StatefulPartitionedCall/sequential_2/gru/PartitionedCall/while/merge/_77", "op": "Merge", "input": ["StatefulPartitionedCall/sequential_2/gru/PartitionedCall/while/enter/_66", "StatefulPartitionedCall/sequential_2/gru/PartitionedCall/while/next_iteration/_113"], "attr": {"T": {"type": "DT_FLOAT"}, "N": {"i": "2"}}}, {"name": "StatefulPartitionedCall/sequential_2/gru/PartitionedCall/while/merge/_78", "op": "Merge", "input": ["StatefulPartitionedCall/sequential_2/gru/PartitionedCall/while/enter/_67", "StatefulPartitionedCall/sequential_2/gru/PartitionedCall/while/next_iteration/_114"], "attr": {"T": {"type": "DT_FLOAT"}, "N": {"i": "2"}}}, {"name": "StatefulPartitionedCall/sequential_2/gru/PartitionedCall/while/merge/_70", "op": "Merge", "input": ["StatefulPartitionedCall/sequential_2/gru/PartitionedCall/while/enter/_59", "StatefulPartitionedCall/sequential_2/gru/PartitionedCall/while/next_iteration/_106"], "attr": {"T": {"type": "DT_INT32"}, "N": {"i": "2"}}}, {"name": "StatefulPartitionedCall/sequential_2/gru/PartitionedCall/while/merge/_68", "op": "Merge", "input": ["StatefulPartitionedCall/sequential_2/gru/PartitionedCall/while/enter/_57", "StatefulPartitionedCall/sequential_2/gru/PartitionedCall/while/next_iteration/_104"], "attr": {"T": {"type": "DT_INT32"}, "N": {"i": "2"}}}, {"name": "StatefulPartitionedCall/sequential_2/gru_1/PartitionedCall/while/merge/_128", "op": "Merge", "input": ["StatefulPartitionedCall/sequential_2/gru_1/PartitionedCall/while/enter/_117", "StatefulPartitionedCall/sequential_2/gru_1/PartitionedCall/while/next_iteration/_164"], "attr": {"T": {"type": "DT_INT32"}, "N": {"i": "2"}}}, {"name": "StatefulPartitionedCall/sequential_2/gru_2/PartitionedCall/while/merge/_188", "op": "Merge", "input": ["StatefulPartitionedCall/sequential_2/gru_2/PartitionedCall/while/enter/_177", "StatefulPartitionedCall/sequential_2/gru_2/PartitionedCall/while/next_iteration/_224"], "attr": {"N": {"i": "2"}, "T": {"type": "DT_INT32"}}}, {"name": "StatefulPartitionedCall/sequential_2/gru_3/PartitionedCall/while/merge/_248", "op": "Merge", "input": ["StatefulPartitionedCall/sequential_2/gru_3/PartitionedCall/while/enter/_237", "StatefulPartitionedCall/sequential_2/gru_3/PartitionedCall/while/next_iteration/_284"], "attr": {"T": {"type": "DT_INT32"}, "N": {"i": "2"}}}, {"name": "StatefulPartitionedCall/sequential_2/conv1d/conv1d", "op": "_FusedConv2D", "input": ["StatefulPartitionedCall/sequential_2/conv1d/conv1d/ExpandDims", "StatefulPartitionedCall/sequential_2/conv1d/conv1d/ExpandDims_1", "unknown_0"], "device": "/device:CPU:0", "attr": {"dilations": {"list": {"i": ["1", "1", "1", "1"]}}, "T": {"type": "DT_FLOAT"}, "data_format": {"s": "TkhXQw=="}, "strides": {"list": {"i": ["1", "1", "2", "1"]}}, "explicit_paddings": {"list": {}}, "use_cudnn_on_gpu": {"b": true}, "num_args": {"i": "1"}, "epsilon": {"f": 0.0}, "padding": {"s": "VkFMSUQ="}, "fused_ops": {"list": {"s": ["Qmlhc0FkZA=="]}}}}, {"name": "StatefulPartitionedCall/sequential_2/conv1d/BiasAdd", "op": "Squeeze", "input": ["StatefulPartitionedCall/sequential_2/conv1d/conv1d"], "attr": {"squeeze_dims": {"list": {"i": ["-3"]}}, "T": {"type": "DT_FLOAT"}}}, {"name": "StatefulPartitionedCall/sequential_2/conv1d/Relu", "op": "Relu", "input": ["StatefulPartitionedCall/sequential_2/conv1d/BiasAdd"], "attr": {"T": {"type": "DT_FLOAT"}}}, {"name": "StatefulPartitionedCall/sequential_2/gru/Shape", "op": "Shape", "input": ["StatefulPartitionedCall/sequential_2/conv1d/Relu"], "attr": {"T": {"type": "DT_FLOAT"}, "out_type": {"type": "DT_INT32"}}}, {"name": "StatefulPartitionedCall/sequential_2/gru/PartitionedCall/transpose", "op": "Transpose", "input": ["StatefulPartitionedCall/sequential_2/conv1d/Relu", "StatefulPartitionedCall/sequential_2/gru/PartitionedCall/transpose/perm"], "attr": {"T": {"type": "DT_FLOAT"}, "Tperm": {"type": "DT_INT32"}}}, {"name": "StatefulPartitionedCall/sequential_2/gru/strided_slice", "op": "StridedSlice", "input": ["StatefulPartitionedCall/sequential_2/gru/Shape", "StatefulPartitionedCall/sequential_2/gru/strided_slice/stack", "StatefulPartitionedCall/sequential_2/gru/strided_slice/stack_1", "StatefulPartitionedCall/sequential_2/gru/strided_slice/stack_2"], "attr": {"shrink_axis_mask": {"i": "1"}, "ellipsis_mask": {"i": "0"}, "begin_mask": {"i": "0"}, "new_axis_mask": {"i": "0"}, "end_mask": {"i": "0"}, "Index": {"type": "DT_INT32"}, "T": {"type": "DT_INT32"}}}, {"name": "StatefulPartitionedCall/sequential_2/gru/PartitionedCall/TensorArrayUnstack/TensorListFromTensor", "op": "TensorListFromTensor", "input": ["StatefulPartitionedCall/sequential_2/gru/PartitionedCall/transpose", "StatefulPartitionedCall/sequential_2/gru/PartitionedCall/TensorArrayUnstack/TensorListFromTensor/element_shape"], "attr": {"shape_type": {"type": "DT_INT32"}, "element_dtype": {"type": "DT_FLOAT"}}}, {"name": "StatefulPartitionedCall/sequential_2/gru/PartitionedCall/Shape", "op": "Shape", "input": ["StatefulPartitionedCall/sequential_2/gru/PartitionedCall/transpose"], "attr": {"T": {"type": "DT_FLOAT"}, "out_type": {"type": "DT_INT32"}}}, {"name": "StatefulPartitionedCall/sequential_2/gru/zeros/packed", "op": "Pack", "input": ["StatefulPartitionedCall/sequential_2/gru/strided_slice", "StatefulPartitionedCall/sequential_2/gru/zeros/packed/1"], "attr": {"T": {"type": "DT_INT32"}, "axis": {"i": "0"}, "N": {"i": "2"}}}, {"name": "StatefulPartitionedCall/sequential_2/gru/PartitionedCall/while/enter/_63", "op": "Enter", "input": ["StatefulPartitionedCall/sequential_2/gru/PartitionedCall/TensorArrayUnstack/TensorListFromTensor"], "attr": {"T": {"type": "DT_VARIANT"}, "is_constant": {"b": false}, "parallel_iterations": {"i": "32"}, "frame_name": {"s": "U3RhdGVmdWxQYXJ0aXRpb25lZENhbGwvc2VxdWVudGlhbF8yL2dydS9QYXJ0aXRpb25lZENhbGwvd2hpbGU="}}}, {"name": "StatefulPartitionedCall/sequential_2/gru/PartitionedCall/strided_slice", "op": "StridedSlice", "input": ["StatefulPartitionedCall/sequential_2/gru/PartitionedCall/Shape", "StatefulPartitionedCall/sequential_2/gru/PartitionedCall/strided_slice/stack", "StatefulPartitionedCall/sequential_2/gru/PartitionedCall/strided_slice/stack_1", "StatefulPartitionedCall/sequential_2/gru/PartitionedCall/strided_slice/stack_2"], "attr": {"shrink_axis_mask": {"i": "1"}, "ellipsis_mask": {"i": "0"}, "begin_mask": {"i": "0"}, "new_axis_mask": {"i": "0"}, "end_mask": {"i": "0"}, "Index": {"type": "DT_INT32"}, "T": {"type": "DT_INT32"}}}, {"name": "StatefulPartitionedCall/sequential_2/gru/zeros", "op": "Fill", "input": ["StatefulPartitionedCall/sequential_2/gru/zeros/packed", "StatefulPartitionedCall/sequential_2/gru/zeros/Const"], "attr": {"T": {"type": "DT_FLOAT"}, "index_type": {"type": "DT_INT32"}}}, {"name": "StatefulPartitionedCall/sequential_2/gru/PartitionedCall/while/merge/_74", "op": "Merge", "input": ["StatefulPartitionedCall/sequential_2/gru/PartitionedCall/while/enter/_63", "StatefulPartitionedCall/sequential_2/gru/PartitionedCall/while/next_iteration/_110"], "attr": {"N": {"i": "2"}, "T": {"type": "DT_VARIANT"}}}, {"name": "StatefulPartitionedCall/sequential_2/gru/PartitionedCall/TensorArrayV2_1", "op": "TensorListReserve", "input": ["StatefulPartitionedCall/sequential_2/gru/PartitionedCall/TensorArrayV2_1/element_shape", "StatefulPartitionedCall/sequential_2/gru/PartitionedCall/strided_slice"], "attr": {"shape_type": {"type": "DT_INT32"}, "element_dtype": {"type": "DT_FLOAT"}}}, {"name": "StatefulPartitionedCall/sequential_2/gru/PartitionedCall/while/enter/_62", "op": "Enter", "input": ["StatefulPartitionedCall/sequential_2/gru/PartitionedCall/strided_slice"], "attr": {"T": {"type": "DT_INT32"}, "is_constant": {"b": false}, "parallel_iterations": {"i": "32"}, "frame_name": {"s": "U3RhdGVmdWxQYXJ0aXRpb25lZENhbGwvc2VxdWVudGlhbF8yL2dydS9QYXJ0aXRpb25lZENhbGwvd2hpbGU="}}}, {"name": "StatefulPartitionedCall/sequential_2/gru/PartitionedCall/while/enter/_61", "op": "Enter", "input": ["StatefulPartitionedCall/sequential_2/gru/zeros"], "attr": {"frame_name": {"s": "U3RhdGVmdWxQYXJ0aXRpb25lZENhbGwvc2VxdWVudGlhbF8yL2dydS9QYXJ0aXRpb25lZENhbGwvd2hpbGU="}, "T": {"type": "DT_FLOAT"}, "is_constant": {"b": false}, "parallel_iterations": {"i": "32"}}}, {"name": "StatefulPartitionedCall/sequential_2/gru/PartitionedCall/while/enter/_60", "op": "Enter", "input": ["StatefulPartitionedCall/sequential_2/gru/PartitionedCall/TensorArrayV2_1"], "attr": {"T": {"type": "DT_VARIANT"}, "is_constant": {"b": false}, "parallel_iterations": {"i": "32"}, "frame_name": {"s": "U3RhdGVmdWxQYXJ0aXRpb25lZENhbGwvc2VxdWVudGlhbF8yL2dydS9QYXJ0aXRpb25lZENhbGwvd2hpbGU="}}}, {"name": "StatefulPartitionedCall/sequential_2/gru/PartitionedCall/while/merge/_73", "op": "Merge", "input": ["StatefulPartitionedCall/sequential_2/gru/PartitionedCall/while/enter/_62", "StatefulPartitionedCall/sequential_2/gru/PartitionedCall/while/next_iteration/_109"], "attr": {"T": {"type": "DT_INT32"}, "N": {"i": "2"}}}, {"name": "StatefulPartitionedCall/sequential_2/gru/PartitionedCall/while/merge/_72", "op": "Merge", "input": ["StatefulPartitionedCall/sequential_2/gru/PartitionedCall/while/enter/_61", "StatefulPartitionedCall/sequential_2/gru/PartitionedCall/while/next_iteration/_108"], "attr": {"N": {"i": "2"}, "T": {"type": "DT_FLOAT"}}}, {"name": "StatefulPartitionedCall/sequential_2/gru/PartitionedCall/while/merge/_71", "op": "Merge", "input": ["StatefulPartitionedCall/sequential_2/gru/PartitionedCall/while/enter/_60", "StatefulPartitionedCall/sequential_2/gru/PartitionedCall/while/next_iteration/_107"], "attr": {"T": {"type": "DT_VARIANT"}, "N": {"i": "2"}}}, {"name": "StatefulPartitionedCall/sequential_2/gru/PartitionedCall/while/cond/_55/while/Less", "op": "Less", "input": ["StatefulPartitionedCall/sequential_2/gru/PartitionedCall/while/merge/_70", "StatefulPartitionedCall/sequential_2/gru/PartitionedCall/while/merge/_73", "^StatefulPartitionedCall/sequential_2/gru/PartitionedCall/while/merge/_68"], "attr": {"T": {"type": "DT_INT32"}}}, {"name": "StatefulPartitionedCall/sequential_2/gru/PartitionedCall/while/LoopCond/_79", "op": "LoopCond", "input": ["StatefulPartitionedCall/sequential_2/gru/PartitionedCall/while/cond/_55/while/Less"]}, {"name": "StatefulPartitionedCall/sequential_2/gru/PartitionedCall/while/StatefulPartitionedCall/sequential_2/gru/PartitionedCall/TensorArrayUnstack/TensorListFromTensor_switch/_86", "op": "Switch", "input": ["StatefulPartitionedCall/sequential_2/gru/PartitionedCall/while/merge/_74", "StatefulPartitionedCall/sequential_2/gru/PartitionedCall/while/LoopCond/_79"], "attr": {"T": {"type": "DT_VARIANT"}}}, {"name": "StatefulPartitionedCall/sequential_2/gru/PartitionedCall/while/Func/StatefulPartitionedCall/sequential_2/gru/PartitionedCall/input/_21_switch/_87", "op": "Switch", "input": ["StatefulPartitionedCall/sequential_2/gru/PartitionedCall/while/merge/_75", "StatefulPartitionedCall/sequential_2/gru/PartitionedCall/while/LoopCond/_79"], "attr": {"T": {"type": "DT_FLOAT"}}}, {"name": "StatefulPartitionedCall/sequential_2/gru/PartitionedCall/while/StatefulPartitionedCall/sequential_2/gru/PartitionedCall/unstack_switch/_88", "op": "Switch", "input": ["StatefulPartitionedCall/sequential_2/gru/PartitionedCall/while/merge/_76", "StatefulPartitionedCall/sequential_2/gru/PartitionedCall/while/LoopCond/_79"], "attr": {"T": {"type": "DT_FLOAT"}}}, {"name": "StatefulPartitionedCall/sequential_2/gru/PartitionedCall/while/Func/StatefulPartitionedCall/sequential_2/gru/PartitionedCall/input/_20_switch/_84", "op": "Switch", "input": ["StatefulPartitionedCall/sequential_2/gru/PartitionedCall/while/merge/_72", "StatefulPartitionedCall/sequential_2/gru/PartitionedCall/while/LoopCond/_79"], "attr": {"T": {"type": "DT_FLOAT"}}}, {"name": "StatefulPartitionedCall/sequential_2/gru/PartitionedCall/while/Func/StatefulPartitionedCall/sequential_2/gru/PartitionedCall/input/_22_switch/_89", "op": "Switch", "input": ["StatefulPartitionedCall/sequential_2/gru/PartitionedCall/while/merge/_77", "StatefulPartitionedCall/sequential_2/gru/PartitionedCall/while/LoopCond/_79"], "attr": {"T": {"type": "DT_FLOAT"}}}, {"name": "StatefulPartitionedCall/sequential_2/gru/PartitionedCall/while/StatefulPartitionedCall/sequential_2/gru/PartitionedCall/unstack_switch/_90", "op": "Switch", "input": ["StatefulPartitionedCall/sequential_2/gru/PartitionedCall/while/merge/_78", "StatefulPartitionedCall/sequential_2/gru/PartitionedCall/while/LoopCond/_79"], "attr": {"T": {"type": "DT_FLOAT"}}}, {"name": "StatefulPartitionedCall/sequential_2/gru/PartitionedCall/while/StatefulPartitionedCall/sequential_2/gru/PartitionedCall/time_switch/_82", "op": "Switch", "input": ["StatefulPartitionedCall/sequential_2/gru/PartitionedCall/while/merge/_70", "StatefulPartitionedCall/sequential_2/gru/PartitionedCall/while/LoopCond/_79"], "attr": {"T": {"type": "DT_INT32"}}}, {"name": "StatefulPartitionedCall/sequential_2/gru/PartitionedCall/while/StatefulPartitionedCall/sequential_2/gru/PartitionedCall/while/loop_counter_switch/_80", "op": "Switch", "input": ["StatefulPartitionedCall/sequential_2/gru/PartitionedCall/while/merge/_68", "StatefulPartitionedCall/sequential_2/gru/PartitionedCall/while/LoopCond/_79"], "attr": {"T": {"type": "DT_INT32"}}}, {"name": "StatefulPartitionedCall/sequential_2/gru/PartitionedCall/while/StatefulPartitionedCall/sequential_2/gru/PartitionedCall/TensorArrayV2_1_switch/_83", "op": "Switch", "input": ["StatefulPartitionedCall/sequential_2/gru/PartitionedCall/while/merge/_71", "StatefulPartitionedCall/sequential_2/gru/PartitionedCall/while/LoopCond/_79"], "attr": {"T": {"type": "DT_VARIANT"}}}, {"name": "StatefulPartitionedCall/sequential_2/gru/PartitionedCall/while/StatefulPartitionedCall/sequential_2/gru/PartitionedCall/strided_slice_switch/_85", "op": "Switch", "input": ["StatefulPartitionedCall/sequential_2/gru/PartitionedCall/while/merge/_73", "StatefulPartitionedCall/sequential_2/gru/PartitionedCall/while/LoopCond/_79"], "attr": {"T": {"type": "DT_INT32"}}}, {"name": "StatefulPartitionedCall/sequential_2/gru/PartitionedCall/while/loop_body_control/_91", "op": "Identity", "input": ["StatefulPartitionedCall/sequential_2/gru/PartitionedCall/while/StatefulPartitionedCall/sequential_2/gru/PartitionedCall/while/loop_counter_switch/_80:1"], "attr": {"T": {"type": "DT_INT32"}}}, {"name": "StatefulPartitionedCall/sequential_2/gru/PartitionedCall/while/exit/_95", "op": "Exit", "input": ["StatefulPartitionedCall/sequential_2/gru/PartitionedCall/while/StatefulPartitionedCall/sequential_2/gru/PartitionedCall/TensorArrayV2_1_switch/_83"], "attr": {"T": {"type": "DT_VARIANT"}}}, {"name": "StatefulPartitionedCall/sequential_2/gru/PartitionedCall/while/body/_56/while/sub/x", "op": "Const", "input": ["^StatefulPartitionedCall/sequential_2/gru/PartitionedCall/while/loop_body_control/_91"], "attr": {"value": {"tensor": {"dtype": "DT_FLOAT", "tensorShape": {}}}, "dtype": {"type": "DT_FLOAT"}}}, {"name": "StatefulPartitionedCall/sequential_2/gru/PartitionedCall/while/body/_56/while/split/split_dim", "op": "Const", "input": ["^StatefulPartitionedCall/sequential_2/gru/PartitionedCall/while/loop_body_control/_91"], "attr": {"value": {"tensor": {"dtype": "DT_INT32", "tensorShape": {}}}, "dtype": {"type": "DT_INT32"}}}, {"name": "StatefulPartitionedCall/sequential_2/gru/PartitionedCall/while/next_iteration/_110", "op": "NextIteration", "input": ["StatefulPartitionedCall/sequential_2/gru/PartitionedCall/while/StatefulPartitionedCall/sequential_2/gru/PartitionedCall/TensorArrayUnstack/TensorListFromTensor_switch/_86:1", "^StatefulPartitionedCall/sequential_2/gru/PartitionedCall/while/loop_body_control/_91"], "attr": {"T": {"type": "DT_VARIANT"}}}, {"name": "StatefulPartitionedCall/sequential_2/gru/PartitionedCall/while/body/_56/while/TensorArrayV2Read/TensorListGetItem/element_shape", "op": "Const", "input": ["^StatefulPartitionedCall/sequential_2/gru/PartitionedCall/while/loop_body_control/_91"], "attr": {"value": {"tensor": {"dtype": "DT_INT32", "tensorShape": {"dim": [{"size": "2"}]}}}, "dtype": {"type": "DT_INT32"}}}, {"name": "StatefulPartitionedCall/sequential_2/gru/PartitionedCall/while/next_iteration/_111", "op": "NextIteration", "input": ["StatefulPartitionedCall/sequential_2/gru/PartitionedCall/while/Func/StatefulPartitionedCall/sequential_2/gru/PartitionedCall/input/_21_switch/_87:1", "^StatefulPartitionedCall/sequential_2/gru/PartitionedCall/while/loop_body_control/_91"], "attr": {"T": {"type": "DT_FLOAT"}}}, {"name": "StatefulPartitionedCall/sequential_2/gru/PartitionedCall/while/next_iteration/_112", "op": "NextIteration", "input": ["StatefulPartitionedCall/sequential_2/gru/PartitionedCall/while/StatefulPartitionedCall/sequential_2/gru/PartitionedCall/unstack_switch/_88:1", "^StatefulPartitionedCall/sequential_2/gru/PartitionedCall/while/loop_body_control/_91"], "attr": {"T": {"type": "DT_FLOAT"}}}, {"name": "StatefulPartitionedCall/sequential_2/gru/PartitionedCall/while/body/_56/while/split_1/split_dim", "op": "Const", "input": ["^StatefulPartitionedCall/sequential_2/gru/PartitionedCall/while/loop_body_control/_91"], "attr": {"value": {"tensor": {"dtype": "DT_INT32", "tensorShape": {}}}, "dtype": {"type": "DT_INT32"}}}, {"name": "StatefulPartitionedCall/sequential_2/gru/PartitionedCall/while/next_iteration/_113", "op": "NextIteration", "input": ["StatefulPartitionedCall/sequential_2/gru/PartitionedCall/while/Func/StatefulPartitionedCall/sequential_2/gru/PartitionedCall/input/_22_switch/_89:1", "^StatefulPartitionedCall/sequential_2/gru/PartitionedCall/while/loop_body_control/_91"], "attr": {"T": {"type": "DT_FLOAT"}}}, {"name": "StatefulPartitionedCall/sequential_2/gru/PartitionedCall/while/body/_56/while/MatMul_1", "op": "MatMul", "input": ["StatefulPartitionedCall/sequential_2/gru/PartitionedCall/while/Func/StatefulPartitionedCall/sequential_2/gru/PartitionedCall/input/_20_switch/_84:1", "StatefulPartitionedCall/sequential_2/gru/PartitionedCall/while/Func/StatefulPartitionedCall/sequential_2/gru/PartitionedCall/input/_22_switch/_89:1", "^StatefulPartitionedCall/sequential_2/gru/PartitionedCall/while/loop_body_control/_91"], "device": "/device:CPU:0", "attr": {"T": {"type": "DT_FLOAT"}, "transpose_a": {"b": false}, "transpose_b": {"b": false}}}, {"name": "StatefulPartitionedCall/sequential_2/gru/PartitionedCall/while/next_iteration/_114", "op": "NextIteration", "input": ["StatefulPartitionedCall/sequential_2/gru/PartitionedCall/while/StatefulPartitionedCall/sequential_2/gru/PartitionedCall/unstack_switch/_90:1", "^StatefulPartitionedCall/sequential_2/gru/PartitionedCall/while/loop_body_control/_91"], "attr": {"T": {"type": "DT_FLOAT"}}}, {"name": "Func/StatefulPartitionedCall/sequential_2/gru/PartitionedCall/while/body/_56/input/_311", "op": "Identity", "input": ["StatefulPartitionedCall/sequential_2/gru/PartitionedCall/while/StatefulPartitionedCall/sequential_2/gru/PartitionedCall/time_switch/_82:1", "^StatefulPartitionedCall/sequential_2/gru/PartitionedCall/while/loop_body_control/_91"], "attr": {"T": {"type": "DT_INT32"}}}, {"name": "StatefulPartitionedCall/sequential_2/gru/PartitionedCall/while/body/_56/while/add_4/y", "op": "Const", "input": ["^StatefulPartitionedCall/sequential_2/gru/PartitionedCall/while/loop_body_control/_91"], "attr": {"value": {"tensor": {"dtype": "DT_INT32", "tensorShape": {}}}, "dtype": {"type": "DT_INT32"}}}, {"name": "StatefulPartitionedCall/sequential_2/gru/PartitionedCall/while/body/_56/while/add_5/y", "op": "Const", "input": ["^StatefulPartitionedCall/sequential_2/gru/PartitionedCall/while/loop_body_control/_91"], "attr": {"value": {"tensor": {"dtype": "DT_INT32", "tensorShape": {}}}, "dtype": {"type": "DT_INT32"}}}, {"name": "StatefulPartitionedCall/sequential_2/gru/PartitionedCall/while/next_iteration/_109", "op": "NextIteration", "input": ["StatefulPartitionedCall/sequential_2/gru/PartitionedCall/while/StatefulPartitionedCall/sequential_2/gru/PartitionedCall/strided_slice_switch/_85:1", "^StatefulPartitionedCall/sequential_2/gru/PartitionedCall/while/loop_body_control/_91"], "attr": {"T": {"type": "DT_INT32"}}}, {"name": "StatefulPartitionedCall/sequential_2/gru/PartitionedCall/TensorArrayV2Stack/TensorListStack", "op": "TensorListStack", "input": ["StatefulPartitionedCall/sequential_2/gru/PartitionedCall/while/exit/_95", "StatefulPartitionedCall/sequential_2/gru/PartitionedCall/TensorArrayV2Stack/TensorListStack/element_shape"], "attr": {"num_elements": {"i": "-1"}, "element_dtype": {"type": "DT_FLOAT"}}}, {"name": "StatefulPartitionedCall/sequential_2/gru/PartitionedCall/while/body/_56/while/BiasAdd_1", "op": "BiasAdd", "input": ["StatefulPartitionedCall/sequential_2/gru/PartitionedCall/while/body/_56/while/MatMul_1", "StatefulPartitionedCall/sequential_2/gru/PartitionedCall/while/StatefulPartitionedCall/sequential_2/gru/PartitionedCall/unstack_switch/_90:1"], "attr": {"T": {"type": "DT_FLOAT"}, "data_format": {"s": "TkhXQw=="}}}, {"name": "StatefulPartitionedCall/sequential_2/gru/PartitionedCall/while/body/_56/while/TensorArrayV2Read/TensorListGetItem", "op": "TensorListGetItem", "input": ["StatefulPartitionedCall/sequential_2/gru/PartitionedCall/while/StatefulPartitionedCall/sequential_2/gru/PartitionedCall/TensorArrayUnstack/TensorListFromTensor_switch/_86:1", "Func/StatefulPartitionedCall/sequential_2/gru/PartitionedCall/while/body/_56/input/_311", "StatefulPartitionedCall/sequential_2/gru/PartitionedCall/while/body/_56/while/TensorArrayV2Read/TensorListGetItem/element_shape"], "attr": {"element_dtype": {"type": "DT_FLOAT"}}}, {"name": "StatefulPartitionedCall/sequential_2/gru/PartitionedCall/while/body/_56/while/add_4", "op": "AddV2", "input": ["Func/StatefulPartitionedCall/sequential_2/gru/PartitionedCall/while/body/_56/input/_311", "StatefulPartitionedCall/sequential_2/gru/PartitionedCall/while/body/_56/while/add_4/y"], "attr": {"T": {"type": "DT_INT32"}}}, {"name": "StatefulPartitionedCall/sequential_2/gru/PartitionedCall/while/body/_56/while/add_5", "op": "AddV2", "input": ["StatefulPartitionedCall/sequential_2/gru/PartitionedCall/while/StatefulPartitionedCall/sequential_2/gru/PartitionedCall/while/loop_counter_switch/_80:1", "StatefulPartitionedCall/sequential_2/gru/PartitionedCall/while/body/_56/while/add_5/y"], "attr": {"T": {"type": "DT_INT32"}}}, {"name": "StatefulPartitionedCall/sequential_2/gru_1/PartitionedCall/TensorArrayUnstack/TensorListFromTensor", "op": "TensorListFromTensor", "input": ["StatefulPartitionedCall/sequential_2/gru/PartitionedCall/TensorArrayV2Stack/TensorListStack", "StatefulPartitionedCall/sequential_2/gru_1/PartitionedCall/TensorArrayUnstack/TensorListFromTensor/element_shape"], "attr": {"shape_type": {"type": "DT_INT32"}, "element_dtype": {"type": "DT_FLOAT"}}}, {"name": "StatefulPartitionedCall/sequential_2/gru/PartitionedCall/transpose_1", "op": "Transpose", "input": ["StatefulPartitionedCall/sequential_2/gru/PartitionedCall/TensorArrayV2Stack/TensorListStack", "StatefulPartitionedCall/sequential_2/gru/PartitionedCall/transpose_1/perm"], "attr": {"T": {"type": "DT_FLOAT"}, "Tperm": {"type": "DT_INT32"}}}, {"name": "StatefulPartitionedCall/sequential_2/gru_1/PartitionedCall/Shape", "op": "Shape", "input": ["StatefulPartitionedCall/sequential_2/gru/PartitionedCall/TensorArrayV2Stack/TensorListStack"], "attr": {"T": {"type": "DT_FLOAT"}, "out_type": {"type": "DT_INT32"}}}, {"name": "StatefulPartitionedCall/sequential_2/gru/PartitionedCall/while/body/_56/while/split_1", "op": "Split", "input": ["StatefulPartitionedCall/sequential_2/gru/PartitionedCall/while/body/_56/while/split_1/split_dim", "StatefulPartitionedCall/sequential_2/gru/PartitionedCall/while/body/_56/while/BiasAdd_1"], "attr": {"num_split": {"i": "3"}, "T": {"type": "DT_FLOAT"}}}, {"name": "StatefulPartitionedCall/sequential_2/gru/PartitionedCall/while/body/_56/while/BiasAdd", "op": "_FusedMatMul", "input": ["StatefulPartitionedCall/sequential_2/gru/PartitionedCall/while/body/_56/while/TensorArrayV2Read/TensorListGetItem", "StatefulPartitionedCall/sequential_2/gru/PartitionedCall/while/Func/StatefulPartitionedCall/sequential_2/gru/PartitionedCall/input/_21_switch/_87:1", "StatefulPartitionedCall/sequential_2/gru/PartitionedCall/while/StatefulPartitionedCall/sequential_2/gru/PartitionedCall/unstack_switch/_88:1"], "device": "/device:CPU:0", "attr": {"num_args": {"i": "1"}, "epsilon": {"f": 0.0}, "fused_ops": {"list": {"s": ["Qmlhc0FkZA=="]}}, "transpose_a": {"b": false}, "transpose_b": {"b": false}, "T": {"type": "DT_FLOAT"}}}, {"name": "StatefulPartitionedCall/sequential_2/gru/PartitionedCall/while/next_iteration/_106", "op": "NextIteration", "input": ["StatefulPartitionedCall/sequential_2/gru/PartitionedCall/while/body/_56/while/add_4", "^StatefulPartitionedCall/sequential_2/gru/PartitionedCall/while/loop_body_control/_91"], "attr": {"T": {"type": "DT_INT32"}}}, {"name": "StatefulPartitionedCall/sequential_2/gru/PartitionedCall/while/next_iteration/_104", "op": "NextIteration", "input": ["StatefulPartitionedCall/sequential_2/gru/PartitionedCall/while/body/_56/while/add_5", "^StatefulPartitionedCall/sequential_2/gru/PartitionedCall/while/loop_body_control/_91"], "attr": {"T": {"type": "DT_INT32"}}}, {"name": "StatefulPartitionedCall/sequential_2/gru_1/PartitionedCall/while/enter/_123", "op": "Enter", "input": ["StatefulPartitionedCall/sequential_2/gru_1/PartitionedCall/TensorArrayUnstack/TensorListFromTensor"], "attr": {"T": {"type": "DT_VARIANT"}, "is_constant": {"b": false}, "parallel_iterations": {"i": "32"}, "frame_name": {"s": "U3RhdGVmdWxQYXJ0aXRpb25lZENhbGwvc2VxdWVudGlhbF8yL2dydV8xL1BhcnRpdGlvbmVkQ2FsbC93aGlsZQ=="}}}, {"name": "StatefulPartitionedCall/sequential_2/gru_1/Shape", "op": "Shape", "input": ["StatefulPartitionedCall/sequential_2/gru/PartitionedCall/transpose_1"], "attr": {"T": {"type": "DT_FLOAT"}, "out_type": {"type": "DT_INT32"}}}, {"name": "StatefulPartitionedCall/sequential_2/gru_1/PartitionedCall/strided_slice", "op": "StridedSlice", "input": ["StatefulPartitionedCall/sequential_2/gru_1/PartitionedCall/Shape", "StatefulPartitionedCall/sequential_2/gru_1/PartitionedCall/strided_slice/stack", "StatefulPartitionedCall/sequential_2/gru_1/PartitionedCall/strided_slice/stack_1", "StatefulPartitionedCall/sequential_2/gru_1/PartitionedCall/strided_slice/stack_2"], "attr": {"shrink_axis_mask": {"i": "1"}, "begin_mask": {"i": "0"}, "ellipsis_mask": {"i": "0"}, "new_axis_mask": {"i": "0"}, "end_mask": {"i": "0"}, "T": {"type": "DT_INT32"}, "Index": {"type": "DT_INT32"}}}, {"name": "StatefulPartitionedCall/sequential_2/gru/PartitionedCall/while/body/_56/while/split", "op": "Split", "input": ["StatefulPartitionedCall/sequential_2/gru/PartitionedCall/while/body/_56/while/split/split_dim", "StatefulPartitionedCall/sequential_2/gru/PartitionedCall/while/body/_56/while/BiasAdd"], "attr": {"num_split": {"i": "3"}, "T": {"type": "DT_FLOAT"}}}, {"name": "StatefulPartitionedCall/sequential_2/gru_1/PartitionedCall/while/merge/_134", "op": "Merge", "input": ["StatefulPartitionedCall/sequential_2/gru_1/PartitionedCall/while/enter/_123", "StatefulPartitionedCall/sequential_2/gru_1/PartitionedCall/while/next_iteration/_170"], "attr": {"T": {"type": "DT_VARIANT"}, "N": {"i": "2"}}}, {"name": "StatefulPartitionedCall/sequential_2/gru_1/strided_slice", "op": "StridedSlice", "input": ["StatefulPartitionedCall/sequential_2/gru_1/Shape", "StatefulPartitionedCall/sequential_2/gru_1/strided_slice/stack", "StatefulPartitionedCall/sequential_2/gru_1/strided_slice/stack_1", "StatefulPartitionedCall/sequential_2/gru_1/strided_slice/stack_2"], "attr": {"Index": {"type": "DT_INT32"}, "T": {"type": "DT_INT32"}, "shrink_axis_mask": {"i": "1"}, "begin_mask": {"i": "0"}, "ellipsis_mask": {"i": "0"}, "new_axis_mask": {"i": "0"}, "end_mask": {"i": "0"}}}, {"name": "StatefulPartitionedCall/sequential_2/gru_1/PartitionedCall/TensorArrayV2_1", "op": "TensorListReserve", "input": ["StatefulPartitionedCall/sequential_2/gru_1/PartitionedCall/TensorArrayV2_1/element_shape", "StatefulPartitionedCall/sequential_2/gru_1/PartitionedCall/strided_slice"], "attr": {"shape_type": {"type": "DT_INT32"}, "element_dtype": {"type": "DT_FLOAT"}}}, {"name": "StatefulPartitionedCall/sequential_2/gru_1/PartitionedCall/while/enter/_122", "op": "Enter", "input": ["StatefulPartitionedCall/sequential_2/gru_1/PartitionedCall/strided_slice"], "attr": {"parallel_iterations": {"i": "32"}, "frame_name": {"s": "U3RhdGVmdWxQYXJ0aXRpb25lZENhbGwvc2VxdWVudGlhbF8yL2dydV8xL1BhcnRpdGlvbmVkQ2FsbC93aGlsZQ=="}, "T": {"type": "DT_INT32"}, "is_constant": {"b": false}}}, {"name": "StatefulPartitionedCall/sequential_2/gru/PartitionedCall/while/body/_56/while/add", "op": "AddV2", "input": ["StatefulPartitionedCall/sequential_2/gru/PartitionedCall/while/body/_56/while/split", "StatefulPartitionedCall/sequential_2/gru/PartitionedCall/while/body/_56/while/split_1"], "attr": {"T": {"type": "DT_FLOAT"}}}, {"name": "StatefulPartitionedCall/sequential_2/gru/PartitionedCall/while/body/_56/while/add_1", "op": "AddV2", "input": ["StatefulPartitionedCall/sequential_2/gru/PartitionedCall/while/body/_56/while/split:1", "StatefulPartitionedCall/sequential_2/gru/PartitionedCall/while/body/_56/while/split_1:1"], "attr": {"T": {"type": "DT_FLOAT"}}}, {"name": "StatefulPartitionedCall/sequential_2/gru_1/zeros/packed", "op": "Pack", "input": ["StatefulPartitionedCall/sequential_2/gru_1/strided_slice", "StatefulPartitionedCall/sequential_2/gru_1/zeros/packed/1"], "attr": {"axis": {"i": "0"}, "N": {"i": "2"}, "T": {"type": "DT_INT32"}}}, {"name": "StatefulPartitionedCall/sequential_2/gru_1/PartitionedCall/while/enter/_120", "op": "Enter", "input": ["StatefulPartitionedCall/sequential_2/gru_1/PartitionedCall/TensorArrayV2_1"], "attr": {"parallel_iterations": {"i": "32"}, "frame_name": {"s": "U3RhdGVmdWxQYXJ0aXRpb25lZENhbGwvc2VxdWVudGlhbF8yL2dydV8xL1BhcnRpdGlvbmVkQ2FsbC93aGlsZQ=="}, "T": {"type": "DT_VARIANT"}, "is_constant": {"b": false}}}, {"name": "StatefulPartitionedCall/sequential_2/gru_1/PartitionedCall/while/merge/_133", "op": "Merge", "input": ["StatefulPartitionedCall/sequential_2/gru_1/PartitionedCall/while/enter/_122", "StatefulPartitionedCall/sequential_2/gru_1/PartitionedCall/while/next_iteration/_169"], "attr": {"T": {"type": "DT_INT32"}, "N": {"i": "2"}}}, {"name": "StatefulPartitionedCall/sequential_2/gru/PartitionedCall/while/body/_56/while/Sigmoid", "op": "Sigmoid", "input": ["StatefulPartitionedCall/sequential_2/gru/PartitionedCall/while/body/_56/while/add"], "attr": {"T": {"type": "DT_FLOAT"}}}, {"name": "StatefulPartitionedCall/sequential_2/gru/PartitionedCall/while/body/_56/while/Sigmoid_1", "op": "Sigmoid", "input": ["StatefulPartitionedCall/sequential_2/gru/PartitionedCall/while/body/_56/while/add_1"], "attr": {"T": {"type": "DT_FLOAT"}}}, {"name": "StatefulPartitionedCall/sequential_2/gru_1/zeros", "op": "Fill", "input": ["StatefulPartitionedCall/sequential_2/gru_1/zeros/packed", "StatefulPartitionedCall/sequential_2/gru_1/zeros/Const"], "attr": {"T": {"type": "DT_FLOAT"}, "index_type": {"type": "DT_INT32"}}}, {"name": "StatefulPartitionedCall/sequential_2/gru_1/PartitionedCall/while/merge/_131", "op": "Merge", "input": ["StatefulPartitionedCall/sequential_2/gru_1/PartitionedCall/while/enter/_120", "StatefulPartitionedCall/sequential_2/gru_1/PartitionedCall/while/next_iteration/_167"], "attr": {"T": {"type": "DT_VARIANT"}, "N": {"i": "2"}}}, {"name": "StatefulPartitionedCall/sequential_2/gru_1/PartitionedCall/while/cond/_115/while/Less", "op": "Less", "input": ["StatefulPartitionedCall/sequential_2/gru_1/PartitionedCall/while/merge/_130", "StatefulPartitionedCall/sequential_2/gru_1/PartitionedCall/while/merge/_133", "^StatefulPartitionedCall/sequential_2/gru_1/PartitionedCall/while/merge/_128"], "attr": {"T": {"type": "DT_INT32"}}}, {"name": "StatefulPartitionedCall/sequential_2/gru/PartitionedCall/while/body/_56/while/mul_1", "op": "Mul", "input": ["StatefulPartitionedCall/sequential_2/gru/PartitionedCall/while/body/_56/while/Sigmoid", "StatefulPartitionedCall/sequential_2/gru/PartitionedCall/while/Func/StatefulPartitionedCall/sequential_2/gru/PartitionedCall/input/_20_switch/_84:1"], "attr": {"T": {"type": "DT_FLOAT"}}}, {"name": "StatefulPartitionedCall/sequential_2/gru/PartitionedCall/while/body/_56/while/sub", "op": "Sub", "input": ["StatefulPartitionedCall/sequential_2/gru/PartitionedCall/while/body/_56/while/sub/x", "StatefulPartitionedCall/sequential_2/gru/PartitionedCall/while/body/_56/while/Sigmoid"], "attr": {"T": {"type": "DT_FLOAT"}}}, {"name": "StatefulPartitionedCall/sequential_2/gru/PartitionedCall/while/body/_56/while/mul", "op": "Mul", "input": ["StatefulPartitionedCall/sequential_2/gru/PartitionedCall/while/body/_56/while/Sigmoid_1", "StatefulPartitionedCall/sequential_2/gru/PartitionedCall/while/body/_56/while/split_1:2"], "attr": {"T": {"type": "DT_FLOAT"}}}, {"name": "StatefulPartitionedCall/sequential_2/gru_1/PartitionedCall/while/enter/_121", "op": "Enter", "input": ["StatefulPartitionedCall/sequential_2/gru_1/zeros"], "attr": {"T": {"type": "DT_FLOAT"}, "is_constant": {"b": false}, "parallel_iterations": {"i": "32"}, "frame_name": {"s": "U3RhdGVmdWxQYXJ0aXRpb25lZENhbGwvc2VxdWVudGlhbF8yL2dydV8xL1BhcnRpdGlvbmVkQ2FsbC93aGlsZQ=="}}}, {"name": "StatefulPartitionedCall/sequential_2/gru_1/PartitionedCall/while/LoopCond/_139", "op": "LoopCond", "input": ["StatefulPartitionedCall/sequential_2/gru_1/PartitionedCall/while/cond/_115/while/Less"]}, {"name": "StatefulPartitionedCall/sequential_2/gru/PartitionedCall/while/body/_56/while/add_2", "op": "AddV2", "input": ["StatefulPartitionedCall/sequential_2/gru/PartitionedCall/while/body/_56/while/split:2", "StatefulPartitionedCall/sequential_2/gru/PartitionedCall/while/body/_56/while/mul"], "attr": {"T": {"type": "DT_FLOAT"}}}, {"name": "StatefulPartitionedCall/sequential_2/gru_1/PartitionedCall/while/merge/_132", "op": "Merge", "input": ["StatefulPartitionedCall/sequential_2/gru_1/PartitionedCall/while/enter/_121", "StatefulPartitionedCall/sequential_2/gru_1/PartitionedCall/while/next_iteration/_168"], "attr": {"T": {"type": "DT_FLOAT"}, "N": {"i": "2"}}}, {"name": "StatefulPartitionedCall/sequential_2/gru_1/PartitionedCall/while/StatefulPartitionedCall/sequential_2/gru_1/PartitionedCall/TensorArrayUnstack/TensorListFromTensor_switch/_146", "op": "Switch", "input": ["StatefulPartitionedCall/sequential_2/gru_1/PartitionedCall/while/merge/_134", "StatefulPartitionedCall/sequential_2/gru_1/PartitionedCall/while/LoopCond/_139"], "attr": {"T": {"type": "DT_VARIANT"}}}, {"name": "StatefulPartitionedCall/sequential_2/gru_1/PartitionedCall/while/Func/StatefulPartitionedCall/sequential_2/gru_1/PartitionedCall/input/_30_switch/_147", "op": "Switch", "input": ["StatefulPartitionedCall/sequential_2/gru_1/PartitionedCall/while/merge/_135", "StatefulPartitionedCall/sequential_2/gru_1/PartitionedCall/while/LoopCond/_139"], "attr": {"T": {"type": "DT_FLOAT"}}}, {"name": "StatefulPartitionedCall/sequential_2/gru_1/PartitionedCall/while/StatefulPartitionedCall/sequential_2/gru_1/PartitionedCall/unstack_switch/_148", "op": "Switch", "input": ["StatefulPartitionedCall/sequential_2/gru_1/PartitionedCall/while/merge/_136", "StatefulPartitionedCall/sequential_2/gru_1/PartitionedCall/while/LoopCond/_139"], "attr": {"T": {"type": "DT_FLOAT"}}}, {"name": "StatefulPartitionedCall/sequential_2/gru_1/PartitionedCall/while/Func/StatefulPartitionedCall/sequential_2/gru_1/PartitionedCall/input/_31_switch/_149", "op": "Switch", "input": ["StatefulPartitionedCall/sequential_2/gru_1/PartitionedCall/while/merge/_137", "StatefulPartitionedCall/sequential_2/gru_1/PartitionedCall/while/LoopCond/_139"], "attr": {"T": {"type": "DT_FLOAT"}}}, {"name": "StatefulPartitionedCall/sequential_2/gru_1/PartitionedCall/while/StatefulPartitionedCall/sequential_2/gru_1/PartitionedCall/unstack_switch/_150", "op": "Switch", "input": ["StatefulPartitionedCall/sequential_2/gru_1/PartitionedCall/while/merge/_138", "StatefulPartitionedCall/sequential_2/gru_1/PartitionedCall/while/LoopCond/_139"], "attr": {"T": {"type": "DT_FLOAT"}}}, {"name": "StatefulPartitionedCall/sequential_2/gru_1/PartitionedCall/while/StatefulPartitionedCall/sequential_2/gru_1/PartitionedCall/time_switch/_142", "op": "Switch", "input": ["StatefulPartitionedCall/sequential_2/gru_1/PartitionedCall/while/merge/_130", "StatefulPartitionedCall/sequential_2/gru_1/PartitionedCall/while/LoopCond/_139"], "attr": {"T": {"type": "DT_INT32"}}}, {"name": "StatefulPartitionedCall/sequential_2/gru_1/PartitionedCall/while/StatefulPartitionedCall/sequential_2/gru_1/PartitionedCall/while/loop_counter_switch/_140", "op": "Switch", "input": ["StatefulPartitionedCall/sequential_2/gru_1/PartitionedCall/while/merge/_128", "StatefulPartitionedCall/sequential_2/gru_1/PartitionedCall/while/LoopCond/_139"], "attr": {"T": {"type": "DT_INT32"}}}, {"name": "StatefulPartitionedCall/sequential_2/gru_1/PartitionedCall/while/StatefulPartitionedCall/sequential_2/gru_1/PartitionedCall/TensorArrayV2_1_switch/_143", "op": "Switch", "input": ["StatefulPartitionedCall/sequential_2/gru_1/PartitionedCall/while/merge/_131", "StatefulPartitionedCall/sequential_2/gru_1/PartitionedCall/while/LoopCond/_139"], "attr": {"T": {"type": "DT_VARIANT"}}}, {"name": "StatefulPartitionedCall/sequential_2/gru_1/PartitionedCall/while/StatefulPartitionedCall/sequential_2/gru_1/PartitionedCall/strided_slice_switch/_145", "op": "Switch", "input": ["StatefulPartitionedCall/sequential_2/gru_1/PartitionedCall/while/merge/_133", "StatefulPartitionedCall/sequential_2/gru_1/PartitionedCall/while/LoopCond/_139"], "attr": {"T": {"type": "DT_INT32"}}}, {"name": "StatefulPartitionedCall/sequential_2/gru/PartitionedCall/while/body/_56/while/Tanh", "op": "Tanh", "input": ["StatefulPartitionedCall/sequential_2/gru/PartitionedCall/while/body/_56/while/add_2"], "attr": {"T": {"type": "DT_FLOAT"}}}, {"name": "StatefulPartitionedCall/sequential_2/gru_1/PartitionedCall/while/Func/StatefulPartitionedCall/sequential_2/gru_1/PartitionedCall/input/_29_switch/_144", "op": "Switch", "input": ["StatefulPartitionedCall/sequential_2/gru_1/PartitionedCall/while/merge/_132", "StatefulPartitionedCall/sequential_2/gru_1/PartitionedCall/while/LoopCond/_139"], "attr": {"T": {"type": "DT_FLOAT"}}}, {"name": "StatefulPartitionedCall/sequential_2/gru_1/PartitionedCall/while/loop_body_control/_151", "op": "Identity", "input": ["StatefulPartitionedCall/sequential_2/gru_1/PartitionedCall/while/StatefulPartitionedCall/sequential_2/gru_1/PartitionedCall/while/loop_counter_switch/_140:1"], "attr": {"T": {"type": "DT_INT32"}}}, {"name": "StatefulPartitionedCall/sequential_2/gru_1/PartitionedCall/while/exit/_155", "op": "Exit", "input": ["StatefulPartitionedCall/sequential_2/gru_1/PartitionedCall/while/StatefulPartitionedCall/sequential_2/gru_1/PartitionedCall/TensorArrayV2_1_switch/_143"], "attr": {"T": {"type": "DT_VARIANT"}}}, {"name": "StatefulPartitionedCall/sequential_2/gru/PartitionedCall/while/body/_56/while/mul_2", "op": "Mul", "input": ["StatefulPartitionedCall/sequential_2/gru/PartitionedCall/while/body/_56/while/sub", "StatefulPartitionedCall/sequential_2/gru/PartitionedCall/while/body/_56/while/Tanh"], "attr": {"T": {"type": "DT_FLOAT"}}}, {"name": "StatefulPartitionedCall/sequential_2/gru_1/PartitionedCall/while/body/_116/while/sub/x", "op": "Const", "input": ["^StatefulPartitionedCall/sequential_2/gru_1/PartitionedCall/while/loop_body_control/_151"], "attr": {"value": {"tensor": {"dtype": "DT_FLOAT", "tensorShape": {}}}, "dtype": {"type": "DT_FLOAT"}}}, {"name": "StatefulPartitionedCall/sequential_2/gru_1/PartitionedCall/while/body/_116/while/split/split_dim", "op": "Const", "input": ["^StatefulPartitionedCall/sequential_2/gru_1/PartitionedCall/while/loop_body_control/_151"], "attr": {"value": {"tensor": {"dtype": "DT_INT32", "tensorShape": {}}}, "dtype": {"type": "DT_INT32"}}}, {"name": "StatefulPartitionedCall/sequential_2/gru_1/PartitionedCall/while/next_iteration/_170", "op": "NextIteration", "input": ["StatefulPartitionedCall/sequential_2/gru_1/PartitionedCall/while/StatefulPartitionedCall/sequential_2/gru_1/PartitionedCall/TensorArrayUnstack/TensorListFromTensor_switch/_146:1", "^StatefulPartitionedCall/sequential_2/gru_1/PartitionedCall/while/loop_body_control/_151"], "attr": {"T": {"type": "DT_VARIANT"}}}, {"name": "StatefulPartitionedCall/sequential_2/gru_1/PartitionedCall/while/body/_116/while/TensorArrayV2Read/TensorListGetItem/element_shape", "op": "Const", "input": ["^StatefulPartitionedCall/sequential_2/gru_1/PartitionedCall/while/loop_body_control/_151"], "attr": {"value": {"tensor": {"dtype": "DT_INT32", "tensorShape": {"dim": [{"size": "2"}]}}}, "dtype": {"type": "DT_INT32"}}}, {"name": "StatefulPartitionedCall/sequential_2/gru_1/PartitionedCall/while/next_iteration/_171", "op": "NextIteration", "input": ["StatefulPartitionedCall/sequential_2/gru_1/PartitionedCall/while/Func/StatefulPartitionedCall/sequential_2/gru_1/PartitionedCall/input/_30_switch/_147:1", "^StatefulPartitionedCall/sequential_2/gru_1/PartitionedCall/while/loop_body_control/_151"], "attr": {"T": {"type": "DT_FLOAT"}}}, {"name": "StatefulPartitionedCall/sequential_2/gru_1/PartitionedCall/while/next_iteration/_172", "op": "NextIteration", "input": ["StatefulPartitionedCall/sequential_2/gru_1/PartitionedCall/while/StatefulPartitionedCall/sequential_2/gru_1/PartitionedCall/unstack_switch/_148:1", "^StatefulPartitionedCall/sequential_2/gru_1/PartitionedCall/while/loop_body_control/_151"], "attr": {"T": {"type": "DT_FLOAT"}}}, {"name": "StatefulPartitionedCall/sequential_2/gru_1/PartitionedCall/while/body/_116/while/split_1/split_dim", "op": "Const", "input": ["^StatefulPartitionedCall/sequential_2/gru_1/PartitionedCall/while/loop_body_control/_151"], "attr": {"value": {"tensor": {"dtype": "DT_INT32", "tensorShape": {}}}, "dtype": {"type": "DT_INT32"}}}, {"name": "StatefulPartitionedCall/sequential_2/gru_1/PartitionedCall/while/next_iteration/_173", "op": "NextIteration", "input": ["StatefulPartitionedCall/sequential_2/gru_1/PartitionedCall/while/Func/StatefulPartitionedCall/sequential_2/gru_1/PartitionedCall/input/_31_switch/_149:1", "^StatefulPartitionedCall/sequential_2/gru_1/PartitionedCall/while/loop_body_control/_151"], "attr": {"T": {"type": "DT_FLOAT"}}}, {"name": "StatefulPartitionedCall/sequential_2/gru_1/PartitionedCall/while/next_iteration/_174", "op": "NextIteration", "input": ["StatefulPartitionedCall/sequential_2/gru_1/PartitionedCall/while/StatefulPartitionedCall/sequential_2/gru_1/PartitionedCall/unstack_switch/_150:1", "^StatefulPartitionedCall/sequential_2/gru_1/PartitionedCall/while/loop_body_control/_151"], "attr": {"T": {"type": "DT_FLOAT"}}}, {"name": "Func/StatefulPartitionedCall/sequential_2/gru_1/PartitionedCall/while/body/_116/input/_348", "op": "Identity", "input": ["StatefulPartitionedCall/sequential_2/gru_1/PartitionedCall/while/StatefulPartitionedCall/sequential_2/gru_1/PartitionedCall/time_switch/_142:1", "^StatefulPartitionedCall/sequential_2/gru_1/PartitionedCall/while/loop_body_control/_151"], "attr": {"T": {"type": "DT_INT32"}}}, {"name": "StatefulPartitionedCall/sequential_2/gru_1/PartitionedCall/while/body/_116/while/add_4/y", "op": "Const", "input": ["^StatefulPartitionedCall/sequential_2/gru_1/PartitionedCall/while/loop_body_control/_151"], "attr": {"value": {"tensor": {"dtype": "DT_INT32", "tensorShape": {}}}, "dtype": {"type": "DT_INT32"}}}, {"name": "StatefulPartitionedCall/sequential_2/gru_1/PartitionedCall/while/body/_116/while/add_5/y", "op": "Const", "input": ["^StatefulPartitionedCall/sequential_2/gru_1/PartitionedCall/while/loop_body_control/_151"], "attr": {"value": {"tensor": {"dtype": "DT_INT32", "tensorShape": {}}}, "dtype": {"type": "DT_INT32"}}}, {"name": "StatefulPartitionedCall/sequential_2/gru_1/PartitionedCall/while/body/_116/while/MatMul_1", "op": "MatMul", "input": ["StatefulPartitionedCall/sequential_2/gru_1/PartitionedCall/while/Func/StatefulPartitionedCall/sequential_2/gru_1/PartitionedCall/input/_29_switch/_144:1", "StatefulPartitionedCall/sequential_2/gru_1/PartitionedCall/while/Func/StatefulPartitionedCall/sequential_2/gru_1/PartitionedCall/input/_31_switch/_149:1", "^StatefulPartitionedCall/sequential_2/gru_1/PartitionedCall/while/loop_body_control/_151"], "device": "/device:CPU:0", "attr": {"transpose_b": {"b": false}, "T": {"type": "DT_FLOAT"}, "transpose_a": {"b": false}}}, {"name": "StatefulPartitionedCall/sequential_2/gru_1/PartitionedCall/while/next_iteration/_169", "op": "NextIteration", "input": ["StatefulPartitionedCall/sequential_2/gru_1/PartitionedCall/while/StatefulPartitionedCall/sequential_2/gru_1/PartitionedCall/strided_slice_switch/_145:1", "^StatefulPartitionedCall/sequential_2/gru_1/PartitionedCall/while/loop_body_control/_151"], "attr": {"T": {"type": "DT_INT32"}}}, {"name": "StatefulPartitionedCall/sequential_2/gru_1/PartitionedCall/TensorArrayV2Stack/TensorListStack", "op": "TensorListStack", "input": ["StatefulPartitionedCall/sequential_2/gru_1/PartitionedCall/while/exit/_155", "StatefulPartitionedCall/sequential_2/gru_1/PartitionedCall/TensorArrayV2Stack/TensorListStack/element_shape"], "attr": {"num_elements": {"i": "-1"}, "element_dtype": {"type": "DT_FLOAT"}}}, {"name": "StatefulPartitionedCall/sequential_2/gru/PartitionedCall/while/body/_56/while/add_3", "op": "AddV2", "input": ["StatefulPartitionedCall/sequential_2/gru/PartitionedCall/while/body/_56/while/mul_1", "StatefulPartitionedCall/sequential_2/gru/PartitionedCall/while/body/_56/while/mul_2"], "attr": {"T": {"type": "DT_FLOAT"}}}, {"name": "StatefulPartitionedCall/sequential_2/gru_1/PartitionedCall/while/body/_116/while/TensorArrayV2Read/TensorListGetItem", "op": "TensorListGetItem", "input": ["StatefulPartitionedCall/sequential_2/gru_1/PartitionedCall/while/StatefulPartitionedCall/sequential_2/gru_1/PartitionedCall/TensorArrayUnstack/TensorListFromTensor_switch/_146:1", "Func/StatefulPartitionedCall/sequential_2/gru_1/PartitionedCall/while/body/_116/input/_348", "StatefulPartitionedCall/sequential_2/gru_1/PartitionedCall/while/body/_116/while/TensorArrayV2Read/TensorListGetItem/element_shape"], "attr": {"element_dtype": {"type": "DT_FLOAT"}}}, {"name": "StatefulPartitionedCall/sequential_2/gru_1/PartitionedCall/while/body/_116/while/add_4", "op": "AddV2", "input": ["Func/StatefulPartitionedCall/sequential_2/gru_1/PartitionedCall/while/body/_116/input/_348", "StatefulPartitionedCall/sequential_2/gru_1/PartitionedCall/while/body/_116/while/add_4/y"], "attr": {"T": {"type": "DT_INT32"}}}, {"name": "StatefulPartitionedCall/sequential_2/gru_1/PartitionedCall/while/body/_116/while/add_5", "op": "AddV2", "input": ["StatefulPartitionedCall/sequential_2/gru_1/PartitionedCall/while/StatefulPartitionedCall/sequential_2/gru_1/PartitionedCall/while/loop_counter_switch/_140:1", "StatefulPartitionedCall/sequential_2/gru_1/PartitionedCall/while/body/_116/while/add_5/y"], "attr": {"T": {"type": "DT_INT32"}}}, {"name": "StatefulPartitionedCall/sequential_2/gru_1/PartitionedCall/while/body/_116/while/BiasAdd_1", "op": "BiasAdd", "input": ["StatefulPartitionedCall/sequential_2/gru_1/PartitionedCall/while/body/_116/while/MatMul_1", "StatefulPartitionedCall/sequential_2/gru_1/PartitionedCall/while/StatefulPartitionedCall/sequential_2/gru_1/PartitionedCall/unstack_switch/_150:1"], "attr": {"T": {"type": "DT_FLOAT"}, "data_format": {"s": "TkhXQw=="}}}, {"name": "StatefulPartitionedCall/sequential_2/gru_2/PartitionedCall/TensorArrayUnstack/TensorListFromTensor", "op": "TensorListFromTensor", "input": ["StatefulPartitionedCall/sequential_2/gru_1/PartitionedCall/TensorArrayV2Stack/TensorListStack", "StatefulPartitionedCall/sequential_2/gru_2/PartitionedCall/TensorArrayUnstack/TensorListFromTensor/element_shape"], "attr": {"shape_type": {"type": "DT_INT32"}, "element_dtype": {"type": "DT_FLOAT"}}}, {"name": "StatefulPartitionedCall/sequential_2/gru_1/PartitionedCall/transpose_1", "op": "Transpose", "input": ["StatefulPartitionedCall/sequential_2/gru_1/PartitionedCall/TensorArrayV2Stack/TensorListStack", "StatefulPartitionedCall/sequential_2/gru_1/PartitionedCall/transpose_1/perm"], "attr": {"T": {"type": "DT_FLOAT"}, "Tperm": {"type": "DT_INT32"}}}, {"name": "StatefulPartitionedCall/sequential_2/gru_2/PartitionedCall/Shape", "op": "Shape", "input": ["StatefulPartitionedCall/sequential_2/gru_1/PartitionedCall/TensorArrayV2Stack/TensorListStack"], "attr": {"T": {"type": "DT_FLOAT"}, "out_type": {"type": "DT_INT32"}}}, {"name": "StatefulPartitionedCall/sequential_2/gru/PartitionedCall/while/next_iteration/_108", "op": "NextIteration", "input": ["StatefulPartitionedCall/sequential_2/gru/PartitionedCall/while/body/_56/while/add_3", "^StatefulPartitionedCall/sequential_2/gru/PartitionedCall/while/loop_body_control/_91"], "attr": {"T": {"type": "DT_FLOAT"}}}, {"name": "StatefulPartitionedCall/sequential_2/gru/PartitionedCall/while/body/_56/while/TensorArrayV2Write/TensorListSetItem", "op": "TensorListSetItem", "input": ["StatefulPartitionedCall/sequential_2/gru/PartitionedCall/while/StatefulPartitionedCall/sequential_2/gru/PartitionedCall/TensorArrayV2_1_switch/_83:1", "Func/StatefulPartitionedCall/sequential_2/gru/PartitionedCall/while/body/_56/input/_311", "StatefulPartitionedCall/sequential_2/gru/PartitionedCall/while/body/_56/while/add_3"], "attr": {"element_dtype": {"type": "DT_FLOAT"}}}, {"name": "StatefulPartitionedCall/sequential_2/gru_1/PartitionedCall/while/body/_116/while/BiasAdd", "op": "_FusedMatMul", "input": ["StatefulPartitionedCall/sequential_2/gru_1/PartitionedCall/while/body/_116/while/TensorArrayV2Read/TensorListGetItem", "StatefulPartitionedCall/sequential_2/gru_1/PartitionedCall/while/Func/StatefulPartitionedCall/sequential_2/gru_1/PartitionedCall/input/_30_switch/_147:1", "StatefulPartitionedCall/sequential_2/gru_1/PartitionedCall/while/StatefulPartitionedCall/sequential_2/gru_1/PartitionedCall/unstack_switch/_148:1"], "device": "/device:CPU:0", "attr": {"transpose_b": {"b": false}, "T": {"type": "DT_FLOAT"}, "num_args": {"i": "1"}, "epsilon": {"f": 0.0}, "fused_ops": {"list": {"s": ["Qmlhc0FkZA=="]}}, "transpose_a": {"b": false}}}, {"name": "StatefulPartitionedCall/sequential_2/gru_1/PartitionedCall/while/next_iteration/_166", "op": "NextIteration", "input": ["StatefulPartitionedCall/sequential_2/gru_1/PartitionedCall/while/body/_116/while/add_4", "^StatefulPartitionedCall/sequential_2/gru_1/PartitionedCall/while/loop_body_control/_151"], "attr": {"T": {"type": "DT_INT32"}}}, {"name": "StatefulPartitionedCall/sequential_2/gru_1/PartitionedCall/while/next_iteration/_164", "op": "NextIteration", "input": ["StatefulPartitionedCall/sequential_2/gru_1/PartitionedCall/while/body/_116/while/add_5", "^StatefulPartitionedCall/sequential_2/gru_1/PartitionedCall/while/loop_body_control/_151"], "attr": {"T": {"type": "DT_INT32"}}}, {"name": "StatefulPartitionedCall/sequential_2/gru_1/PartitionedCall/while/body/_116/while/split_1", "op": "Split", "input": ["StatefulPartitionedCall/sequential_2/gru_1/PartitionedCall/while/body/_116/while/split_1/split_dim", "StatefulPartitionedCall/sequential_2/gru_1/PartitionedCall/while/body/_116/while/BiasAdd_1"], "attr": {"T": {"type": "DT_FLOAT"}, "num_split": {"i": "3"}}}, {"name": "StatefulPartitionedCall/sequential_2/gru_2/PartitionedCall/while/enter/_183", "op": "Enter", "input": ["StatefulPartitionedCall/sequential_2/gru_2/PartitionedCall/TensorArrayUnstack/TensorListFromTensor"], "attr": {"T": {"type": "DT_VARIANT"}, "is_constant": {"b": false}, "parallel_iterations": {"i": "32"}, "frame_name": {"s": "U3RhdGVmdWxQYXJ0aXRpb25lZENhbGwvc2VxdWVudGlhbF8yL2dydV8yL1BhcnRpdGlvbmVkQ2FsbC93aGlsZQ=="}}}, {"name": "StatefulPartitionedCall/sequential_2/gru_2/Shape", "op": "Shape", "input": ["StatefulPartitionedCall/sequential_2/gru_1/PartitionedCall/transpose_1"], "attr": {"out_type": {"type": "DT_INT32"}, "T": {"type": "DT_FLOAT"}}}, {"name": "StatefulPartitionedCall/sequential_2/gru_2/PartitionedCall/strided_slice", "op": "StridedSlice", "input": ["StatefulPartitionedCall/sequential_2/gru_2/PartitionedCall/Shape", "StatefulPartitionedCall/sequential_2/gru_2/PartitionedCall/strided_slice/stack", "StatefulPartitionedCall/sequential_2/gru_2/PartitionedCall/strided_slice/stack_1", "StatefulPartitionedCall/sequential_2/gru_2/PartitionedCall/strided_slice/stack_2"], "attr": {"ellipsis_mask": {"i": "0"}, "begin_mask": {"i": "0"}, "new_axis_mask": {"i": "0"}, "end_mask": {"i": "0"}, "Index": {"type": "DT_INT32"}, "T": {"type": "DT_INT32"}, "shrink_axis_mask": {"i": "1"}}}, {"name": "StatefulPartitionedCall/sequential_2/gru/PartitionedCall/while/next_iteration/_107", "op": "NextIteration", "input": ["StatefulPartitionedCall/sequential_2/gru/PartitionedCall/while/body/_56/while/TensorArrayV2Write/TensorListSetItem", "^StatefulPartitionedCall/sequential_2/gru/PartitionedCall/while/loop_body_control/_91"], "attr": {"T": {"type": "DT_VARIANT"}}}, {"name": "StatefulPartitionedCall/sequential_2/gru_1/PartitionedCall/while/body/_116/while/split", "op": "Split", "input": ["StatefulPartitionedCall/sequential_2/gru_1/PartitionedCall/while/body/_116/while/split/split_dim", "StatefulPartitionedCall/sequential_2/gru_1/PartitionedCall/while/body/_116/while/BiasAdd"], "attr": {"T": {"type": "DT_FLOAT"}, "num_split": {"i": "3"}}}, {"name": "StatefulPartitionedCall/sequential_2/gru_2/PartitionedCall/while/merge/_194", "op": "Merge", "input": ["StatefulPartitionedCall/sequential_2/gru_2/PartitionedCall/while/enter/_183", "StatefulPartitionedCall/sequential_2/gru_2/PartitionedCall/while/next_iteration/_230"], "attr": {"T": {"type": "DT_VARIANT"}, "N": {"i": "2"}}}, {"name": "StatefulPartitionedCall/sequential_2/gru_2/strided_slice", "op": "StridedSlice", "input": ["StatefulPartitionedCall/sequential_2/gru_2/Shape", "StatefulPartitionedCall/sequential_2/gru_2/strided_slice/stack", "StatefulPartitionedCall/sequential_2/gru_2/strided_slice/stack_1", "StatefulPartitionedCall/sequential_2/gru_2/strided_slice/stack_2"], "attr": {"shrink_axis_mask": {"i": "1"}, "begin_mask": {"i": "0"}, "ellipsis_mask": {"i": "0"}, "new_axis_mask": {"i": "0"}, "end_mask": {"i": "0"}, "T": {"type": "DT_INT32"}, "Index": {"type": "DT_INT32"}}}, {"name": "StatefulPartitionedCall/sequential_2/gru_2/PartitionedCall/TensorArrayV2_1", "op": "TensorListReserve", "input": ["StatefulPartitionedCall/sequential_2/gru_2/PartitionedCall/TensorArrayV2_1/element_shape", "StatefulPartitionedCall/sequential_2/gru_2/PartitionedCall/strided_slice"], "attr": {"shape_type": {"type": "DT_INT32"}, "element_dtype": {"type": "DT_FLOAT"}}}, {"name": "StatefulPartitionedCall/sequential_2/gru_2/PartitionedCall/while/enter/_182", "op": "Enter", "input": ["StatefulPartitionedCall/sequential_2/gru_2/PartitionedCall/strided_slice"], "attr": {"frame_name": {"s": "U3RhdGVmdWxQYXJ0aXRpb25lZENhbGwvc2VxdWVudGlhbF8yL2dydV8yL1BhcnRpdGlvbmVkQ2FsbC93aGlsZQ=="}, "T": {"type": "DT_INT32"}, "is_constant": {"b": false}, "parallel_iterations": {"i": "32"}}}, {"name": "StatefulPartitionedCall/sequential_2/gru_1/PartitionedCall/while/body/_116/while/add", "op": "AddV2", "input": ["StatefulPartitionedCall/sequential_2/gru_1/PartitionedCall/while/body/_116/while/split", "StatefulPartitionedCall/sequential_2/gru_1/PartitionedCall/while/body/_116/while/split_1"], "attr": {"T": {"type": "DT_FLOAT"}}}, {"name": "StatefulPartitionedCall/sequential_2/gru_1/PartitionedCall/while/body/_116/while/add_1", "op": "AddV2", "input": ["StatefulPartitionedCall/sequential_2/gru_1/PartitionedCall/while/body/_116/while/split:1", "StatefulPartitionedCall/sequential_2/gru_1/PartitionedCall/while/body/_116/while/split_1:1"], "attr": {"T": {"type": "DT_FLOAT"}}}, {"name": "StatefulPartitionedCall/sequential_2/gru_2/zeros/packed", "op": "Pack", "input": ["StatefulPartitionedCall/sequential_2/gru_2/strided_slice", "StatefulPartitionedCall/sequential_2/gru_2/zeros/packed/1"], "attr": {"T": {"type": "DT_INT32"}, "axis": {"i": "0"}, "N": {"i": "2"}}}, {"name": "StatefulPartitionedCall/sequential_2/gru_2/PartitionedCall/while/enter/_180", "op": "Enter", "input": ["StatefulPartitionedCall/sequential_2/gru_2/PartitionedCall/TensorArrayV2_1"], "attr": {"T": {"type": "DT_VARIANT"}, "is_constant": {"b": false}, "parallel_iterations": {"i": "32"}, "frame_name": {"s": "U3RhdGVmdWxQYXJ0aXRpb25lZENhbGwvc2VxdWVudGlhbF8yL2dydV8yL1BhcnRpdGlvbmVkQ2FsbC93aGlsZQ=="}}}, {"name": "StatefulPartitionedCall/sequential_2/gru_2/PartitionedCall/while/merge/_193", "op": "Merge", "input": ["StatefulPartitionedCall/sequential_2/gru_2/PartitionedCall/while/enter/_182", "StatefulPartitionedCall/sequential_2/gru_2/PartitionedCall/while/next_iteration/_229"], "attr": {"T": {"type": "DT_INT32"}, "N": {"i": "2"}}}, {"name": "StatefulPartitionedCall/sequential_2/gru_1/PartitionedCall/while/body/_116/while/Sigmoid", "op": "Sigmoid", "input": ["StatefulPartitionedCall/sequential_2/gru_1/PartitionedCall/while/body/_116/while/add"], "attr": {"T": {"type": "DT_FLOAT"}}}, {"name": "StatefulPartitionedCall/sequential_2/gru_1/PartitionedCall/while/body/_116/while/Sigmoid_1", "op": "Sigmoid", "input": ["StatefulPartitionedCall/sequential_2/gru_1/PartitionedCall/while/body/_116/while/add_1"], "attr": {"T": {"type": "DT_FLOAT"}}}, {"name": "StatefulPartitionedCall/sequential_2/gru_2/zeros", "op": "Fill", "input": ["StatefulPartitionedCall/sequential_2/gru_2/zeros/packed", "StatefulPartitionedCall/sequential_2/gru_2/zeros/Const"], "attr": {"T": {"type": "DT_FLOAT"}, "index_type": {"type": "DT_INT32"}}}, {"name": "StatefulPartitionedCall/sequential_2/gru_2/PartitionedCall/while/merge/_191", "op": "Merge", "input": ["StatefulPartitionedCall/sequential_2/gru_2/PartitionedCall/while/enter/_180", "StatefulPartitionedCall/sequential_2/gru_2/PartitionedCall/while/next_iteration/_227"], "attr": {"T": {"type": "DT_VARIANT"}, "N": {"i": "2"}}}, {"name": "StatefulPartitionedCall/sequential_2/gru_2/PartitionedCall/while/cond/_175/while/Less", "op": "Less", "input": ["StatefulPartitionedCall/sequential_2/gru_2/PartitionedCall/while/merge/_190", "StatefulPartitionedCall/sequential_2/gru_2/PartitionedCall/while/merge/_193", "^StatefulPartitionedCall/sequential_2/gru_2/PartitionedCall/while/merge/_188"], "attr": {"T": {"type": "DT_INT32"}}}, {"name": "StatefulPartitionedCall/sequential_2/gru_1/PartitionedCall/while/body/_116/while/sub", "op": "Sub", "input": ["StatefulPartitionedCall/sequential_2/gru_1/PartitionedCall/while/body/_116/while/sub/x", "StatefulPartitionedCall/sequential_2/gru_1/PartitionedCall/while/body/_116/while/Sigmoid"], "attr": {"T": {"type": "DT_FLOAT"}}}, {"name": "StatefulPartitionedCall/sequential_2/gru_1/PartitionedCall/while/body/_116/while/mul_1", "op": "Mul", "input": ["StatefulPartitionedCall/sequential_2/gru_1/PartitionedCall/while/body/_116/while/Sigmoid", "StatefulPartitionedCall/sequential_2/gru_1/PartitionedCall/while/Func/StatefulPartitionedCall/sequential_2/gru_1/PartitionedCall/input/_29_switch/_144:1"], "attr": {"T": {"type": "DT_FLOAT"}}}, {"name": "StatefulPartitionedCall/sequential_2/gru_1/PartitionedCall/while/body/_116/while/mul", "op": "Mul", "input": ["StatefulPartitionedCall/sequential_2/gru_1/PartitionedCall/while/body/_116/while/Sigmoid_1", "StatefulPartitionedCall/sequential_2/gru_1/PartitionedCall/while/body/_116/while/split_1:2"], "attr": {"T": {"type": "DT_FLOAT"}}}, {"name": "StatefulPartitionedCall/sequential_2/gru_2/PartitionedCall/while/enter/_181", "op": "Enter", "input": ["StatefulPartitionedCall/sequential_2/gru_2/zeros"], "attr": {"T": {"type": "DT_FLOAT"}, "is_constant": {"b": false}, "parallel_iterations": {"i": "32"}, "frame_name": {"s": "U3RhdGVmdWxQYXJ0aXRpb25lZENhbGwvc2VxdWVudGlhbF8yL2dydV8yL1BhcnRpdGlvbmVkQ2FsbC93aGlsZQ=="}}}, {"name": "StatefulPartitionedCall/sequential_2/gru_2/PartitionedCall/while/LoopCond/_199", "op": "LoopCond", "input": ["StatefulPartitionedCall/sequential_2/gru_2/PartitionedCall/while/cond/_175/while/Less"]}, {"name": "StatefulPartitionedCall/sequential_2/gru_1/PartitionedCall/while/body/_116/while/add_2", "op": "AddV2", "input": ["StatefulPartitionedCall/sequential_2/gru_1/PartitionedCall/while/body/_116/while/split:2", "StatefulPartitionedCall/sequential_2/gru_1/PartitionedCall/while/body/_116/while/mul"], "attr": {"T": {"type": "DT_FLOAT"}}}, {"name": "StatefulPartitionedCall/sequential_2/gru_2/PartitionedCall/while/merge/_192", "op": "Merge", "input": ["StatefulPartitionedCall/sequential_2/gru_2/PartitionedCall/while/enter/_181", "StatefulPartitionedCall/sequential_2/gru_2/PartitionedCall/while/next_iteration/_228"], "attr": {"T": {"type": "DT_FLOAT"}, "N": {"i": "2"}}}, {"name": "StatefulPartitionedCall/sequential_2/gru_2/PartitionedCall/while/StatefulPartitionedCall/sequential_2/gru_2/PartitionedCall/TensorArrayUnstack/TensorListFromTensor_switch/_206", "op": "Switch", "input": ["StatefulPartitionedCall/sequential_2/gru_2/PartitionedCall/while/merge/_194", "StatefulPartitionedCall/sequential_2/gru_2/PartitionedCall/while/LoopCond/_199"], "attr": {"T": {"type": "DT_VARIANT"}}}, {"name": "StatefulPartitionedCall/sequential_2/gru_2/PartitionedCall/while/Func/StatefulPartitionedCall/sequential_2/gru_2/PartitionedCall/input/_39_switch/_207", "op": "Switch", "input": ["StatefulPartitionedCall/sequential_2/gru_2/PartitionedCall/while/merge/_195", "StatefulPartitionedCall/sequential_2/gru_2/PartitionedCall/while/LoopCond/_199"], "attr": {"T": {"type": "DT_FLOAT"}}}, {"name": "StatefulPartitionedCall/sequential_2/gru_2/PartitionedCall/while/StatefulPartitionedCall/sequential_2/gru_2/PartitionedCall/unstack_switch/_208", "op": "Switch", "input": ["StatefulPartitionedCall/sequential_2/gru_2/PartitionedCall/while/merge/_196", "StatefulPartitionedCall/sequential_2/gru_2/PartitionedCall/while/LoopCond/_199"], "attr": {"T": {"type": "DT_FLOAT"}}}, {"name": "StatefulPartitionedCall/sequential_2/gru_2/PartitionedCall/while/Func/StatefulPartitionedCall/sequential_2/gru_2/PartitionedCall/input/_40_switch/_209", "op": "Switch", "input": ["StatefulPartitionedCall/sequential_2/gru_2/PartitionedCall/while/merge/_197", "StatefulPartitionedCall/sequential_2/gru_2/PartitionedCall/while/LoopCond/_199"], "attr": {"T": {"type": "DT_FLOAT"}}}, {"name": "StatefulPartitionedCall/sequential_2/gru_2/PartitionedCall/while/StatefulPartitionedCall/sequential_2/gru_2/PartitionedCall/unstack_switch/_210", "op": "Switch", "input": ["StatefulPartitionedCall/sequential_2/gru_2/PartitionedCall/while/merge/_198", "StatefulPartitionedCall/sequential_2/gru_2/PartitionedCall/while/LoopCond/_199"], "attr": {"T": {"type": "DT_FLOAT"}}}, {"name": "StatefulPartitionedCall/sequential_2/gru_2/PartitionedCall/while/StatefulPartitionedCall/sequential_2/gru_2/PartitionedCall/time_switch/_202", "op": "Switch", "input": ["StatefulPartitionedCall/sequential_2/gru_2/PartitionedCall/while/merge/_190", "StatefulPartitionedCall/sequential_2/gru_2/PartitionedCall/while/LoopCond/_199"], "attr": {"T": {"type": "DT_INT32"}}}, {"name": "StatefulPartitionedCall/sequential_2/gru_2/PartitionedCall/while/StatefulPartitionedCall/sequential_2/gru_2/PartitionedCall/while/loop_counter_switch/_200", "op": "Switch", "input": ["StatefulPartitionedCall/sequential_2/gru_2/PartitionedCall/while/merge/_188", "StatefulPartitionedCall/sequential_2/gru_2/PartitionedCall/while/LoopCond/_199"], "attr": {"T": {"type": "DT_INT32"}}}, {"name": "StatefulPartitionedCall/sequential_2/gru_2/PartitionedCall/while/StatefulPartitionedCall/sequential_2/gru_2/PartitionedCall/TensorArrayV2_1_switch/_203", "op": "Switch", "input": ["StatefulPartitionedCall/sequential_2/gru_2/PartitionedCall/while/merge/_191", "StatefulPartitionedCall/sequential_2/gru_2/PartitionedCall/while/LoopCond/_199"], "attr": {"T": {"type": "DT_VARIANT"}}}, {"name": "StatefulPartitionedCall/sequential_2/gru_2/PartitionedCall/while/StatefulPartitionedCall/sequential_2/gru_2/PartitionedCall/strided_slice_switch/_205", "op": "Switch", "input": ["StatefulPartitionedCall/sequential_2/gru_2/PartitionedCall/while/merge/_193", "StatefulPartitionedCall/sequential_2/gru_2/PartitionedCall/while/LoopCond/_199"], "attr": {"T": {"type": "DT_INT32"}}}, {"name": "StatefulPartitionedCall/sequential_2/gru_1/PartitionedCall/while/body/_116/while/Tanh", "op": "Tanh", "input": ["StatefulPartitionedCall/sequential_2/gru_1/PartitionedCall/while/body/_116/while/add_2"], "attr": {"T": {"type": "DT_FLOAT"}}}, {"name": "StatefulPartitionedCall/sequential_2/gru_2/PartitionedCall/while/Func/StatefulPartitionedCall/sequential_2/gru_2/PartitionedCall/input/_38_switch/_204", "op": "Switch", "input": ["StatefulPartitionedCall/sequential_2/gru_2/PartitionedCall/while/merge/_192", "StatefulPartitionedCall/sequential_2/gru_2/PartitionedCall/while/LoopCond/_199"], "attr": {"T": {"type": "DT_FLOAT"}}}, {"name": "StatefulPartitionedCall/sequential_2/gru_2/PartitionedCall/while/loop_body_control/_211", "op": "Identity", "input": ["StatefulPartitionedCall/sequential_2/gru_2/PartitionedCall/while/StatefulPartitionedCall/sequential_2/gru_2/PartitionedCall/while/loop_counter_switch/_200:1"], "attr": {"T": {"type": "DT_INT32"}}}, {"name": "StatefulPartitionedCall/sequential_2/gru_2/PartitionedCall/while/exit/_215", "op": "Exit", "input": ["StatefulPartitionedCall/sequential_2/gru_2/PartitionedCall/while/StatefulPartitionedCall/sequential_2/gru_2/PartitionedCall/TensorArrayV2_1_switch/_203"], "attr": {"T": {"type": "DT_VARIANT"}}}, {"name": "StatefulPartitionedCall/sequential_2/gru_1/PartitionedCall/while/body/_116/while/mul_2", "op": "Mul", "input": ["StatefulPartitionedCall/sequential_2/gru_1/PartitionedCall/while/body/_116/while/sub", "StatefulPartitionedCall/sequential_2/gru_1/PartitionedCall/while/body/_116/while/Tanh"], "attr": {"T": {"type": "DT_FLOAT"}}}, {"name": "StatefulPartitionedCall/sequential_2/gru_2/PartitionedCall/while/body/_176/while/sub/x", "op": "Const", "input": ["^StatefulPartitionedCall/sequential_2/gru_2/PartitionedCall/while/loop_body_control/_211"], "attr": {"value": {"tensor": {"dtype": "DT_FLOAT", "tensorShape": {}}}, "dtype": {"type": "DT_FLOAT"}}}, {"name": "StatefulPartitionedCall/sequential_2/gru_2/PartitionedCall/while/body/_176/while/split/split_dim", "op": "Const", "input": ["^StatefulPartitionedCall/sequential_2/gru_2/PartitionedCall/while/loop_body_control/_211"], "attr": {"value": {"tensor": {"dtype": "DT_INT32", "tensorShape": {}}}, "dtype": {"type": "DT_INT32"}}}, {"name": "StatefulPartitionedCall/sequential_2/gru_2/PartitionedCall/while/next_iteration/_230", "op": "NextIteration", "input": ["StatefulPartitionedCall/sequential_2/gru_2/PartitionedCall/while/StatefulPartitionedCall/sequential_2/gru_2/PartitionedCall/TensorArrayUnstack/TensorListFromTensor_switch/_206:1", "^StatefulPartitionedCall/sequential_2/gru_2/PartitionedCall/while/loop_body_control/_211"], "attr": {"T": {"type": "DT_VARIANT"}}}, {"name": "StatefulPartitionedCall/sequential_2/gru_2/PartitionedCall/while/body/_176/while/TensorArrayV2Read/TensorListGetItem/element_shape", "op": "Const", "input": ["^StatefulPartitionedCall/sequential_2/gru_2/PartitionedCall/while/loop_body_control/_211"], "attr": {"value": {"tensor": {"dtype": "DT_INT32", "tensorShape": {"dim": [{"size": "2"}]}}}, "dtype": {"type": "DT_INT32"}}}, {"name": "StatefulPartitionedCall/sequential_2/gru_2/PartitionedCall/while/next_iteration/_231", "op": "NextIteration", "input": ["StatefulPartitionedCall/sequential_2/gru_2/PartitionedCall/while/Func/StatefulPartitionedCall/sequential_2/gru_2/PartitionedCall/input/_39_switch/_207:1", "^StatefulPartitionedCall/sequential_2/gru_2/PartitionedCall/while/loop_body_control/_211"], "attr": {"T": {"type": "DT_FLOAT"}}}, {"name": "StatefulPartitionedCall/sequential_2/gru_2/PartitionedCall/while/next_iteration/_232", "op": "NextIteration", "input": ["StatefulPartitionedCall/sequential_2/gru_2/PartitionedCall/while/StatefulPartitionedCall/sequential_2/gru_2/PartitionedCall/unstack_switch/_208:1", "^StatefulPartitionedCall/sequential_2/gru_2/PartitionedCall/while/loop_body_control/_211"], "attr": {"T": {"type": "DT_FLOAT"}}}, {"name": "StatefulPartitionedCall/sequential_2/gru_2/PartitionedCall/while/body/_176/while/split_1/split_dim", "op": "Const", "input": ["^StatefulPartitionedCall/sequential_2/gru_2/PartitionedCall/while/loop_body_control/_211"], "attr": {"value": {"tensor": {"dtype": "DT_INT32", "tensorShape": {}}}, "dtype": {"type": "DT_INT32"}}}, {"name": "StatefulPartitionedCall/sequential_2/gru_2/PartitionedCall/while/next_iteration/_233", "op": "NextIteration", "input": ["StatefulPartitionedCall/sequential_2/gru_2/PartitionedCall/while/Func/StatefulPartitionedCall/sequential_2/gru_2/PartitionedCall/input/_40_switch/_209:1", "^StatefulPartitionedCall/sequential_2/gru_2/PartitionedCall/while/loop_body_control/_211"], "attr": {"T": {"type": "DT_FLOAT"}}}, {"name": "StatefulPartitionedCall/sequential_2/gru_2/PartitionedCall/while/next_iteration/_234", "op": "NextIteration", "input": ["StatefulPartitionedCall/sequential_2/gru_2/PartitionedCall/while/StatefulPartitionedCall/sequential_2/gru_2/PartitionedCall/unstack_switch/_210:1", "^StatefulPartitionedCall/sequential_2/gru_2/PartitionedCall/while/loop_body_control/_211"], "attr": {"T": {"type": "DT_FLOAT"}}}, {"name": "Func/StatefulPartitionedCall/sequential_2/gru_2/PartitionedCall/while/body/_176/input/_385", "op": "Identity", "input": ["StatefulPartitionedCall/sequential_2/gru_2/PartitionedCall/while/StatefulPartitionedCall/sequential_2/gru_2/PartitionedCall/time_switch/_202:1", "^StatefulPartitionedCall/sequential_2/gru_2/PartitionedCall/while/loop_body_control/_211"], "attr": {"T": {"type": "DT_INT32"}}}, {"name": "StatefulPartitionedCall/sequential_2/gru_2/PartitionedCall/while/body/_176/while/add_4/y", "op": "Const", "input": ["^StatefulPartitionedCall/sequential_2/gru_2/PartitionedCall/while/loop_body_control/_211"], "attr": {"dtype": {"type": "DT_INT32"}, "value": {"tensor": {"dtype": "DT_INT32", "tensorShape": {}}}}}, {"name": "StatefulPartitionedCall/sequential_2/gru_2/PartitionedCall/while/body/_176/while/add_5/y", "op": "Const", "input": ["^StatefulPartitionedCall/sequential_2/gru_2/PartitionedCall/while/loop_body_control/_211"], "attr": {"value": {"tensor": {"dtype": "DT_INT32", "tensorShape": {}}}, "dtype": {"type": "DT_INT32"}}}, {"name": "StatefulPartitionedCall/sequential_2/gru_2/PartitionedCall/while/body/_176/while/MatMul_1", "op": "MatMul", "input": ["StatefulPartitionedCall/sequential_2/gru_2/PartitionedCall/while/Func/StatefulPartitionedCall/sequential_2/gru_2/PartitionedCall/input/_38_switch/_204:1", "StatefulPartitionedCall/sequential_2/gru_2/PartitionedCall/while/Func/StatefulPartitionedCall/sequential_2/gru_2/PartitionedCall/input/_40_switch/_209:1", "^StatefulPartitionedCall/sequential_2/gru_2/PartitionedCall/while/loop_body_control/_211"], "device": "/device:CPU:0", "attr": {"T": {"type": "DT_FLOAT"}, "transpose_a": {"b": false}, "transpose_b": {"b": false}}}, {"name": "StatefulPartitionedCall/sequential_2/gru_2/PartitionedCall/while/next_iteration/_229", "op": "NextIteration", "input": ["StatefulPartitionedCall/sequential_2/gru_2/PartitionedCall/while/StatefulPartitionedCall/sequential_2/gru_2/PartitionedCall/strided_slice_switch/_205:1", "^StatefulPartitionedCall/sequential_2/gru_2/PartitionedCall/while/loop_body_control/_211"], "attr": {"T": {"type": "DT_INT32"}}}, {"name": "StatefulPartitionedCall/sequential_2/gru_2/PartitionedCall/TensorArrayV2Stack/TensorListStack", "op": "TensorListStack", "input": ["StatefulPartitionedCall/sequential_2/gru_2/PartitionedCall/while/exit/_215", "StatefulPartitionedCall/sequential_2/gru_2/PartitionedCall/TensorArrayV2Stack/TensorListStack/element_shape"], "attr": {"num_elements": {"i": "-1"}, "element_dtype": {"type": "DT_FLOAT"}}}, {"name": "StatefulPartitionedCall/sequential_2/gru_1/PartitionedCall/while/body/_116/while/add_3", "op": "AddV2", "input": ["StatefulPartitionedCall/sequential_2/gru_1/PartitionedCall/while/body/_116/while/mul_1", "StatefulPartitionedCall/sequential_2/gru_1/PartitionedCall/while/body/_116/while/mul_2"], "attr": {"T": {"type": "DT_FLOAT"}}}, {"name": "StatefulPartitionedCall/sequential_2/gru_2/PartitionedCall/while/body/_176/while/TensorArrayV2Read/TensorListGetItem", "op": "TensorListGetItem", "input": ["StatefulPartitionedCall/sequential_2/gru_2/PartitionedCall/while/StatefulPartitionedCall/sequential_2/gru_2/PartitionedCall/TensorArrayUnstack/TensorListFromTensor_switch/_206:1", "Func/StatefulPartitionedCall/sequential_2/gru_2/PartitionedCall/while/body/_176/input/_385", "StatefulPartitionedCall/sequential_2/gru_2/PartitionedCall/while/body/_176/while/TensorArrayV2Read/TensorListGetItem/element_shape"], "attr": {"element_dtype": {"type": "DT_FLOAT"}}}, {"name": "StatefulPartitionedCall/sequential_2/gru_2/PartitionedCall/while/body/_176/while/add_4", "op": "AddV2", "input": ["Func/StatefulPartitionedCall/sequential_2/gru_2/PartitionedCall/while/body/_176/input/_385", "StatefulPartitionedCall/sequential_2/gru_2/PartitionedCall/while/body/_176/while/add_4/y"], "attr": {"T": {"type": "DT_INT32"}}}, {"name": "StatefulPartitionedCall/sequential_2/gru_2/PartitionedCall/while/body/_176/while/add_5", "op": "AddV2", "input": ["StatefulPartitionedCall/sequential_2/gru_2/PartitionedCall/while/StatefulPartitionedCall/sequential_2/gru_2/PartitionedCall/while/loop_counter_switch/_200:1", "StatefulPartitionedCall/sequential_2/gru_2/PartitionedCall/while/body/_176/while/add_5/y"], "attr": {"T": {"type": "DT_INT32"}}}, {"name": "StatefulPartitionedCall/sequential_2/gru_2/PartitionedCall/while/body/_176/while/BiasAdd_1", "op": "BiasAdd", "input": ["StatefulPartitionedCall/sequential_2/gru_2/PartitionedCall/while/body/_176/while/MatMul_1", "StatefulPartitionedCall/sequential_2/gru_2/PartitionedCall/while/StatefulPartitionedCall/sequential_2/gru_2/PartitionedCall/unstack_switch/_210:1"], "attr": {"T": {"type": "DT_FLOAT"}, "data_format": {"s": "TkhXQw=="}}}, {"name": "StatefulPartitionedCall/sequential_2/gru_3/PartitionedCall/TensorArrayUnstack/TensorListFromTensor", "op": "TensorListFromTensor", "input": ["StatefulPartitionedCall/sequential_2/gru_2/PartitionedCall/TensorArrayV2Stack/TensorListStack", "StatefulPartitionedCall/sequential_2/gru_3/PartitionedCall/TensorArrayUnstack/TensorListFromTensor/element_shape"], "attr": {"shape_type": {"type": "DT_INT32"}, "element_dtype": {"type": "DT_FLOAT"}}}, {"name": "StatefulPartitionedCall/sequential_2/gru_2/PartitionedCall/transpose_1", "op": "Transpose", "input": ["StatefulPartitionedCall/sequential_2/gru_2/PartitionedCall/TensorArrayV2Stack/TensorListStack", "StatefulPartitionedCall/sequential_2/gru_2/PartitionedCall/transpose_1/perm"], "attr": {"T": {"type": "DT_FLOAT"}, "Tperm": {"type": "DT_INT32"}}}, {"name": "StatefulPartitionedCall/sequential_2/gru_3/PartitionedCall/Shape", "op": "Shape", "input": ["StatefulPartitionedCall/sequential_2/gru_2/PartitionedCall/TensorArrayV2Stack/TensorListStack"], "attr": {"T": {"type": "DT_FLOAT"}, "out_type": {"type": "DT_INT32"}}}, {"name": "StatefulPartitionedCall/sequential_2/gru_1/PartitionedCall/while/next_iteration/_168", "op": "NextIteration", "input": ["StatefulPartitionedCall/sequential_2/gru_1/PartitionedCall/while/body/_116/while/add_3", "^StatefulPartitionedCall/sequential_2/gru_1/PartitionedCall/while/loop_body_control/_151"], "attr": {"T": {"type": "DT_FLOAT"}}}, {"name": "StatefulPartitionedCall/sequential_2/gru_1/PartitionedCall/while/body/_116/while/TensorArrayV2Write/TensorListSetItem", "op": "TensorListSetItem", "input": ["StatefulPartitionedCall/sequential_2/gru_1/PartitionedCall/while/StatefulPartitionedCall/sequential_2/gru_1/PartitionedCall/TensorArrayV2_1_switch/_143:1", "Func/StatefulPartitionedCall/sequential_2/gru_1/PartitionedCall/while/body/_116/input/_348", "StatefulPartitionedCall/sequential_2/gru_1/PartitionedCall/while/body/_116/while/add_3"], "attr": {"element_dtype": {"type": "DT_FLOAT"}}}, {"name": "StatefulPartitionedCall/sequential_2/gru_2/PartitionedCall/while/body/_176/while/BiasAdd", "op": "_FusedMatMul", "input": ["StatefulPartitionedCall/sequential_2/gru_2/PartitionedCall/while/body/_176/while/TensorArrayV2Read/TensorListGetItem", "StatefulPartitionedCall/sequential_2/gru_2/PartitionedCall/while/Func/StatefulPartitionedCall/sequential_2/gru_2/PartitionedCall/input/_39_switch/_207:1", "StatefulPartitionedCall/sequential_2/gru_2/PartitionedCall/while/StatefulPartitionedCall/sequential_2/gru_2/PartitionedCall/unstack_switch/_208:1"], "device": "/device:CPU:0", "attr": {"epsilon": {"f": 0.0}, "fused_ops": {"list": {"s": ["Qmlhc0FkZA=="]}}, "transpose_a": {"b": false}, "transpose_b": {"b": false}, "T": {"type": "DT_FLOAT"}, "num_args": {"i": "1"}}}, {"name": "StatefulPartitionedCall/sequential_2/gru_2/PartitionedCall/while/next_iteration/_226", "op": "NextIteration", "input": ["StatefulPartitionedCall/sequential_2/gru_2/PartitionedCall/while/body/_176/while/add_4", "^StatefulPartitionedCall/sequential_2/gru_2/PartitionedCall/while/loop_body_control/_211"], "attr": {"T": {"type": "DT_INT32"}}}, {"name": "StatefulPartitionedCall/sequential_2/gru_2/PartitionedCall/while/next_iteration/_224", "op": "NextIteration", "input": ["StatefulPartitionedCall/sequential_2/gru_2/PartitionedCall/while/body/_176/while/add_5", "^StatefulPartitionedCall/sequential_2/gru_2/PartitionedCall/while/loop_body_control/_211"], "attr": {"T": {"type": "DT_INT32"}}}, {"name": "StatefulPartitionedCall/sequential_2/gru_2/PartitionedCall/while/body/_176/while/split_1", "op": "Split", "input": ["StatefulPartitionedCall/sequential_2/gru_2/PartitionedCall/while/body/_176/while/split_1/split_dim", "StatefulPartitionedCall/sequential_2/gru_2/PartitionedCall/while/body/_176/while/BiasAdd_1"], "attr": {"num_split": {"i": "3"}, "T": {"type": "DT_FLOAT"}}}, {"name": "StatefulPartitionedCall/sequential_2/gru_3/PartitionedCall/while/enter/_243", "op": "Enter", "input": ["StatefulPartitionedCall/sequential_2/gru_3/PartitionedCall/TensorArrayUnstack/TensorListFromTensor"], "attr": {"T": {"type": "DT_VARIANT"}, "is_constant": {"b": false}, "parallel_iterations": {"i": "32"}, "frame_name": {"s": "U3RhdGVmdWxQYXJ0aXRpb25lZENhbGwvc2VxdWVudGlhbF8yL2dydV8zL1BhcnRpdGlvbmVkQ2FsbC93aGlsZQ=="}}}, {"name": "StatefulPartitionedCall/sequential_2/gru_3/Shape", "op": "Shape", "input": ["StatefulPartitionedCall/sequential_2/gru_2/PartitionedCall/transpose_1"], "attr": {"out_type": {"type": "DT_INT32"}, "T": {"type": "DT_FLOAT"}}}, {"name": "StatefulPartitionedCall/sequential_2/gru_3/PartitionedCall/strided_slice", "op": "StridedSlice", "input": ["StatefulPartitionedCall/sequential_2/gru_3/PartitionedCall/Shape", "StatefulPartitionedCall/sequential_2/gru_3/PartitionedCall/strided_slice/stack", "StatefulPartitionedCall/sequential_2/gru_3/PartitionedCall/strided_slice/stack_1", "StatefulPartitionedCall/sequential_2/gru_3/PartitionedCall/strided_slice/stack_2"], "attr": {"new_axis_mask": {"i": "0"}, "end_mask": {"i": "0"}, "T": {"type": "DT_INT32"}, "Index": {"type": "DT_INT32"}, "shrink_axis_mask": {"i": "1"}, "ellipsis_mask": {"i": "0"}, "begin_mask": {"i": "0"}}}, {"name": "StatefulPartitionedCall/sequential_2/gru_1/PartitionedCall/while/next_iteration/_167", "op": "NextIteration", "input": ["StatefulPartitionedCall/sequential_2/gru_1/PartitionedCall/while/body/_116/while/TensorArrayV2Write/TensorListSetItem", "^StatefulPartitionedCall/sequential_2/gru_1/PartitionedCall/while/loop_body_control/_151"], "attr": {"T": {"type": "DT_VARIANT"}}}, {"name": "StatefulPartitionedCall/sequential_2/gru_2/PartitionedCall/while/body/_176/while/split", "op": "Split", "input": ["StatefulPartitionedCall/sequential_2/gru_2/PartitionedCall/while/body/_176/while/split/split_dim", "StatefulPartitionedCall/sequential_2/gru_2/PartitionedCall/while/body/_176/while/BiasAdd"], "attr": {"num_split": {"i": "3"}, "T": {"type": "DT_FLOAT"}}}, {"name": "StatefulPartitionedCall/sequential_2/gru_3/PartitionedCall/while/merge/_254", "op": "Merge", "input": ["StatefulPartitionedCall/sequential_2/gru_3/PartitionedCall/while/enter/_243", "StatefulPartitionedCall/sequential_2/gru_3/PartitionedCall/while/next_iteration/_290"], "attr": {"T": {"type": "DT_VARIANT"}, "N": {"i": "2"}}}, {"name": "StatefulPartitionedCall/sequential_2/gru_3/strided_slice", "op": "StridedSlice", "input": ["StatefulPartitionedCall/sequential_2/gru_3/Shape", "StatefulPartitionedCall/sequential_2/gru_3/strided_slice/stack", "StatefulPartitionedCall/sequential_2/gru_3/strided_slice/stack_1", "StatefulPartitionedCall/sequential_2/gru_3/strided_slice/stack_2"], "attr": {"end_mask": {"i": "0"}, "T": {"type": "DT_INT32"}, "Index": {"type": "DT_INT32"}, "shrink_axis_mask": {"i": "1"}, "begin_mask": {"i": "0"}, "ellipsis_mask": {"i": "0"}, "new_axis_mask": {"i": "0"}}}, {"name": "StatefulPartitionedCall/sequential_2/gru_3/PartitionedCall/TensorArrayV2_1", "op": "TensorListReserve", "input": ["StatefulPartitionedCall/sequential_2/gru_3/PartitionedCall/TensorArrayV2_1/element_shape", "StatefulPartitionedCall/sequential_2/gru_3/PartitionedCall/strided_slice"], "attr": {"shape_type": {"type": "DT_INT32"}, "element_dtype": {"type": "DT_FLOAT"}}}, {"name": "StatefulPartitionedCall/sequential_2/gru_3/PartitionedCall/while/enter/_242", "op": "Enter", "input": ["StatefulPartitionedCall/sequential_2/gru_3/PartitionedCall/strided_slice"], "attr": {"T": {"type": "DT_INT32"}, "is_constant": {"b": false}, "parallel_iterations": {"i": "32"}, "frame_name": {"s": "U3RhdGVmdWxQYXJ0aXRpb25lZENhbGwvc2VxdWVudGlhbF8yL2dydV8zL1BhcnRpdGlvbmVkQ2FsbC93aGlsZQ=="}}}, {"name": "StatefulPartitionedCall/sequential_2/gru_2/PartitionedCall/while/body/_176/while/add", "op": "AddV2", "input": ["StatefulPartitionedCall/sequential_2/gru_2/PartitionedCall/while/body/_176/while/split", "StatefulPartitionedCall/sequential_2/gru_2/PartitionedCall/while/body/_176/while/split_1"], "attr": {"T": {"type": "DT_FLOAT"}}}, {"name": "StatefulPartitionedCall/sequential_2/gru_2/PartitionedCall/while/body/_176/while/add_1", "op": "AddV2", "input": ["StatefulPartitionedCall/sequential_2/gru_2/PartitionedCall/while/body/_176/while/split:1", "StatefulPartitionedCall/sequential_2/gru_2/PartitionedCall/while/body/_176/while/split_1:1"], "attr": {"T": {"type": "DT_FLOAT"}}}, {"name": "StatefulPartitionedCall/sequential_2/gru_3/zeros/packed", "op": "Pack", "input": ["StatefulPartitionedCall/sequential_2/gru_3/strided_slice", "StatefulPartitionedCall/sequential_2/gru_3/zeros/packed/1"], "attr": {"axis": {"i": "0"}, "N": {"i": "2"}, "T": {"type": "DT_INT32"}}}, {"name": "StatefulPartitionedCall/sequential_2/gru_3/PartitionedCall/while/enter/_240", "op": "Enter", "input": ["StatefulPartitionedCall/sequential_2/gru_3/PartitionedCall/TensorArrayV2_1"], "attr": {"parallel_iterations": {"i": "32"}, "frame_name": {"s": "U3RhdGVmdWxQYXJ0aXRpb25lZENhbGwvc2VxdWVudGlhbF8yL2dydV8zL1BhcnRpdGlvbmVkQ2FsbC93aGlsZQ=="}, "T": {"type": "DT_VARIANT"}, "is_constant": {"b": false}}}, {"name": "StatefulPartitionedCall/sequential_2/gru_3/PartitionedCall/while/merge/_253", "op": "Merge", "input": ["StatefulPartitionedCall/sequential_2/gru_3/PartitionedCall/while/enter/_242", "StatefulPartitionedCall/sequential_2/gru_3/PartitionedCall/while/next_iteration/_289"], "attr": {"N": {"i": "2"}, "T": {"type": "DT_INT32"}}}, {"name": "StatefulPartitionedCall/sequential_2/gru_2/PartitionedCall/while/body/_176/while/Sigmoid", "op": "Sigmoid", "input": ["StatefulPartitionedCall/sequential_2/gru_2/PartitionedCall/while/body/_176/while/add"], "attr": {"T": {"type": "DT_FLOAT"}}}, {"name": "StatefulPartitionedCall/sequential_2/gru_2/PartitionedCall/while/body/_176/while/Sigmoid_1", "op": "Sigmoid", "input": ["StatefulPartitionedCall/sequential_2/gru_2/PartitionedCall/while/body/_176/while/add_1"], "attr": {"T": {"type": "DT_FLOAT"}}}, {"name": "StatefulPartitionedCall/sequential_2/gru_3/zeros", "op": "Fill", "input": ["StatefulPartitionedCall/sequential_2/gru_3/zeros/packed", "StatefulPartitionedCall/sequential_2/gru_3/zeros/Const"], "attr": {"T": {"type": "DT_FLOAT"}, "index_type": {"type": "DT_INT32"}}}, {"name": "StatefulPartitionedCall/sequential_2/gru_3/PartitionedCall/while/merge/_251", "op": "Merge", "input": ["StatefulPartitionedCall/sequential_2/gru_3/PartitionedCall/while/enter/_240", "StatefulPartitionedCall/sequential_2/gru_3/PartitionedCall/while/next_iteration/_287"], "attr": {"T": {"type": "DT_VARIANT"}, "N": {"i": "2"}}}, {"name": "StatefulPartitionedCall/sequential_2/gru_3/PartitionedCall/while/cond/_235/while/Less", "op": "Less", "input": ["StatefulPartitionedCall/sequential_2/gru_3/PartitionedCall/while/merge/_250", "StatefulPartitionedCall/sequential_2/gru_3/PartitionedCall/while/merge/_253", "^StatefulPartitionedCall/sequential_2/gru_3/PartitionedCall/while/merge/_248"], "attr": {"T": {"type": "DT_INT32"}}}, {"name": "StatefulPartitionedCall/sequential_2/gru_2/PartitionedCall/while/body/_176/while/sub", "op": "Sub", "input": ["StatefulPartitionedCall/sequential_2/gru_2/PartitionedCall/while/body/_176/while/sub/x", "StatefulPartitionedCall/sequential_2/gru_2/PartitionedCall/while/body/_176/while/Sigmoid"], "attr": {"T": {"type": "DT_FLOAT"}}}, {"name": "StatefulPartitionedCall/sequential_2/gru_2/PartitionedCall/while/body/_176/while/mul_1", "op": "Mul", "input": ["StatefulPartitionedCall/sequential_2/gru_2/PartitionedCall/while/body/_176/while/Sigmoid", "StatefulPartitionedCall/sequential_2/gru_2/PartitionedCall/while/Func/StatefulPartitionedCall/sequential_2/gru_2/PartitionedCall/input/_38_switch/_204:1"], "attr": {"T": {"type": "DT_FLOAT"}}}, {"name": "StatefulPartitionedCall/sequential_2/gru_2/PartitionedCall/while/body/_176/while/mul", "op": "Mul", "input": ["StatefulPartitionedCall/sequential_2/gru_2/PartitionedCall/while/body/_176/while/Sigmoid_1", "StatefulPartitionedCall/sequential_2/gru_2/PartitionedCall/while/body/_176/while/split_1:2"], "attr": {"T": {"type": "DT_FLOAT"}}}, {"name": "StatefulPartitionedCall/sequential_2/gru_3/PartitionedCall/while/enter/_241", "op": "Enter", "input": ["StatefulPartitionedCall/sequential_2/gru_3/zeros"], "attr": {"T": {"type": "DT_FLOAT"}, "is_constant": {"b": false}, "parallel_iterations": {"i": "32"}, "frame_name": {"s": "U3RhdGVmdWxQYXJ0aXRpb25lZENhbGwvc2VxdWVudGlhbF8yL2dydV8zL1BhcnRpdGlvbmVkQ2FsbC93aGlsZQ=="}}}, {"name": "StatefulPartitionedCall/sequential_2/gru_3/PartitionedCall/while/LoopCond/_259", "op": "LoopCond", "input": ["StatefulPartitionedCall/sequential_2/gru_3/PartitionedCall/while/cond/_235/while/Less"]}, {"name": "StatefulPartitionedCall/sequential_2/gru_2/PartitionedCall/while/body/_176/while/add_2", "op": "AddV2", "input": ["StatefulPartitionedCall/sequential_2/gru_2/PartitionedCall/while/body/_176/while/split:2", "StatefulPartitionedCall/sequential_2/gru_2/PartitionedCall/while/body/_176/while/mul"], "attr": {"T": {"type": "DT_FLOAT"}}}, {"name": "StatefulPartitionedCall/sequential_2/gru_3/PartitionedCall/while/merge/_252", "op": "Merge", "input": ["StatefulPartitionedCall/sequential_2/gru_3/PartitionedCall/while/enter/_241", "StatefulPartitionedCall/sequential_2/gru_3/PartitionedCall/while/next_iteration/_288"], "attr": {"T": {"type": "DT_FLOAT"}, "N": {"i": "2"}}}, {"name": "StatefulPartitionedCall/sequential_2/gru_3/PartitionedCall/while/StatefulPartitionedCall/sequential_2/gru_3/PartitionedCall/TensorArrayUnstack/TensorListFromTensor_switch/_266", "op": "Switch", "input": ["StatefulPartitionedCall/sequential_2/gru_3/PartitionedCall/while/merge/_254", "StatefulPartitionedCall/sequential_2/gru_3/PartitionedCall/while/LoopCond/_259"], "attr": {"T": {"type": "DT_VARIANT"}}}, {"name": "StatefulPartitionedCall/sequential_2/gru_3/PartitionedCall/while/Func/StatefulPartitionedCall/sequential_2/gru_3/PartitionedCall/input/_48_switch/_267", "op": "Switch", "input": ["StatefulPartitionedCall/sequential_2/gru_3/PartitionedCall/while/merge/_255", "StatefulPartitionedCall/sequential_2/gru_3/PartitionedCall/while/LoopCond/_259"], "attr": {"T": {"type": "DT_FLOAT"}}}, {"name": "StatefulPartitionedCall/sequential_2/gru_3/PartitionedCall/while/StatefulPartitionedCall/sequential_2/gru_3/PartitionedCall/unstack_switch/_268", "op": "Switch", "input": ["StatefulPartitionedCall/sequential_2/gru_3/PartitionedCall/while/merge/_256", "StatefulPartitionedCall/sequential_2/gru_3/PartitionedCall/while/LoopCond/_259"], "attr": {"T": {"type": "DT_FLOAT"}}}, {"name": "StatefulPartitionedCall/sequential_2/gru_3/PartitionedCall/while/Func/StatefulPartitionedCall/sequential_2/gru_3/PartitionedCall/input/_49_switch/_269", "op": "Switch", "input": ["StatefulPartitionedCall/sequential_2/gru_3/PartitionedCall/while/merge/_257", "StatefulPartitionedCall/sequential_2/gru_3/PartitionedCall/while/LoopCond/_259"], "attr": {"T": {"type": "DT_FLOAT"}}}, {"name": "StatefulPartitionedCall/sequential_2/gru_3/PartitionedCall/while/StatefulPartitionedCall/sequential_2/gru_3/PartitionedCall/unstack_switch/_270", "op": "Switch", "input": ["StatefulPartitionedCall/sequential_2/gru_3/PartitionedCall/while/merge/_258", "StatefulPartitionedCall/sequential_2/gru_3/PartitionedCall/while/LoopCond/_259"], "attr": {"T": {"type": "DT_FLOAT"}}}, {"name": "StatefulPartitionedCall/sequential_2/gru_3/PartitionedCall/while/StatefulPartitionedCall/sequential_2/gru_3/PartitionedCall/time_switch/_262", "op": "Switch", "input": ["StatefulPartitionedCall/sequential_2/gru_3/PartitionedCall/while/merge/_250", "StatefulPartitionedCall/sequential_2/gru_3/PartitionedCall/while/LoopCond/_259"], "attr": {"T": {"type": "DT_INT32"}}}, {"name": "StatefulPartitionedCall/sequential_2/gru_3/PartitionedCall/while/StatefulPartitionedCall/sequential_2/gru_3/PartitionedCall/while/loop_counter_switch/_260", "op": "Switch", "input": ["StatefulPartitionedCall/sequential_2/gru_3/PartitionedCall/while/merge/_248", "StatefulPartitionedCall/sequential_2/gru_3/PartitionedCall/while/LoopCond/_259"], "attr": {"T": {"type": "DT_INT32"}}}, {"name": "StatefulPartitionedCall/sequential_2/gru_3/PartitionedCall/while/StatefulPartitionedCall/sequential_2/gru_3/PartitionedCall/TensorArrayV2_1_switch/_263", "op": "Switch", "input": ["StatefulPartitionedCall/sequential_2/gru_3/PartitionedCall/while/merge/_251", "StatefulPartitionedCall/sequential_2/gru_3/PartitionedCall/while/LoopCond/_259"], "attr": {"T": {"type": "DT_VARIANT"}}}, {"name": "StatefulPartitionedCall/sequential_2/gru_3/PartitionedCall/while/StatefulPartitionedCall/sequential_2/gru_3/PartitionedCall/strided_slice_switch/_265", "op": "Switch", "input": ["StatefulPartitionedCall/sequential_2/gru_3/PartitionedCall/while/merge/_253", "StatefulPartitionedCall/sequential_2/gru_3/PartitionedCall/while/LoopCond/_259"], "attr": {"T": {"type": "DT_INT32"}}}, {"name": "StatefulPartitionedCall/sequential_2/gru_2/PartitionedCall/while/body/_176/while/Tanh", "op": "Tanh", "input": ["StatefulPartitionedCall/sequential_2/gru_2/PartitionedCall/while/body/_176/while/add_2"], "attr": {"T": {"type": "DT_FLOAT"}}}, {"name": "StatefulPartitionedCall/sequential_2/gru_3/PartitionedCall/while/Func/StatefulPartitionedCall/sequential_2/gru_3/PartitionedCall/input/_47_switch/_264", "op": "Switch", "input": ["StatefulPartitionedCall/sequential_2/gru_3/PartitionedCall/while/merge/_252", "StatefulPartitionedCall/sequential_2/gru_3/PartitionedCall/while/LoopCond/_259"], "attr": {"T": {"type": "DT_FLOAT"}}}, {"name": "StatefulPartitionedCall/sequential_2/gru_3/PartitionedCall/while/loop_body_control/_271", "op": "Identity", "input": ["StatefulPartitionedCall/sequential_2/gru_3/PartitionedCall/while/StatefulPartitionedCall/sequential_2/gru_3/PartitionedCall/while/loop_counter_switch/_260:1"], "attr": {"T": {"type": "DT_INT32"}}}, {"name": "StatefulPartitionedCall/sequential_2/gru_3/PartitionedCall/while/exit/_275", "op": "Exit", "input": ["StatefulPartitionedCall/sequential_2/gru_3/PartitionedCall/while/StatefulPartitionedCall/sequential_2/gru_3/PartitionedCall/TensorArrayV2_1_switch/_263"], "attr": {"T": {"type": "DT_VARIANT"}}}, {"name": "StatefulPartitionedCall/sequential_2/gru_2/PartitionedCall/while/body/_176/while/mul_2", "op": "Mul", "input": ["StatefulPartitionedCall/sequential_2/gru_2/PartitionedCall/while/body/_176/while/sub", "StatefulPartitionedCall/sequential_2/gru_2/PartitionedCall/while/body/_176/while/Tanh"], "attr": {"T": {"type": "DT_FLOAT"}}}, {"name": "StatefulPartitionedCall/sequential_2/gru_3/PartitionedCall/while/body/_236/while/sub/x", "op": "Const", "input": ["^StatefulPartitionedCall/sequential_2/gru_3/PartitionedCall/while/loop_body_control/_271"], "attr": {"dtype": {"type": "DT_FLOAT"}, "value": {"tensor": {"dtype": "DT_FLOAT", "tensorShape": {}}}}}, {"name": "StatefulPartitionedCall/sequential_2/gru_3/PartitionedCall/while/body/_236/while/split/split_dim", "op": "Const", "input": ["^StatefulPartitionedCall/sequential_2/gru_3/PartitionedCall/while/loop_body_control/_271"], "attr": {"value": {"tensor": {"dtype": "DT_INT32", "tensorShape": {}}}, "dtype": {"type": "DT_INT32"}}}, {"name": "StatefulPartitionedCall/sequential_2/gru_3/PartitionedCall/while/next_iteration/_290", "op": "NextIteration", "input": ["StatefulPartitionedCall/sequential_2/gru_3/PartitionedCall/while/StatefulPartitionedCall/sequential_2/gru_3/PartitionedCall/TensorArrayUnstack/TensorListFromTensor_switch/_266:1", "^StatefulPartitionedCall/sequential_2/gru_3/PartitionedCall/while/loop_body_control/_271"], "attr": {"T": {"type": "DT_VARIANT"}}}, {"name": "StatefulPartitionedCall/sequential_2/gru_3/PartitionedCall/while/body/_236/while/TensorArrayV2Read/TensorListGetItem/element_shape", "op": "Const", "input": ["^StatefulPartitionedCall/sequential_2/gru_3/PartitionedCall/while/loop_body_control/_271"], "attr": {"value": {"tensor": {"dtype": "DT_INT32", "tensorShape": {"dim": [{"size": "2"}]}}}, "dtype": {"type": "DT_INT32"}}}, {"name": "StatefulPartitionedCall/sequential_2/gru_3/PartitionedCall/while/next_iteration/_291", "op": "NextIteration", "input": ["StatefulPartitionedCall/sequential_2/gru_3/PartitionedCall/while/Func/StatefulPartitionedCall/sequential_2/gru_3/PartitionedCall/input/_48_switch/_267:1", "^StatefulPartitionedCall/sequential_2/gru_3/PartitionedCall/while/loop_body_control/_271"], "attr": {"T": {"type": "DT_FLOAT"}}}, {"name": "StatefulPartitionedCall/sequential_2/gru_3/PartitionedCall/while/next_iteration/_292", "op": "NextIteration", "input": ["StatefulPartitionedCall/sequential_2/gru_3/PartitionedCall/while/StatefulPartitionedCall/sequential_2/gru_3/PartitionedCall/unstack_switch/_268:1", "^StatefulPartitionedCall/sequential_2/gru_3/PartitionedCall/while/loop_body_control/_271"], "attr": {"T": {"type": "DT_FLOAT"}}}, {"name": "StatefulPartitionedCall/sequential_2/gru_3/PartitionedCall/while/body/_236/while/split_1/split_dim", "op": "Const", "input": ["^StatefulPartitionedCall/sequential_2/gru_3/PartitionedCall/while/loop_body_control/_271"], "attr": {"value": {"tensor": {"dtype": "DT_INT32", "tensorShape": {}}}, "dtype": {"type": "DT_INT32"}}}, {"name": "StatefulPartitionedCall/sequential_2/gru_3/PartitionedCall/while/next_iteration/_293", "op": "NextIteration", "input": ["StatefulPartitionedCall/sequential_2/gru_3/PartitionedCall/while/Func/StatefulPartitionedCall/sequential_2/gru_3/PartitionedCall/input/_49_switch/_269:1", "^StatefulPartitionedCall/sequential_2/gru_3/PartitionedCall/while/loop_body_control/_271"], "attr": {"T": {"type": "DT_FLOAT"}}}, {"name": "StatefulPartitionedCall/sequential_2/gru_3/PartitionedCall/while/next_iteration/_294", "op": "NextIteration", "input": ["StatefulPartitionedCall/sequential_2/gru_3/PartitionedCall/while/StatefulPartitionedCall/sequential_2/gru_3/PartitionedCall/unstack_switch/_270:1", "^StatefulPartitionedCall/sequential_2/gru_3/PartitionedCall/while/loop_body_control/_271"], "attr": {"T": {"type": "DT_FLOAT"}}}, {"name": "Func/StatefulPartitionedCall/sequential_2/gru_3/PartitionedCall/while/body/_236/input/_422", "op": "Identity", "input": ["StatefulPartitionedCall/sequential_2/gru_3/PartitionedCall/while/StatefulPartitionedCall/sequential_2/gru_3/PartitionedCall/time_switch/_262:1", "^StatefulPartitionedCall/sequential_2/gru_3/PartitionedCall/while/loop_body_control/_271"], "attr": {"T": {"type": "DT_INT32"}}}, {"name": "StatefulPartitionedCall/sequential_2/gru_3/PartitionedCall/while/body/_236/while/add_4/y", "op": "Const", "input": ["^StatefulPartitionedCall/sequential_2/gru_3/PartitionedCall/while/loop_body_control/_271"], "attr": {"value": {"tensor": {"dtype": "DT_INT32", "tensorShape": {}}}, "dtype": {"type": "DT_INT32"}}}, {"name": "StatefulPartitionedCall/sequential_2/gru_3/PartitionedCall/while/body/_236/while/add_5/y", "op": "Const", "input": ["^StatefulPartitionedCall/sequential_2/gru_3/PartitionedCall/while/loop_body_control/_271"], "attr": {"value": {"tensor": {"dtype": "DT_INT32", "tensorShape": {}}}, "dtype": {"type": "DT_INT32"}}}, {"name": "StatefulPartitionedCall/sequential_2/gru_3/PartitionedCall/while/body/_236/while/MatMul_1", "op": "MatMul", "input": ["StatefulPartitionedCall/sequential_2/gru_3/PartitionedCall/while/Func/StatefulPartitionedCall/sequential_2/gru_3/PartitionedCall/input/_47_switch/_264:1", "StatefulPartitionedCall/sequential_2/gru_3/PartitionedCall/while/Func/StatefulPartitionedCall/sequential_2/gru_3/PartitionedCall/input/_49_switch/_269:1", "^StatefulPartitionedCall/sequential_2/gru_3/PartitionedCall/while/loop_body_control/_271"], "device": "/device:CPU:0", "attr": {"transpose_a": {"b": false}, "transpose_b": {"b": false}, "T": {"type": "DT_FLOAT"}}}, {"name": "StatefulPartitionedCall/sequential_2/gru_3/PartitionedCall/while/next_iteration/_289", "op": "NextIteration", "input": ["StatefulPartitionedCall/sequential_2/gru_3/PartitionedCall/while/StatefulPartitionedCall/sequential_2/gru_3/PartitionedCall/strided_slice_switch/_265:1", "^StatefulPartitionedCall/sequential_2/gru_3/PartitionedCall/while/loop_body_control/_271"], "attr": {"T": {"type": "DT_INT32"}}}, {"name": "StatefulPartitionedCall/sequential_2/gru_3/PartitionedCall/TensorArrayV2Stack/TensorListStack", "op": "TensorListStack", "input": ["StatefulPartitionedCall/sequential_2/gru_3/PartitionedCall/while/exit/_275", "StatefulPartitionedCall/sequential_2/gru_3/PartitionedCall/TensorArrayV2Stack/TensorListStack/element_shape"], "attr": {"element_dtype": {"type": "DT_FLOAT"}, "num_elements": {"i": "-1"}}}, {"name": "StatefulPartitionedCall/sequential_2/gru_2/PartitionedCall/while/body/_176/while/add_3", "op": "AddV2", "input": ["StatefulPartitionedCall/sequential_2/gru_2/PartitionedCall/while/body/_176/while/mul_1", "StatefulPartitionedCall/sequential_2/gru_2/PartitionedCall/while/body/_176/while/mul_2"], "attr": {"T": {"type": "DT_FLOAT"}}}, {"name": "StatefulPartitionedCall/sequential_2/gru_3/PartitionedCall/while/body/_236/while/TensorArrayV2Read/TensorListGetItem", "op": "TensorListGetItem", "input": ["StatefulPartitionedCall/sequential_2/gru_3/PartitionedCall/while/StatefulPartitionedCall/sequential_2/gru_3/PartitionedCall/TensorArrayUnstack/TensorListFromTensor_switch/_266:1", "Func/StatefulPartitionedCall/sequential_2/gru_3/PartitionedCall/while/body/_236/input/_422", "StatefulPartitionedCall/sequential_2/gru_3/PartitionedCall/while/body/_236/while/TensorArrayV2Read/TensorListGetItem/element_shape"], "attr": {"element_dtype": {"type": "DT_FLOAT"}}}, {"name": "StatefulPartitionedCall/sequential_2/gru_3/PartitionedCall/while/body/_236/while/add_4", "op": "AddV2", "input": ["Func/StatefulPartitionedCall/sequential_2/gru_3/PartitionedCall/while/body/_236/input/_422", "StatefulPartitionedCall/sequential_2/gru_3/PartitionedCall/while/body/_236/while/add_4/y"], "attr": {"T": {"type": "DT_INT32"}}}, {"name": "StatefulPartitionedCall/sequential_2/gru_3/PartitionedCall/while/body/_236/while/add_5", "op": "AddV2", "input": ["StatefulPartitionedCall/sequential_2/gru_3/PartitionedCall/while/StatefulPartitionedCall/sequential_2/gru_3/PartitionedCall/while/loop_counter_switch/_260:1", "StatefulPartitionedCall/sequential_2/gru_3/PartitionedCall/while/body/_236/while/add_5/y"], "attr": {"T": {"type": "DT_INT32"}}}, {"name": "StatefulPartitionedCall/sequential_2/gru_3/PartitionedCall/while/body/_236/while/BiasAdd_1", "op": "BiasAdd", "input": ["StatefulPartitionedCall/sequential_2/gru_3/PartitionedCall/while/body/_236/while/MatMul_1", "StatefulPartitionedCall/sequential_2/gru_3/PartitionedCall/while/StatefulPartitionedCall/sequential_2/gru_3/PartitionedCall/unstack_switch/_270:1"], "attr": {"data_format": {"s": "TkhXQw=="}, "T": {"type": "DT_FLOAT"}}}, {"name": "StatefulPartitionedCall/sequential_2/gru_3/PartitionedCall/strided_slice_2", "op": "StridedSlice", "input": ["StatefulPartitionedCall/sequential_2/gru_3/PartitionedCall/TensorArrayV2Stack/TensorListStack", "StatefulPartitionedCall/sequential_2/gru_3/PartitionedCall/strided_slice_2/stack", "StatefulPartitionedCall/sequential_2/gru_3/PartitionedCall/strided_slice_2/stack_1", "StatefulPartitionedCall/sequential_2/gru_3/PartitionedCall/strided_slice_2/stack_2"], "attr": {"shrink_axis_mask": {"i": "1"}, "begin_mask": {"i": "0"}, "ellipsis_mask": {"i": "0"}, "new_axis_mask": {"i": "0"}, "end_mask": {"i": "0"}, "Index": {"type": "DT_INT32"}, "T": {"type": "DT_FLOAT"}}}, {"name": "StatefulPartitionedCall/sequential_2/gru_2/PartitionedCall/while/next_iteration/_228", "op": "NextIteration", "input": ["StatefulPartitionedCall/sequential_2/gru_2/PartitionedCall/while/body/_176/while/add_3", "^StatefulPartitionedCall/sequential_2/gru_2/PartitionedCall/while/loop_body_control/_211"], "attr": {"T": {"type": "DT_FLOAT"}}}, {"name": "StatefulPartitionedCall/sequential_2/gru_2/PartitionedCall/while/body/_176/while/TensorArrayV2Write/TensorListSetItem", "op": "TensorListSetItem", "input": ["StatefulPartitionedCall/sequential_2/gru_2/PartitionedCall/while/StatefulPartitionedCall/sequential_2/gru_2/PartitionedCall/TensorArrayV2_1_switch/_203:1", "Func/StatefulPartitionedCall/sequential_2/gru_2/PartitionedCall/while/body/_176/input/_385", "StatefulPartitionedCall/sequential_2/gru_2/PartitionedCall/while/body/_176/while/add_3"], "attr": {"element_dtype": {"type": "DT_FLOAT"}}}, {"name": "StatefulPartitionedCall/sequential_2/gru_3/PartitionedCall/while/body/_236/while/BiasAdd", "op": "_FusedMatMul", "input": ["StatefulPartitionedCall/sequential_2/gru_3/PartitionedCall/while/body/_236/while/TensorArrayV2Read/TensorListGetItem", "StatefulPartitionedCall/sequential_2/gru_3/PartitionedCall/while/Func/StatefulPartitionedCall/sequential_2/gru_3/PartitionedCall/input/_48_switch/_267:1", "StatefulPartitionedCall/sequential_2/gru_3/PartitionedCall/while/StatefulPartitionedCall/sequential_2/gru_3/PartitionedCall/unstack_switch/_268:1"], "device": "/device:CPU:0", "attr": {"fused_ops": {"list": {"s": ["Qmlhc0FkZA=="]}}, "transpose_a": {"b": false}, "transpose_b": {"b": false}, "T": {"type": "DT_FLOAT"}, "num_args": {"i": "1"}, "epsilon": {"f": 0.0}}}, {"name": "StatefulPartitionedCall/sequential_2/gru_3/PartitionedCall/while/next_iteration/_286", "op": "NextIteration", "input": ["StatefulPartitionedCall/sequential_2/gru_3/PartitionedCall/while/body/_236/while/add_4", "^StatefulPartitionedCall/sequential_2/gru_3/PartitionedCall/while/loop_body_control/_271"], "attr": {"T": {"type": "DT_INT32"}}}, {"name": "StatefulPartitionedCall/sequential_2/gru_3/PartitionedCall/while/next_iteration/_284", "op": "NextIteration", "input": ["StatefulPartitionedCall/sequential_2/gru_3/PartitionedCall/while/body/_236/while/add_5", "^StatefulPartitionedCall/sequential_2/gru_3/PartitionedCall/while/loop_body_control/_271"], "attr": {"T": {"type": "DT_INT32"}}}, {"name": "StatefulPartitionedCall/sequential_2/gru_3/PartitionedCall/while/body/_236/while/split_1", "op": "Split", "input": ["StatefulPartitionedCall/sequential_2/gru_3/PartitionedCall/while/body/_236/while/split_1/split_dim", "StatefulPartitionedCall/sequential_2/gru_3/PartitionedCall/while/body/_236/while/BiasAdd_1"], "attr": {"num_split": {"i": "3"}, "T": {"type": "DT_FLOAT"}}}, {"name": "StatefulPartitionedCall/sequential_2/dense/BiasAdd", "op": "_FusedMatMul", "input": ["StatefulPartitionedCall/sequential_2/gru_3/PartitionedCall/strided_slice_2", "unknown_13", "unknown_14"], "device": "/device:CPU:0", "attr": {"fused_ops": {"list": {"s": ["Qmlhc0FkZA=="]}}, "transpose_a": {"b": false}, "transpose_b": {"b": false}, "T": {"type": "DT_FLOAT"}, "num_args": {"i": "1"}, "epsilon": {"f": 0.0}}}, {"name": "StatefulPartitionedCall/sequential_2/gru_2/PartitionedCall/while/next_iteration/_227", "op": "NextIteration", "input": ["StatefulPartitionedCall/sequential_2/gru_2/PartitionedCall/while/body/_176/while/TensorArrayV2Write/TensorListSetItem", "^StatefulPartitionedCall/sequential_2/gru_2/PartitionedCall/while/loop_body_control/_211"], "attr": {"T": {"type": "DT_VARIANT"}}}, {"name": "StatefulPartitionedCall/sequential_2/gru_3/PartitionedCall/while/body/_236/while/split", "op": "Split", "input": ["StatefulPartitionedCall/sequential_2/gru_3/PartitionedCall/while/body/_236/while/split/split_dim", "StatefulPartitionedCall/sequential_2/gru_3/PartitionedCall/while/body/_236/while/BiasAdd"], "attr": {"T": {"type": "DT_FLOAT"}, "num_split": {"i": "3"}}}, {"name": "StatefulPartitionedCall/sequential_2/dense/Sigmoid", "op": "Sigmoid", "input": ["StatefulPartitionedCall/sequential_2/dense/BiasAdd"], "attr": {"T": {"type": "DT_FLOAT"}}}, {"name": "StatefulPartitionedCall/sequential_2/gru_3/PartitionedCall/while/body/_236/while/add", "op": "AddV2", "input": ["StatefulPartitionedCall/sequential_2/gru_3/PartitionedCall/while/body/_236/while/split", "StatefulPartitionedCall/sequential_2/gru_3/PartitionedCall/while/body/_236/while/split_1"], "attr": {"T": {"type": "DT_FLOAT"}}}, {"name": "StatefulPartitionedCall/sequential_2/gru_3/PartitionedCall/while/body/_236/while/add_1", "op": "AddV2", "input": ["StatefulPartitionedCall/sequential_2/gru_3/PartitionedCall/while/body/_236/while/split:1", "StatefulPartitionedCall/sequential_2/gru_3/PartitionedCall/while/body/_236/while/split_1:1"], "attr": {"T": {"type": "DT_FLOAT"}}}, {"name": "Identity", "op": "Identity", "input": ["StatefulPartitionedCall/sequential_2/dense/Sigmoid"], "attr": {"T": {"type": "DT_FLOAT"}}}, {"name": "StatefulPartitionedCall/sequential_2/gru_3/PartitionedCall/while/body/_236/while/Sigmoid", "op": "Sigmoid", "input": ["StatefulPartitionedCall/sequential_2/gru_3/PartitionedCall/while/body/_236/while/add"], "attr": {"T": {"type": "DT_FLOAT"}}}, {"name": "StatefulPartitionedCall/sequential_2/gru_3/PartitionedCall/while/body/_236/while/Sigmoid_1", "op": "Sigmoid", "input": ["StatefulPartitionedCall/sequential_2/gru_3/PartitionedCall/while/body/_236/while/add_1"], "attr": {"T": {"type": "DT_FLOAT"}}}, {"name": "StatefulPartitionedCall/sequential_2/gru_3/PartitionedCall/while/body/_236/while/sub", "op": "Sub", "input": ["StatefulPartitionedCall/sequential_2/gru_3/PartitionedCall/while/body/_236/while/sub/x", "StatefulPartitionedCall/sequential_2/gru_3/PartitionedCall/while/body/_236/while/Sigmoid"], "attr": {"T": {"type": "DT_FLOAT"}}}, {"name": "StatefulPartitionedCall/sequential_2/gru_3/PartitionedCall/while/body/_236/while/mul_1", "op": "Mul", "input": ["StatefulPartitionedCall/sequential_2/gru_3/PartitionedCall/while/body/_236/while/Sigmoid", "StatefulPartitionedCall/sequential_2/gru_3/PartitionedCall/while/Func/StatefulPartitionedCall/sequential_2/gru_3/PartitionedCall/input/_47_switch/_264:1"], "attr": {"T": {"type": "DT_FLOAT"}}}, {"name": "StatefulPartitionedCall/sequential_2/gru_3/PartitionedCall/while/body/_236/while/mul", "op": "Mul", "input": ["StatefulPartitionedCall/sequential_2/gru_3/PartitionedCall/while/body/_236/while/Sigmoid_1", "StatefulPartitionedCall/sequential_2/gru_3/PartitionedCall/while/body/_236/while/split_1:2"], "attr": {"T": {"type": "DT_FLOAT"}}}, {"name": "StatefulPartitionedCall/sequential_2/gru_3/PartitionedCall/while/body/_236/while/add_2", "op": "AddV2", "input": ["StatefulPartitionedCall/sequential_2/gru_3/PartitionedCall/while/body/_236/while/split:2", "StatefulPartitionedCall/sequential_2/gru_3/PartitionedCall/while/body/_236/while/mul"], "attr": {"T": {"type": "DT_FLOAT"}}}, {"name": "StatefulPartitionedCall/sequential_2/gru_3/PartitionedCall/while/body/_236/while/Tanh", "op": "Tanh", "input": ["StatefulPartitionedCall/sequential_2/gru_3/PartitionedCall/while/body/_236/while/add_2"], "attr": {"T": {"type": "DT_FLOAT"}}}, {"name": "StatefulPartitionedCall/sequential_2/gru_3/PartitionedCall/while/body/_236/while/mul_2", "op": "Mul", "input": ["StatefulPartitionedCall/sequential_2/gru_3/PartitionedCall/while/body/_236/while/sub", "StatefulPartitionedCall/sequential_2/gru_3/PartitionedCall/while/body/_236/while/Tanh"], "attr": {"T": {"type": "DT_FLOAT"}}}, {"name": "StatefulPartitionedCall/sequential_2/gru_3/PartitionedCall/while/body/_236/while/add_3", "op": "AddV2", "input": ["StatefulPartitionedCall/sequential_2/gru_3/PartitionedCall/while/body/_236/while/mul_1", "StatefulPartitionedCall/sequential_2/gru_3/PartitionedCall/while/body/_236/while/mul_2"], "attr": {"T": {"type": "DT_FLOAT"}}}, {"name": "StatefulPartitionedCall/sequential_2/gru_3/PartitionedCall/while/next_iteration/_288", "op": "NextIteration", "input": ["StatefulPartitionedCall/sequential_2/gru_3/PartitionedCall/while/body/_236/while/add_3", "^StatefulPartitionedCall/sequential_2/gru_3/PartitionedCall/while/loop_body_control/_271"], "attr": {"T": {"type": "DT_FLOAT"}}}, {"name": "StatefulPartitionedCall/sequential_2/gru_3/PartitionedCall/while/body/_236/while/TensorArrayV2Write/TensorListSetItem", "op": "TensorListSetItem", "input": ["StatefulPartitionedCall/sequential_2/gru_3/PartitionedCall/while/StatefulPartitionedCall/sequential_2/gru_3/PartitionedCall/TensorArrayV2_1_switch/_263:1", "Func/StatefulPartitionedCall/sequential_2/gru_3/PartitionedCall/while/body/_236/input/_422", "StatefulPartitionedCall/sequential_2/gru_3/PartitionedCall/while/body/_236/while/add_3"], "attr": {"element_dtype": {"type": "DT_FLOAT"}}}, {"name": "StatefulPartitionedCall/sequential_2/gru_3/PartitionedCall/while/next_iteration/_287", "op": "NextIteration", "input": ["StatefulPartitionedCall/sequential_2/gru_3/PartitionedCall/while/body/_236/while/TensorArrayV2Write/TensorListSetItem", "^StatefulPartitionedCall/sequential_2/gru_3/PartitionedCall/while/loop_body_control/_271"], "attr": {"T": {"type": "DT_VARIANT"}}}], "library": {}, "versions": {"producer": 440}}, "weightsManifest": [{"paths": ["group1-shard1of1.bin"], "weights": [{"name": "StatefulPartitionedCall/sequential_2/gru_3/PartitionedCall/TensorArrayV2_1/element_shape", "shape": [2], "dtype": "int32"}, {"name": "StatefulPartitionedCall/sequential_2/gru_3/PartitionedCall/TensorArrayUnstack/TensorListFromTensor/element_shape", "shape": [2], "dtype": "int32"}, {"name": "unknown_10", "shape": [128, 384], "dtype": "float32"}, {"name": "ConstantFolding/StatefulPartitionedCall/sequential_2/gru_3/PartitionedCall/unstack-folded-0", "shape": [384], "dtype": "float32"}, {"name": "StatefulPartitionedCall/sequential_2/gru_2/PartitionedCall/transpose_1/perm", "shape": [3], "dtype": "int32"}, {"name": "StatefulPartitionedCall/sequential_2/gru_3/strided_slice/stack", "shape": [1], "dtype": "int32"}, {"name": "StatefulPartitionedCall/sequential_2/gru_3/strided_slice/stack_1", "shape": [1], "dtype": "int32"}, {"name": "StatefulPartitionedCall/sequential_2/gru_3/strided_slice/stack_2", "shape": [1], "dtype": "int32"}, {"name": "StatefulPartitionedCall/sequential_2/gru_3/zeros/packed/1", "shape": [], "dtype": "int32"}, {"name": "StatefulPartitionedCall/sequential_2/gru_3/zeros/Const", "shape": [], "dtype": "float32"}, {"name": "unknown_11", "shape": [128, 384], "dtype": "float32"}, {"name": "ConstantFolding/StatefulPartitionedCall/sequential_2/gru_3/PartitionedCall/unstack-folded-1", "shape": [384], "dtype": "float32"}, {"name": "StatefulPartitionedCall/sequential_2/gru_3/PartitionedCall/time", "shape": [], "dtype": "int32"}, {"name": "StatefulPartitionedCall/sequential_2/gru_2/PartitionedCall/TensorArrayV2_1/element_shape", "shape": [2], "dtype": "int32"}, {"name": "StatefulPartitionedCall/sequential_2/gru_2/PartitionedCall/TensorArrayUnstack/TensorListFromTensor/element_shape", "shape": [2], "dtype": "int32"}, {"name": "unknown_7", "shape": [128, 384], "dtype": "float32"}, {"name": "ConstantFolding/StatefulPartitionedCall/sequential_2/gru_2/PartitionedCall/unstack-folded-0", "shape": [384], "dtype": "float32"}, {"name": "StatefulPartitionedCall/sequential_2/gru_1/PartitionedCall/transpose_1/perm", "shape": [3], "dtype": "int32"}, {"name": "StatefulPartitionedCall/sequential_2/gru_2/strided_slice/stack", "shape": [1], "dtype": "int32"}, {"name": "StatefulPartitionedCall/sequential_2/gru_2/strided_slice/stack_1", "shape": [1], "dtype": "int32"}, {"name": "StatefulPartitionedCall/sequential_2/gru_2/strided_slice/stack_2", "shape": [1], "dtype": "int32"}, {"name": "StatefulPartitionedCall/sequential_2/gru_2/zeros/packed/1", "shape": [], "dtype": "int32"}, {"name": "StatefulPartitionedCall/sequential_2/gru_2/zeros/Const", "shape": [], "dtype": "float32"}, {"name": "unknown_8", "shape": [128, 384], "dtype": "float32"}, {"name": "ConstantFolding/StatefulPartitionedCall/sequential_2/gru_2/PartitionedCall/unstack-folded-1", "shape": [384], "dtype": "float32"}, {"name": "StatefulPartitionedCall/sequential_2/gru_2/PartitionedCall/time", "shape": [], "dtype": "int32"}, {"name": "StatefulPartitionedCall/sequential_2/gru_1/PartitionedCall/TensorArrayV2_1/element_shape", "shape": [2], "dtype": "int32"}, {"name": "StatefulPartitionedCall/sequential_2/gru_1/PartitionedCall/TensorArrayUnstack/TensorListFromTensor/element_shape", "shape": [2], "dtype": "int32"}, {"name": "unknown_4", "shape": [128, 384], "dtype": "float32"}, {"name": "ConstantFolding/StatefulPartitionedCall/sequential_2/gru_1/PartitionedCall/unstack-folded-0", "shape": [384], "dtype": "float32"}, {"name": "StatefulPartitionedCall/sequential_2/gru/PartitionedCall/transpose_1/perm", "shape": [3], "dtype": "int32"}, {"name": "StatefulPartitionedCall/sequential_2/gru_1/strided_slice/stack", "shape": [1], "dtype": "int32"}, {"name": "StatefulPartitionedCall/sequential_2/gru_1/strided_slice/stack_1", "shape": [1], "dtype": "int32"}, {"name": "StatefulPartitionedCall/sequential_2/gru_1/strided_slice/stack_2", "shape": [1], "dtype": "int32"}, {"name": "StatefulPartitionedCall/sequential_2/gru_1/zeros/packed/1", "shape": [], "dtype": "int32"}, {"name": "StatefulPartitionedCall/sequential_2/gru_1/zeros/Const", "shape": [], "dtype": "float32"}, {"name": "unknown_5", "shape": [128, 384], "dtype": "float32"}, {"name": "ConstantFolding/StatefulPartitionedCall/sequential_2/gru_1/PartitionedCall/unstack-folded-1", "shape": [384], "dtype": "float32"}, {"name": "StatefulPartitionedCall/sequential_2/gru_1/PartitionedCall/time", "shape": [], "dtype": "int32"}, {"name": "StatefulPartitionedCall/sequential_2/gru/PartitionedCall/TensorArrayV2_1/element_shape", "shape": [2], "dtype": "int32"}, {"name": "StatefulPartitionedCall/sequential_2/gru/PartitionedCall/TensorArrayUnstack/TensorListFromTensor/element_shape", "shape": [2], "dtype": "int32"}, {"name": "unknown_1", "shape": [32, 384], "dtype": "float32"}, {"name": "ConstantFolding/StatefulPartitionedCall/sequential_2/gru/PartitionedCall/unstack-folded-0", "shape": [384], "dtype": "float32"}, {"name": "StatefulPartitionedCall/sequential_2/gru/strided_slice/stack", "shape": [1], "dtype": "int32"}, {"name": "StatefulPartitionedCall/sequential_2/gru/strided_slice/stack_1", "shape": [1], "dtype": "int32"}, {"name": "StatefulPartitionedCall/sequential_2/gru/strided_slice/stack_2", "shape": [1], "dtype": "int32"}, {"name": "StatefulPartitionedCall/sequential_2/gru/zeros/packed/1", "shape": [], "dtype": "int32"}, {"name": "StatefulPartitionedCall/sequential_2/gru/zeros/Const", "shape": [], "dtype": "float32"}, {"name": "unknown_2", "shape": [128, 384], "dtype": "float32"}, {"name": "ConstantFolding/StatefulPartitionedCall/sequential_2/gru/PartitionedCall/unstack-folded-1", "shape": [384], "dtype": "float32"}, {"name": "StatefulPartitionedCall/sequential_2/gru/PartitionedCall/time", "shape": [], "dtype": "int32"}, {"name": "StatefulPartitionedCall/sequential_2/conv1d/conv1d/ExpandDims/dim", "shape": [], "dtype": "int32"}, {"name": "StatefulPartitionedCall/sequential_2/conv1d/conv1d/ExpandDims_1", "shape": [1, 1, 64, 32], "dtype": "float32"}, {"name": "unknown_0", "shape": [32], "dtype": "float32"}, {"name": "StatefulPartitionedCall/sequential_2/gru/PartitionedCall/transpose/perm", "shape": [3], "dtype": "int32"}, {"name": "StatefulPartitionedCall/sequential_2/gru/PartitionedCall/strided_slice/stack", "shape": [1], "dtype": "int32"}, {"name": "StatefulPartitionedCall/sequential_2/gru/PartitionedCall/strided_slice/stack_1", "shape": [1], "dtype": "int32"}, {"name": "StatefulPartitionedCall/sequential_2/gru/PartitionedCall/strided_slice/stack_2", "shape": [1], "dtype": "int32"}, {"name": "StatefulPartitionedCall/sequential_2/gru/PartitionedCall/while/loop_counter", "shape": [], "dtype": "int32"}, {"name": "StatefulPartitionedCall/sequential_2/gru/PartitionedCall/TensorArrayV2Stack/TensorListStack/element_shape", "shape": [2], "dtype": "int32"}, {"name": "StatefulPartitionedCall/sequential_2/gru_1/PartitionedCall/strided_slice/stack", "shape": [1], "dtype": "int32"}, {"name": "StatefulPartitionedCall/sequential_2/gru_1/PartitionedCall/strided_slice/stack_1", "shape": [1], "dtype": "int32"}, {"name": "StatefulPartitionedCall/sequential_2/gru_1/PartitionedCall/strided_slice/stack_2", "shape": [1], "dtype": "int32"}, {"name": "StatefulPartitionedCall/sequential_2/gru_1/PartitionedCall/while/loop_counter", "shape": [], "dtype": "int32"}, {"name": "StatefulPartitionedCall/sequential_2/gru_1/PartitionedCall/TensorArrayV2Stack/TensorListStack/element_shape", "shape": [2], "dtype": "int32"}, {"name": "StatefulPartitionedCall/sequential_2/gru_2/PartitionedCall/strided_slice/stack", "shape": [1], "dtype": "int32"}, {"name": "StatefulPartitionedCall/sequential_2/gru_2/PartitionedCall/strided_slice/stack_1", "shape": [1], "dtype": "int32"}, {"name": "StatefulPartitionedCall/sequential_2/gru_2/PartitionedCall/strided_slice/stack_2", "shape": [1], "dtype": "int32"}, {"name": "StatefulPartitionedCall/sequential_2/gru_2/PartitionedCall/while/loop_counter", "shape": [], "dtype": "int32"}, {"name": "StatefulPartitionedCall/sequential_2/gru_2/PartitionedCall/TensorArrayV2Stack/TensorListStack/element_shape", "shape": [2], "dtype": "int32"}, {"name": "StatefulPartitionedCall/sequential_2/gru_3/PartitionedCall/strided_slice/stack", "shape": [1], "dtype": "int32"}, {"name": "StatefulPartitionedCall/sequential_2/gru_3/PartitionedCall/strided_slice/stack_1", "shape": [1], "dtype": "int32"}, {"name": "StatefulPartitionedCall/sequential_2/gru_3/PartitionedCall/strided_slice/stack_2", "shape": [1], "dtype": "int32"}, {"name": "StatefulPartitionedCall/sequential_2/gru_3/PartitionedCall/while/loop_counter", "shape": [], "dtype": "int32"}, {"name": "StatefulPartitionedCall/sequential_2/gru_3/PartitionedCall/TensorArrayV2Stack/TensorListStack/element_shape", "shape": [2], "dtype": "int32"}, {"name": "StatefulPartitionedCall/sequential_2/gru_3/PartitionedCall/strided_slice_2/stack", "shape": [1], "dtype": "int32"}, {"name": "StatefulPartitionedCall/sequential_2/gru_3/PartitionedCall/strided_slice_2/stack_1", "shape": [1], "dtype": "int32"}, {"name": "StatefulPartitionedCall/sequential_2/gru_3/PartitionedCall/strided_slice_2/stack_2", "shape": [1], "dtype": "int32"}, {"name": "unknown_13", "shape": [128, 1], "dtype": "float32"}, {"name": "unknown_14", "shape": [1], "dtype": "float32"}, {"name": "StatefulPartitionedCall/sequential_2/gru/PartitionedCall/while/body/_56/while/sub/x", "shape": [], "dtype": "float32"}, {"name": "StatefulPartitionedCall/sequential_2/gru/PartitionedCall/while/body/_56/while/split/split_dim", "shape": [], "dtype": "int32"}, {"name": "StatefulPartitionedCall/sequential_2/gru/PartitionedCall/while/body/_56/while/TensorArrayV2Read/TensorListGetItem/element_shape", "shape": [2], "dtype": "int32"}, {"name": "StatefulPartitionedCall/sequential_2/gru/PartitionedCall/while/body/_56/while/split_1/split_dim", "shape": [], "dtype": "int32"}, {"name": "StatefulPartitionedCall/sequential_2/gru/PartitionedCall/while/body/_56/while/add_4/y", "shape": [], "dtype": "int32"}, {"name": "StatefulPartitionedCall/sequential_2/gru/PartitionedCall/while/body/_56/while/add_5/y", "shape": [], "dtype": "int32"}, {"name": "StatefulPartitionedCall/sequential_2/gru_1/PartitionedCall/while/body/_116/while/sub/x", "shape": [], "dtype": "float32"}, {"name": "StatefulPartitionedCall/sequential_2/gru_1/PartitionedCall/while/body/_116/while/split/split_dim", "shape": [], "dtype": "int32"}, {"name": "StatefulPartitionedCall/sequential_2/gru_1/PartitionedCall/while/body/_116/while/TensorArrayV2Read/TensorListGetItem/element_shape", "shape": [2], "dtype": "int32"}, {"name": "StatefulPartitionedCall/sequential_2/gru_1/PartitionedCall/while/body/_116/while/split_1/split_dim", "shape": [], "dtype": "int32"}, {"name": "StatefulPartitionedCall/sequential_2/gru_1/PartitionedCall/while/body/_116/while/add_4/y", "shape": [], "dtype": "int32"}, {"name": "StatefulPartitionedCall/sequential_2/gru_1/PartitionedCall/while/body/_116/while/add_5/y", "shape": [], "dtype": "int32"}, {"name": "StatefulPartitionedCall/sequential_2/gru_2/PartitionedCall/while/body/_176/while/sub/x", "shape": [], "dtype": "float32"}, {"name": "StatefulPartitionedCall/sequential_2/gru_2/PartitionedCall/while/body/_176/while/split/split_dim", "shape": [], "dtype": "int32"}, {"name": "StatefulPartitionedCall/sequential_2/gru_2/PartitionedCall/while/body/_176/while/TensorArrayV2Read/TensorListGetItem/element_shape", "shape": [2], "dtype": "int32"}, {"name": "StatefulPartitionedCall/sequential_2/gru_2/PartitionedCall/while/body/_176/while/split_1/split_dim", "shape": [], "dtype": "int32"}, {"name": "StatefulPartitionedCall/sequential_2/gru_2/PartitionedCall/while/body/_176/while/add_4/y", "shape": [], "dtype": "int32"}, {"name": "StatefulPartitionedCall/sequential_2/gru_2/PartitionedCall/while/body/_176/while/add_5/y", "shape": [], "dtype": "int32"}, {"name": "StatefulPartitionedCall/sequential_2/gru_3/PartitionedCall/while/body/_236/while/sub/x", "shape": [], "dtype": "float32"}, {"name": "StatefulPartitionedCall/sequential_2/gru_3/PartitionedCall/while/body/_236/while/split/split_dim", "shape": [], "dtype": "int32"}, {"name": "StatefulPartitionedCall/sequential_2/gru_3/PartitionedCall/while/body/_236/while/TensorArrayV2Read/TensorListGetItem/element_shape", "shape": [2], "dtype": "int32"}, {"name": "StatefulPartitionedCall/sequential_2/gru_3/PartitionedCall/while/body/_236/while/split_1/split_dim", "shape": [], "dtype": "int32"}, {"name": "StatefulPartitionedCall/sequential_2/gru_3/PartitionedCall/while/body/_236/while/add_4/y", "shape": [], "dtype": "int32"}, {"name": "StatefulPartitionedCall/sequential_2/gru_3/PartitionedCall/while/body/_236/while/add_5/y", "shape": [], "dtype": "int32"}]}]}