{"format": "graph-model", "generatedBy": "2.3.0", "convertedBy": "TensorFlow.js Converter v2.7.0", "userDefinedMetadata": {"signature": {"inputs": {"input_1:0": {"name": "input_1:0", "dtype": "DT_FLOAT", "tensorShape": {"dim": [{"size": "-1"}, {"size": "16000"}]}}}, "outputs": {"Identity:0": {"name": "Identity:0", "dtype": "DT_FLOAT", "tensorShape": {"dim": [{"size": "-1"}, {"size": "1"}]}}}}}, "modelTopology": {"node": [{"name": "StatefulPartitionedCall/sequential/gru_3/PartitionedCall/TensorArrayV2_1/element_shape", "op": "Const", "attr": {"value": {"tensor": {"dtype": "DT_INT32", "tensorShape": {"dim": [{"size": "2"}]}}}, "dtype": {"type": "DT_INT32"}}}, {"name": "StatefulPartitionedCall/sequential/gru_3/PartitionedCall/TensorArrayUnstack/TensorListFromTensor/element_shape", "op": "Const", "attr": {"value": {"tensor": {"dtype": "DT_INT32", "tensorShape": {"dim": [{"size": "2"}]}}}, "dtype": {"type": "DT_INT32"}}}, {"name": "unknown_11", "op": "Const", "attr": {"value": {"tensor": {"dtype": "DT_FLOAT", "tensorShape": {"dim": [{"size": "128"}, {"size": "384"}]}}}, "dtype": {"type": "DT_FLOAT"}}}, {"name": "ConstantFolding/StatefulPartitionedCall/sequential/gru_3/PartitionedCall/unstack-folded-0", "op": "Const", "attr": {"value": {"tensor": {"dtype": "DT_FLOAT", "tensorShape": {"dim": [{"size": "384"}]}}}, "dtype": {"type": "DT_FLOAT"}}}, {"name": "StatefulPartitionedCall/sequential/gru_2/PartitionedCall/transpose_1/perm", "op": "Const", "attr": {"value": {"tensor": {"dtype": "DT_INT32", "tensorShape": {"dim": [{"size": "3"}]}}}, "dtype": {"type": "DT_INT32"}}}, {"name": "StatefulPartitionedCall/sequential/gru_3/strided_slice/stack", "op": "Const", "attr": {"value": {"tensor": {"dtype": "DT_INT32", "tensorShape": {"dim": [{"size": "1"}]}}}, "dtype": {"type": "DT_INT32"}}}, {"name": "StatefulPartitionedCall/sequential/gru_3/strided_slice/stack_1", "op": "Const", "attr": {"value": {"tensor": {"dtype": "DT_INT32", "tensorShape": {"dim": [{"size": "1"}]}}}, "dtype": {"type": "DT_INT32"}}}, {"name": "StatefulPartitionedCall/sequential/gru_3/strided_slice/stack_2", "op": "Const", "attr": {"dtype": {"type": "DT_INT32"}, "value": {"tensor": {"dtype": "DT_INT32", "tensorShape": {"dim": [{"size": "1"}]}}}}}, {"name": "StatefulPartitionedCall/sequential/gru_3/zeros/packed/1", "op": "Const", "attr": {"value": {"tensor": {"dtype": "DT_INT32", "tensorShape": {}}}, "dtype": {"type": "DT_INT32"}}}, {"name": "StatefulPartitionedCall/sequential/gru_3/zeros/Const", "op": "Const", "attr": {"value": {"tensor": {"dtype": "DT_FLOAT", "tensorShape": {}}}, "dtype": {"type": "DT_FLOAT"}}}, {"name": "unknown_12", "op": "Const", "attr": {"value": {"tensor": {"dtype": "DT_FLOAT", "tensorShape": {"dim": [{"size": "128"}, {"size": "384"}]}}}, "dtype": {"type": "DT_FLOAT"}}}, {"name": "ConstantFolding/StatefulPartitionedCall/sequential/gru_3/PartitionedCall/unstack-folded-1", "op": "Const", "attr": {"value": {"tensor": {"dtype": "DT_FLOAT", "tensorShape": {"dim": [{"size": "384"}]}}}, "dtype": {"type": "DT_FLOAT"}}}, {"name": "StatefulPartitionedCall/sequential/gru_3/PartitionedCall/time", "op": "Const", "attr": {"value": {"tensor": {"dtype": "DT_INT32", "tensorShape": {}}}, "dtype": {"type": "DT_INT32"}}}, {"name": "StatefulPartitionedCall/sequential/gru_2/PartitionedCall/TensorArrayV2_1/element_shape", "op": "Const", "attr": {"value": {"tensor": {"dtype": "DT_INT32", "tensorShape": {"dim": [{"size": "2"}]}}}, "dtype": {"type": "DT_INT32"}}}, {"name": "StatefulPartitionedCall/sequential/gru_2/PartitionedCall/TensorArrayUnstack/TensorListFromTensor/element_shape", "op": "Const", "attr": {"value": {"tensor": {"dtype": "DT_INT32", "tensorShape": {"dim": [{"size": "2"}]}}}, "dtype": {"type": "DT_INT32"}}}, {"name": "unknown_8", "op": "Const", "attr": {"value": {"tensor": {"dtype": "DT_FLOAT", "tensorShape": {"dim": [{"size": "128"}, {"size": "384"}]}}}, "dtype": {"type": "DT_FLOAT"}}}, {"name": "ConstantFolding/StatefulPartitionedCall/sequential/gru_2/PartitionedCall/unstack-folded-0", "op": "Const", "attr": {"value": {"tensor": {"dtype": "DT_FLOAT", "tensorShape": {"dim": [{"size": "384"}]}}}, "dtype": {"type": "DT_FLOAT"}}}, {"name": "StatefulPartitionedCall/sequential/gru_1/PartitionedCall/transpose_1/perm", "op": "Const", "attr": {"value": {"tensor": {"dtype": "DT_INT32", "tensorShape": {"dim": [{"size": "3"}]}}}, "dtype": {"type": "DT_INT32"}}}, {"name": "StatefulPartitionedCall/sequential/gru_2/strided_slice/stack", "op": "Const", "attr": {"value": {"tensor": {"dtype": "DT_INT32", "tensorShape": {"dim": [{"size": "1"}]}}}, "dtype": {"type": "DT_INT32"}}}, {"name": "StatefulPartitionedCall/sequential/gru_2/strided_slice/stack_1", "op": "Const", "attr": {"value": {"tensor": {"dtype": "DT_INT32", "tensorShape": {"dim": [{"size": "1"}]}}}, "dtype": {"type": "DT_INT32"}}}, {"name": "StatefulPartitionedCall/sequential/gru_2/strided_slice/stack_2", "op": "Const", "attr": {"dtype": {"type": "DT_INT32"}, "value": {"tensor": {"dtype": "DT_INT32", "tensorShape": {"dim": [{"size": "1"}]}}}}}, {"name": "StatefulPartitionedCall/sequential/gru_2/zeros/packed/1", "op": "Const", "attr": {"value": {"tensor": {"dtype": "DT_INT32", "tensorShape": {}}}, "dtype": {"type": "DT_INT32"}}}, {"name": "StatefulPartitionedCall/sequential/gru_2/zeros/Const", "op": "Const", "attr": {"value": {"tensor": {"dtype": "DT_FLOAT", "tensorShape": {}}}, "dtype": {"type": "DT_FLOAT"}}}, {"name": "unknown_9", "op": "Const", "attr": {"value": {"tensor": {"dtype": "DT_FLOAT", "tensorShape": {"dim": [{"size": "128"}, {"size": "384"}]}}}, "dtype": {"type": "DT_FLOAT"}}}, {"name": "ConstantFolding/StatefulPartitionedCall/sequential/gru_2/PartitionedCall/unstack-folded-1", "op": "Const", "attr": {"value": {"tensor": {"dtype": "DT_FLOAT", "tensorShape": {"dim": [{"size": "384"}]}}}, "dtype": {"type": "DT_FLOAT"}}}, {"name": "StatefulPartitionedCall/sequential/gru_2/PartitionedCall/time", "op": "Const", "attr": {"value": {"tensor": {"dtype": "DT_INT32", "tensorShape": {}}}, "dtype": {"type": "DT_INT32"}}}, {"name": "StatefulPartitionedCall/sequential/gru_1/PartitionedCall/TensorArrayV2_1/element_shape", "op": "Const", "attr": {"value": {"tensor": {"dtype": "DT_INT32", "tensorShape": {"dim": [{"size": "2"}]}}}, "dtype": {"type": "DT_INT32"}}}, {"name": "StatefulPartitionedCall/sequential/gru_1/PartitionedCall/TensorArrayUnstack/TensorListFromTensor/element_shape", "op": "Const", "attr": {"value": {"tensor": {"dtype": "DT_INT32", "tensorShape": {"dim": [{"size": "2"}]}}}, "dtype": {"type": "DT_INT32"}}}, {"name": "unknown_5", "op": "Const", "attr": {"value": {"tensor": {"dtype": "DT_FLOAT", "tensorShape": {"dim": [{"size": "128"}, {"size": "384"}]}}}, "dtype": {"type": "DT_FLOAT"}}}, {"name": "ConstantFolding/StatefulPartitionedCall/sequential/gru_1/PartitionedCall/unstack-folded-0", "op": "Const", "attr": {"value": {"tensor": {"dtype": "DT_FLOAT", "tensorShape": {"dim": [{"size": "384"}]}}}, "dtype": {"type": "DT_FLOAT"}}}, {"name": "StatefulPartitionedCall/sequential/gru/PartitionedCall/transpose_1/perm", "op": "Const", "attr": {"value": {"tensor": {"dtype": "DT_INT32", "tensorShape": {"dim": [{"size": "3"}]}}}, "dtype": {"type": "DT_INT32"}}}, {"name": "StatefulPartitionedCall/sequential/gru_1/strided_slice/stack", "op": "Const", "attr": {"value": {"tensor": {"dtype": "DT_INT32", "tensorShape": {"dim": [{"size": "1"}]}}}, "dtype": {"type": "DT_INT32"}}}, {"name": "StatefulPartitionedCall/sequential/gru_1/strided_slice/stack_1", "op": "Const", "attr": {"value": {"tensor": {"dtype": "DT_INT32", "tensorShape": {"dim": [{"size": "1"}]}}}, "dtype": {"type": "DT_INT32"}}}, {"name": "StatefulPartitionedCall/sequential/gru_1/strided_slice/stack_2", "op": "Const", "attr": {"value": {"tensor": {"dtype": "DT_INT32", "tensorShape": {"dim": [{"size": "1"}]}}}, "dtype": {"type": "DT_INT32"}}}, {"name": "StatefulPartitionedCall/sequential/gru_1/zeros/packed/1", "op": "Const", "attr": {"value": {"tensor": {"dtype": "DT_INT32", "tensorShape": {}}}, "dtype": {"type": "DT_INT32"}}}, {"name": "StatefulPartitionedCall/sequential/gru_1/zeros/Const", "op": "Const", "attr": {"value": {"tensor": {"dtype": "DT_FLOAT", "tensorShape": {}}}, "dtype": {"type": "DT_FLOAT"}}}, {"name": "unknown_6", "op": "Const", "attr": {"value": {"tensor": {"dtype": "DT_FLOAT", "tensorShape": {"dim": [{"size": "128"}, {"size": "384"}]}}}, "dtype": {"type": "DT_FLOAT"}}}, {"name": "ConstantFolding/StatefulPartitionedCall/sequential/gru_1/PartitionedCall/unstack-folded-1", "op": "Const", "attr": {"value": {"tensor": {"dtype": "DT_FLOAT", "tensorShape": {"dim": [{"size": "384"}]}}}, "dtype": {"type": "DT_FLOAT"}}}, {"name": "StatefulPartitionedCall/sequential/gru_1/PartitionedCall/time", "op": "Const", "attr": {"value": {"tensor": {"dtype": "DT_INT32", "tensorShape": {}}}, "dtype": {"type": "DT_INT32"}}}, {"name": "StatefulPartitionedCall/sequential/gru/PartitionedCall/TensorArrayV2_1/element_shape", "op": "Const", "attr": {"value": {"tensor": {"dtype": "DT_INT32", "tensorShape": {"dim": [{"size": "2"}]}}}, "dtype": {"type": "DT_INT32"}}}, {"name": "StatefulPartitionedCall/sequential/gru/PartitionedCall/TensorArrayUnstack/TensorListFromTensor/element_shape", "op": "Const", "attr": {"dtype": {"type": "DT_INT32"}, "value": {"tensor": {"dtype": "DT_INT32", "tensorShape": {"dim": [{"size": "2"}]}}}}}, {"name": "unknown_2", "op": "Const", "attr": {"value": {"tensor": {"dtype": "DT_FLOAT", "tensorShape": {"dim": [{"size": "32"}, {"size": "384"}]}}}, "dtype": {"type": "DT_FLOAT"}}}, {"name": "ConstantFolding/StatefulPartitionedCall/sequential/gru/PartitionedCall/unstack-folded-0", "op": "Const", "attr": {"value": {"tensor": {"dtype": "DT_FLOAT", "tensorShape": {"dim": [{"size": "384"}]}}}, "dtype": {"type": "DT_FLOAT"}}}, {"name": "StatefulPartitionedCall/sequential/gru/strided_slice/stack", "op": "Const", "attr": {"value": {"tensor": {"dtype": "DT_INT32", "tensorShape": {"dim": [{"size": "1"}]}}}, "dtype": {"type": "DT_INT32"}}}, {"name": "StatefulPartitionedCall/sequential/gru/strided_slice/stack_1", "op": "Const", "attr": {"value": {"tensor": {"dtype": "DT_INT32", "tensorShape": {"dim": [{"size": "1"}]}}}, "dtype": {"type": "DT_INT32"}}}, {"name": "StatefulPartitionedCall/sequential/gru/strided_slice/stack_2", "op": "Const", "attr": {"value": {"tensor": {"dtype": "DT_INT32", "tensorShape": {"dim": [{"size": "1"}]}}}, "dtype": {"type": "DT_INT32"}}}, {"name": "StatefulPartitionedCall/sequential/gru/zeros/packed/1", "op": "Const", "attr": {"value": {"tensor": {"dtype": "DT_INT32", "tensorShape": {}}}, "dtype": {"type": "DT_INT32"}}}, {"name": "StatefulPartitionedCall/sequential/gru/zeros/Const", "op": "Const", "attr": {"value": {"tensor": {"dtype": "DT_FLOAT", "tensorShape": {}}}, "dtype": {"type": "DT_FLOAT"}}}, {"name": "unknown_3", "op": "Const", "attr": {"value": {"tensor": {"dtype": "DT_FLOAT", "tensorShape": {"dim": [{"size": "128"}, {"size": "384"}]}}}, "dtype": {"type": "DT_FLOAT"}}}, {"name": "ConstantFolding/StatefulPartitionedCall/sequential/gru/PartitionedCall/unstack-folded-1", "op": "Const", "attr": {"dtype": {"type": "DT_FLOAT"}, "value": {"tensor": {"dtype": "DT_FLOAT", "tensorShape": {"dim": [{"size": "384"}]}}}}}, {"name": "StatefulPartitionedCall/sequential/gru/PartitionedCall/time", "op": "Const", "attr": {"dtype": {"type": "DT_INT32"}, "value": {"tensor": {"dtype": "DT_INT32", "tensorShape": {}}}}}, {"name": "StatefulPartitionedCall/sequential/DataPreprocessing/mel_spectrogram/Tensordot/Const", "op": "Const", "attr": {"dtype": {"type": "DT_INT32"}, "value": {"tensor": {"dtype": "DT_INT32", "tensorShape": {"dim": [{"size": "1"}]}}}}}, {"name": "StatefulPartitionedCall/sequential/DataPreprocessing/mel_spectrogram/Tensordot/axes", "op": "Const", "attr": {"value": {"tensor": {"dtype": "DT_INT32", "tensorShape": {"dim": [{"size": "1"}]}}}, "dtype": {"type": "DT_INT32"}}}, {"name": "StatefulPartitionedCall/sequential/DataPreprocessing/mel_spectrogram/Tensordot/GatherV2_1/axis", "op": "Const", "attr": {"value": {"tensor": {"dtype": "DT_INT32", "tensorShape": {}}}, "dtype": {"type": "DT_INT32"}}}, {"name": "StatefulPartitionedCall/sequential/DataPreprocessing/mel_spectrogram/Tensordot/Const_1", "op": "Const", "attr": {"value": {"tensor": {"dtype": "DT_INT32", "tensorShape": {"dim": [{"size": "1"}]}}}, "dtype": {"type": "DT_INT32"}}}, {"name": "unknown", "op": "Const", "attr": {"value": {"tensor": {"dtype": "DT_FLOAT", "tensorShape": {"dim": [{"size": "257"}, {"size": "64"}]}}}, "dtype": {"type": "DT_FLOAT"}}}, {"name": "StatefulPartitionedCall/sequential/DataPreprocessing/spectrogram/stft/frame/zeros_like", "op": "Const", "attr": {"dtype": {"type": "DT_INT32"}, "value": {"tensor": {"dtype": "DT_INT32", "tensorShape": {"dim": [{"size": "2"}]}}}}}, {"name": "StatefulPartitionedCall/sequential/DataPreprocessing/spectrogram/stft/frame/mul/y", "op": "Const", "attr": {"value": {"tensor": {"dtype": "DT_INT32", "tensorShape": {}}}, "dtype": {"type": "DT_INT32"}}}, {"name": "StatefulPartitionedCall/sequential/DataPreprocessing/spectrogram/stft/frame/concat/axis", "op": "Const", "attr": {"value": {"tensor": {"dtype": "DT_INT32", "tensorShape": {}}}, "dtype": {"type": "DT_INT32"}}}, {"name": "StatefulPartitionedCall/sequential/DataPreprocessing/spectrogram/stft/frame/ones_like", "op": "Const", "attr": {"dtype": {"type": "DT_INT32"}, "value": {"tensor": {"dtype": "DT_INT32", "tensorShape": {"dim": [{"size": "2"}]}}}}}, {"name": "StatefulPartitionedCall/sequential/DataPreprocessing/spectrogram/stft/frame/floordiv_3/y", "op": "Const", "attr": {"value": {"tensor": {"dtype": "DT_INT32", "tensorShape": {}}}, "dtype": {"type": "DT_INT32"}}}, {"name": "StatefulPartitionedCall/sequential/DataPreprocessing/spectrogram/stft/frame/concat_1/values_1/1", "op": "Const", "attr": {"value": {"tensor": {"dtype": "DT_INT32", "tensorShape": {}}}, "dtype": {"type": "DT_INT32"}}}, {"name": "StatefulPartitionedCall/sequential/DataPreprocessing/spectrogram/stft/frame/concat_1/axis", "op": "Const", "attr": {"dtype": {"type": "DT_INT32"}, "value": {"tensor": {"dtype": "DT_INT32", "tensorShape": {}}}}}, {"name": "StatefulPartitionedCall/sequential/DataPreprocessing/spectrogram/stft/frame/range_1/start", "op": "Const", "attr": {"value": {"tensor": {"dtype": "DT_INT32", "tensorShape": {}}}, "dtype": {"type": "DT_INT32"}}}, {"name": "StatefulPartitionedCall/sequential/DataPreprocessing/spectrogram/stft/frame/range_1/delta", "op": "Const", "attr": {"value": {"tensor": {"dtype": "DT_INT32", "tensorShape": {}}}, "dtype": {"type": "DT_INT32"}}}, {"name": "StatefulPartitionedCall/sequential/DataPreprocessing/spectrogram/stft/frame/Reshape_2/shape/1", "op": "Const", "attr": {"value": {"tensor": {"dtype": "DT_INT32", "tensorShape": {}}}, "dtype": {"type": "DT_INT32"}}}, {"name": "StatefulPartitionedCall/sequential/DataPreprocessing/spectrogram/stft/frame/Reshape_3", "op": "Const", "attr": {"value": {"tensor": {"dtype": "DT_INT32", "tensorShape": {"dim": [{"size": "1"}, {"size": "2"}]}}}, "dtype": {"type": "DT_INT32"}}}, {"name": "StatefulPartitionedCall/sequential/DataPreprocessing/spectrogram/stft/frame/strided_slice", "op": "Const", "attr": {"value": {"tensor": {"dtype": "DT_INT32", "tensorShape": {}}}, "dtype": {"type": "DT_INT32"}}}, {"name": "StatefulPartitionedCall/sequential/DataPreprocessing/spectrogram/stft/frame/Maximum/x", "op": "Const", "attr": {"value": {"tensor": {"dtype": "DT_INT32", "tensorShape": {}}}, "dtype": {"type": "DT_INT32"}}}, {"name": "StatefulPartitionedCall/sequential/DataPreprocessing/spectrogram/stft/frame/add/x", "op": "Const", "attr": {"value": {"tensor": {"dtype": "DT_INT32", "tensorShape": {}}}, "dtype": {"type": "DT_INT32"}}}, {"name": "StatefulPartitionedCall/sequential/DataPreprocessing/spectrogram/stft/frame/Reshape/shape", "op": "Const", "attr": {"value": {"tensor": {"dtype": "DT_INT32", "tensorShape": {"dim": [{}]}}}, "dtype": {"type": "DT_INT32"}}}, {"name": "StatefulPartitionedCall/sequential/DataPreprocessing/spectrogram/stft/frame_step", "op": "Const", "attr": {"value": {"tensor": {"dtype": "DT_INT32", "tensorShape": {}}}, "dtype": {"type": "DT_INT32"}}}, {"name": "StatefulPartitionedCall/sequential/DataPreprocessing/spectrogram/stft/frame_length", "op": "Const", "attr": {"value": {"tensor": {"dtype": "DT_INT32", "tensorShape": {}}}, "dtype": {"type": "DT_INT32"}}}, {"name": "StatefulPartitionedCall/sequential/DataPreprocessing/spectrogram/stft/frame/packed", "op": "Const", "attr": {"dtype": {"type": "DT_INT32"}, "value": {"tensor": {"dtype": "DT_INT32", "tensorShape": {"dim": [{"size": "3"}]}}}}}, {"name": "StatefulPartitionedCall/sequential/DataPreprocessing/spectrogram/stft/frame/split/split_dim", "op": "Const", "attr": {"value": {"tensor": {"dtype": "DT_INT32", "tensorShape": {}}}, "dtype": {"type": "DT_INT32"}}}, {"name": "StatefulPartitionedCall/sequential/DataPreprocessing/spectrogram/stft/frame/concat_2/axis", "op": "Const", "attr": {"value": {"tensor": {"dtype": "DT_INT32", "tensorShape": {}}}, "dtype": {"type": "DT_INT32"}}}, {"name": "StatefulPartitionedCall/sequential/DataPreprocessing/spectrogram/stft/hann_window/sub_2", "op": "Const", "attr": {"value": {"tensor": {"dtype": "DT_FLOAT", "tensorShape": {"dim": [{"size": "512"}]}}}, "dtype": {"type": "DT_FLOAT"}}}, {"name": "StatefulPartitionedCall/sequential/DataPreprocessing/spectrogram/stft/rfft/fft_length", "op": "Const", "attr": {"value": {"tensor": {"dtype": "DT_INT32", "tensorShape": {"dim": [{"size": "1"}]}}}, "dtype": {"type": "DT_INT32"}}}, {"name": "StatefulPartitionedCall/sequential/DataPreprocessing/mel_spectrogram/Tensordot/free", "op": "Const", "attr": {"dtype": {"type": "DT_INT32"}, "value": {"tensor": {"dtype": "DT_INT32", "tensorShape": {"dim": [{"size": "2"}]}}}}}, {"name": "StatefulPartitionedCall/sequential/DataPreprocessing/mel_spectrogram/Tensordot/GatherV2/axis", "op": "Const", "attr": {"value": {"tensor": {"dtype": "DT_INT32", "tensorShape": {}}}, "dtype": {"type": "DT_INT32"}}}, {"name": "StatefulPartitionedCall/sequential/DataPreprocessing/mel_spectrogram/Tensordot/Const_2", "op": "Const", "attr": {"value": {"tensor": {"dtype": "DT_INT32", "tensorShape": {"dim": [{"size": "1"}]}}}, "dtype": {"type": "DT_INT32"}}}, {"name": "StatefulPartitionedCall/sequential/DataPreprocessing/mel_spectrogram/Tensordot/concat_1/axis", "op": "Const", "attr": {"value": {"tensor": {"dtype": "DT_INT32", "tensorShape": {}}}, "dtype": {"type": "DT_INT32"}}}, {"name": "StatefulPartitionedCall/sequential/DataPreprocessing/log_mel_spectrogram/add/y", "op": "Const", "attr": {"value": {"tensor": {"dtype": "DT_FLOAT", "tensorShape": {}}}, "dtype": {"type": "DT_FLOAT"}}}, {"name": "StatefulPartitionedCall/sequential/conv1d/conv1d/ExpandDims/dim", "op": "Const", "attr": {"value": {"tensor": {"dtype": "DT_INT32", "tensorShape": {}}}, "dtype": {"type": "DT_INT32"}}}, {"name": "StatefulPartitionedCall/sequential/conv1d/conv1d/ExpandDims_1", "op": "Const", "attr": {"value": {"tensor": {"dtype": "DT_FLOAT", "tensorShape": {"dim": [{"size": "1"}, {"size": "1"}, {"size": "64"}, {"size": "32"}]}}}, "dtype": {"type": "DT_FLOAT"}}}, {"name": "unknown_1", "op": "Const", "attr": {"value": {"tensor": {"dtype": "DT_FLOAT", "tensorShape": {"dim": [{"size": "32"}]}}}, "dtype": {"type": "DT_FLOAT"}}}, {"name": "StatefulPartitionedCall/sequential/gru/PartitionedCall/transpose/perm", "op": "Const", "attr": {"value": {"tensor": {"dtype": "DT_INT32", "tensorShape": {"dim": [{"size": "3"}]}}}, "dtype": {"type": "DT_INT32"}}}, {"name": "StatefulPartitionedCall/sequential/gru/PartitionedCall/strided_slice/stack", "op": "Const", "attr": {"value": {"tensor": {"dtype": "DT_INT32", "tensorShape": {"dim": [{"size": "1"}]}}}, "dtype": {"type": "DT_INT32"}}}, {"name": "StatefulPartitionedCall/sequential/gru/PartitionedCall/strided_slice/stack_1", "op": "Const", "attr": {"value": {"tensor": {"dtype": "DT_INT32", "tensorShape": {"dim": [{"size": "1"}]}}}, "dtype": {"type": "DT_INT32"}}}, {"name": "StatefulPartitionedCall/sequential/gru/PartitionedCall/strided_slice/stack_2", "op": "Const", "attr": {"dtype": {"type": "DT_INT32"}, "value": {"tensor": {"dtype": "DT_INT32", "tensorShape": {"dim": [{"size": "1"}]}}}}}, {"name": "StatefulPartitionedCall/sequential/gru/PartitionedCall/while/loop_counter", "op": "Const", "attr": {"value": {"tensor": {"dtype": "DT_INT32", "tensorShape": {}}}, "dtype": {"type": "DT_INT32"}}}, {"name": "StatefulPartitionedCall/sequential/gru/PartitionedCall/TensorArrayV2Stack/TensorListStack/element_shape", "op": "Const", "attr": {"value": {"tensor": {"dtype": "DT_INT32", "tensorShape": {"dim": [{"size": "2"}]}}}, "dtype": {"type": "DT_INT32"}}}, {"name": "StatefulPartitionedCall/sequential/gru_1/PartitionedCall/strided_slice/stack", "op": "Const", "attr": {"value": {"tensor": {"dtype": "DT_INT32", "tensorShape": {"dim": [{"size": "1"}]}}}, "dtype": {"type": "DT_INT32"}}}, {"name": "StatefulPartitionedCall/sequential/gru_1/PartitionedCall/strided_slice/stack_1", "op": "Const", "attr": {"value": {"tensor": {"dtype": "DT_INT32", "tensorShape": {"dim": [{"size": "1"}]}}}, "dtype": {"type": "DT_INT32"}}}, {"name": "StatefulPartitionedCall/sequential/gru_1/PartitionedCall/strided_slice/stack_2", "op": "Const", "attr": {"value": {"tensor": {"dtype": "DT_INT32", "tensorShape": {"dim": [{"size": "1"}]}}}, "dtype": {"type": "DT_INT32"}}}, {"name": "StatefulPartitionedCall/sequential/gru_1/PartitionedCall/while/loop_counter", "op": "Const", "attr": {"value": {"tensor": {"dtype": "DT_INT32", "tensorShape": {}}}, "dtype": {"type": "DT_INT32"}}}, {"name": "StatefulPartitionedCall/sequential/gru_1/PartitionedCall/TensorArrayV2Stack/TensorListStack/element_shape", "op": "Const", "attr": {"value": {"tensor": {"dtype": "DT_INT32", "tensorShape": {"dim": [{"size": "2"}]}}}, "dtype": {"type": "DT_INT32"}}}, {"name": "StatefulPartitionedCall/sequential/gru_2/PartitionedCall/strided_slice/stack", "op": "Const", "attr": {"value": {"tensor": {"dtype": "DT_INT32", "tensorShape": {"dim": [{"size": "1"}]}}}, "dtype": {"type": "DT_INT32"}}}, {"name": "StatefulPartitionedCall/sequential/gru_2/PartitionedCall/strided_slice/stack_1", "op": "Const", "attr": {"value": {"tensor": {"dtype": "DT_INT32", "tensorShape": {"dim": [{"size": "1"}]}}}, "dtype": {"type": "DT_INT32"}}}, {"name": "StatefulPartitionedCall/sequential/gru_2/PartitionedCall/strided_slice/stack_2", "op": "Const", "attr": {"value": {"tensor": {"dtype": "DT_INT32", "tensorShape": {"dim": [{"size": "1"}]}}}, "dtype": {"type": "DT_INT32"}}}, {"name": "StatefulPartitionedCall/sequential/gru_2/PartitionedCall/while/loop_counter", "op": "Const", "attr": {"value": {"tensor": {"dtype": "DT_INT32", "tensorShape": {}}}, "dtype": {"type": "DT_INT32"}}}, {"name": "StatefulPartitionedCall/sequential/gru_2/PartitionedCall/TensorArrayV2Stack/TensorListStack/element_shape", "op": "Const", "attr": {"value": {"tensor": {"dtype": "DT_INT32", "tensorShape": {"dim": [{"size": "2"}]}}}, "dtype": {"type": "DT_INT32"}}}, {"name": "StatefulPartitionedCall/sequential/gru_3/PartitionedCall/strided_slice/stack", "op": "Const", "attr": {"value": {"tensor": {"dtype": "DT_INT32", "tensorShape": {"dim": [{"size": "1"}]}}}, "dtype": {"type": "DT_INT32"}}}, {"name": "StatefulPartitionedCall/sequential/gru_3/PartitionedCall/strided_slice/stack_1", "op": "Const", "attr": {"value": {"tensor": {"dtype": "DT_INT32", "tensorShape": {"dim": [{"size": "1"}]}}}, "dtype": {"type": "DT_INT32"}}}, {"name": "StatefulPartitionedCall/sequential/gru_3/PartitionedCall/strided_slice/stack_2", "op": "Const", "attr": {"value": {"tensor": {"dtype": "DT_INT32", "tensorShape": {"dim": [{"size": "1"}]}}}, "dtype": {"type": "DT_INT32"}}}, {"name": "StatefulPartitionedCall/sequential/gru_3/PartitionedCall/while/loop_counter", "op": "Const", "attr": {"value": {"tensor": {"dtype": "DT_INT32", "tensorShape": {}}}, "dtype": {"type": "DT_INT32"}}}, {"name": "StatefulPartitionedCall/sequential/gru_3/PartitionedCall/TensorArrayV2Stack/TensorListStack/element_shape", "op": "Const", "attr": {"value": {"tensor": {"dtype": "DT_INT32", "tensorShape": {"dim": [{"size": "2"}]}}}, "dtype": {"type": "DT_INT32"}}}, {"name": "StatefulPartitionedCall/sequential/gru_3/PartitionedCall/strided_slice_2/stack", "op": "Const", "attr": {"value": {"tensor": {"dtype": "DT_INT32", "tensorShape": {"dim": [{"size": "1"}]}}}, "dtype": {"type": "DT_INT32"}}}, {"name": "StatefulPartitionedCall/sequential/gru_3/PartitionedCall/strided_slice_2/stack_1", "op": "Const", "attr": {"value": {"tensor": {"dtype": "DT_INT32", "tensorShape": {"dim": [{"size": "1"}]}}}, "dtype": {"type": "DT_INT32"}}}, {"name": "StatefulPartitionedCall/sequential/gru_3/PartitionedCall/strided_slice_2/stack_2", "op": "Const", "attr": {"value": {"tensor": {"dtype": "DT_INT32", "tensorShape": {"dim": [{"size": "1"}]}}}, "dtype": {"type": "DT_INT32"}}}, {"name": "unknown_14", "op": "Const", "attr": {"value": {"tensor": {"dtype": "DT_FLOAT", "tensorShape": {"dim": [{"size": "128"}, {"size": "1"}]}}}, "dtype": {"type": "DT_FLOAT"}}}, {"name": "unknown_15", "op": "Const", "attr": {"value": {"tensor": {"dtype": "DT_FLOAT", "tensorShape": {"dim": [{"size": "1"}]}}}, "dtype": {"type": "DT_FLOAT"}}}, {"name": "input_1", "op": "Placeholder", "attr": {"shape": {"shape": {"dim": [{"size": "-1"}, {"size": "16000"}]}}, "dtype": {"type": "DT_FLOAT"}}}, {"name": "StatefulPartitionedCall/sequential/gru_3/PartitionedCall/while/enter/_245", "op": "Enter", "input": ["unknown_11"], "attr": {"is_constant": {"b": false}, "parallel_iterations": {"i": "32"}, "frame_name": {"s": "U3RhdGVmdWxQYXJ0aXRpb25lZENhbGwvc2VxdWVudGlhbC9ncnVfMy9QYXJ0aXRpb25lZENhbGwvd2hpbGU="}, "T": {"type": "DT_FLOAT"}}}, {"name": "StatefulPartitionedCall/sequential/gru_3/PartitionedCall/while/enter/_246", "op": "Enter", "input": ["ConstantFolding/StatefulPartitionedCall/sequential/gru_3/PartitionedCall/unstack-folded-0"], "attr": {"is_constant": {"b": false}, "parallel_iterations": {"i": "32"}, "frame_name": {"s": "U3RhdGVmdWxQYXJ0aXRpb25lZENhbGwvc2VxdWVudGlhbC9ncnVfMy9QYXJ0aXRpb25lZENhbGwvd2hpbGU="}, "T": {"type": "DT_FLOAT"}}}, {"name": "StatefulPartitionedCall/sequential/gru_3/PartitionedCall/while/enter/_247", "op": "Enter", "input": ["unknown_12"], "attr": {"T": {"type": "DT_FLOAT"}, "is_constant": {"b": false}, "parallel_iterations": {"i": "32"}, "frame_name": {"s": "U3RhdGVmdWxQYXJ0aXRpb25lZENhbGwvc2VxdWVudGlhbC9ncnVfMy9QYXJ0aXRpb25lZENhbGwvd2hpbGU="}}}, {"name": "StatefulPartitionedCall/sequential/gru_3/PartitionedCall/while/enter/_248", "op": "Enter", "input": ["ConstantFolding/StatefulPartitionedCall/sequential/gru_3/PartitionedCall/unstack-folded-1"], "attr": {"T": {"type": "DT_FLOAT"}, "is_constant": {"b": false}, "parallel_iterations": {"i": "32"}, "frame_name": {"s": "U3RhdGVmdWxQYXJ0aXRpb25lZENhbGwvc2VxdWVudGlhbC9ncnVfMy9QYXJ0aXRpb25lZENhbGwvd2hpbGU="}}}, {"name": "StatefulPartitionedCall/sequential/gru_3/PartitionedCall/while/enter/_240", "op": "Enter", "input": ["StatefulPartitionedCall/sequential/gru_3/PartitionedCall/time"], "attr": {"frame_name": {"s": "U3RhdGVmdWxQYXJ0aXRpb25lZENhbGwvc2VxdWVudGlhbC9ncnVfMy9QYXJ0aXRpb25lZENhbGwvd2hpbGU="}, "T": {"type": "DT_INT32"}, "is_constant": {"b": false}, "parallel_iterations": {"i": "32"}}}, {"name": "StatefulPartitionedCall/sequential/gru_2/PartitionedCall/while/enter/_185", "op": "Enter", "input": ["unknown_8"], "attr": {"T": {"type": "DT_FLOAT"}, "is_constant": {"b": false}, "parallel_iterations": {"i": "32"}, "frame_name": {"s": "U3RhdGVmdWxQYXJ0aXRpb25lZENhbGwvc2VxdWVudGlhbC9ncnVfMi9QYXJ0aXRpb25lZENhbGwvd2hpbGU="}}}, {"name": "StatefulPartitionedCall/sequential/gru_2/PartitionedCall/while/enter/_186", "op": "Enter", "input": ["ConstantFolding/StatefulPartitionedCall/sequential/gru_2/PartitionedCall/unstack-folded-0"], "attr": {"frame_name": {"s": "U3RhdGVmdWxQYXJ0aXRpb25lZENhbGwvc2VxdWVudGlhbC9ncnVfMi9QYXJ0aXRpb25lZENhbGwvd2hpbGU="}, "T": {"type": "DT_FLOAT"}, "is_constant": {"b": false}, "parallel_iterations": {"i": "32"}}}, {"name": "StatefulPartitionedCall/sequential/gru_2/PartitionedCall/while/enter/_187", "op": "Enter", "input": ["unknown_9"], "attr": {"is_constant": {"b": false}, "parallel_iterations": {"i": "32"}, "frame_name": {"s": "U3RhdGVmdWxQYXJ0aXRpb25lZENhbGwvc2VxdWVudGlhbC9ncnVfMi9QYXJ0aXRpb25lZENhbGwvd2hpbGU="}, "T": {"type": "DT_FLOAT"}}}, {"name": "StatefulPartitionedCall/sequential/gru_2/PartitionedCall/while/enter/_188", "op": "Enter", "input": ["ConstantFolding/StatefulPartitionedCall/sequential/gru_2/PartitionedCall/unstack-folded-1"], "attr": {"T": {"type": "DT_FLOAT"}, "is_constant": {"b": false}, "parallel_iterations": {"i": "32"}, "frame_name": {"s": "U3RhdGVmdWxQYXJ0aXRpb25lZENhbGwvc2VxdWVudGlhbC9ncnVfMi9QYXJ0aXRpb25lZENhbGwvd2hpbGU="}}}, {"name": "StatefulPartitionedCall/sequential/gru_2/PartitionedCall/while/enter/_180", "op": "Enter", "input": ["StatefulPartitionedCall/sequential/gru_2/PartitionedCall/time"], "attr": {"T": {"type": "DT_INT32"}, "is_constant": {"b": false}, "parallel_iterations": {"i": "32"}, "frame_name": {"s": "U3RhdGVmdWxQYXJ0aXRpb25lZENhbGwvc2VxdWVudGlhbC9ncnVfMi9QYXJ0aXRpb25lZENhbGwvd2hpbGU="}}}, {"name": "StatefulPartitionedCall/sequential/gru_1/PartitionedCall/while/enter/_125", "op": "Enter", "input": ["unknown_5"], "attr": {"parallel_iterations": {"i": "32"}, "frame_name": {"s": "U3RhdGVmdWxQYXJ0aXRpb25lZENhbGwvc2VxdWVudGlhbC9ncnVfMS9QYXJ0aXRpb25lZENhbGwvd2hpbGU="}, "T": {"type": "DT_FLOAT"}, "is_constant": {"b": false}}}, {"name": "StatefulPartitionedCall/sequential/gru_1/PartitionedCall/while/enter/_126", "op": "Enter", "input": ["ConstantFolding/StatefulPartitionedCall/sequential/gru_1/PartitionedCall/unstack-folded-0"], "attr": {"frame_name": {"s": "U3RhdGVmdWxQYXJ0aXRpb25lZENhbGwvc2VxdWVudGlhbC9ncnVfMS9QYXJ0aXRpb25lZENhbGwvd2hpbGU="}, "T": {"type": "DT_FLOAT"}, "is_constant": {"b": false}, "parallel_iterations": {"i": "32"}}}, {"name": "StatefulPartitionedCall/sequential/gru_1/PartitionedCall/while/enter/_127", "op": "Enter", "input": ["unknown_6"], "attr": {"T": {"type": "DT_FLOAT"}, "is_constant": {"b": false}, "parallel_iterations": {"i": "32"}, "frame_name": {"s": "U3RhdGVmdWxQYXJ0aXRpb25lZENhbGwvc2VxdWVudGlhbC9ncnVfMS9QYXJ0aXRpb25lZENhbGwvd2hpbGU="}}}, {"name": "StatefulPartitionedCall/sequential/gru_1/PartitionedCall/while/enter/_128", "op": "Enter", "input": ["ConstantFolding/StatefulPartitionedCall/sequential/gru_1/PartitionedCall/unstack-folded-1"], "attr": {"T": {"type": "DT_FLOAT"}, "is_constant": {"b": false}, "parallel_iterations": {"i": "32"}, "frame_name": {"s": "U3RhdGVmdWxQYXJ0aXRpb25lZENhbGwvc2VxdWVudGlhbC9ncnVfMS9QYXJ0aXRpb25lZENhbGwvd2hpbGU="}}}, {"name": "StatefulPartitionedCall/sequential/gru_1/PartitionedCall/while/enter/_120", "op": "Enter", "input": ["StatefulPartitionedCall/sequential/gru_1/PartitionedCall/time"], "attr": {"T": {"type": "DT_INT32"}, "is_constant": {"b": false}, "parallel_iterations": {"i": "32"}, "frame_name": {"s": "U3RhdGVmdWxQYXJ0aXRpb25lZENhbGwvc2VxdWVudGlhbC9ncnVfMS9QYXJ0aXRpb25lZENhbGwvd2hpbGU="}}}, {"name": "StatefulPartitionedCall/sequential/gru/PartitionedCall/while/enter/_65", "op": "Enter", "input": ["unknown_2"], "attr": {"T": {"type": "DT_FLOAT"}, "is_constant": {"b": false}, "parallel_iterations": {"i": "32"}, "frame_name": {"s": "U3RhdGVmdWxQYXJ0aXRpb25lZENhbGwvc2VxdWVudGlhbC9ncnUvUGFydGl0aW9uZWRDYWxsL3doaWxl"}}}, {"name": "StatefulPartitionedCall/sequential/gru/PartitionedCall/while/enter/_66", "op": "Enter", "input": ["ConstantFolding/StatefulPartitionedCall/sequential/gru/PartitionedCall/unstack-folded-0"], "attr": {"frame_name": {"s": "U3RhdGVmdWxQYXJ0aXRpb25lZENhbGwvc2VxdWVudGlhbC9ncnUvUGFydGl0aW9uZWRDYWxsL3doaWxl"}, "T": {"type": "DT_FLOAT"}, "is_constant": {"b": false}, "parallel_iterations": {"i": "32"}}}, {"name": "StatefulPartitionedCall/sequential/gru/PartitionedCall/while/enter/_67", "op": "Enter", "input": ["unknown_3"], "attr": {"parallel_iterations": {"i": "32"}, "frame_name": {"s": "U3RhdGVmdWxQYXJ0aXRpb25lZENhbGwvc2VxdWVudGlhbC9ncnUvUGFydGl0aW9uZWRDYWxsL3doaWxl"}, "T": {"type": "DT_FLOAT"}, "is_constant": {"b": false}}}, {"name": "StatefulPartitionedCall/sequential/gru/PartitionedCall/while/enter/_68", "op": "Enter", "input": ["ConstantFolding/StatefulPartitionedCall/sequential/gru/PartitionedCall/unstack-folded-1"], "attr": {"frame_name": {"s": "U3RhdGVmdWxQYXJ0aXRpb25lZENhbGwvc2VxdWVudGlhbC9ncnUvUGFydGl0aW9uZWRDYWxsL3doaWxl"}, "T": {"type": "DT_FLOAT"}, "is_constant": {"b": false}, "parallel_iterations": {"i": "32"}}}, {"name": "StatefulPartitionedCall/sequential/gru/PartitionedCall/while/enter/_60", "op": "Enter", "input": ["StatefulPartitionedCall/sequential/gru/PartitionedCall/time"], "attr": {"T": {"type": "DT_INT32"}, "is_constant": {"b": false}, "parallel_iterations": {"i": "32"}, "frame_name": {"s": "U3RhdGVmdWxQYXJ0aXRpb25lZENhbGwvc2VxdWVudGlhbC9ncnUvUGFydGl0aW9uZWRDYWxsL3doaWxl"}}}, {"name": "StatefulPartitionedCall/sequential/gru/PartitionedCall/while/enter/_58", "op": "Enter", "input": ["StatefulPartitionedCall/sequential/gru/PartitionedCall/while/loop_counter"], "attr": {"T": {"type": "DT_INT32"}, "is_constant": {"b": false}, "parallel_iterations": {"i": "32"}, "frame_name": {"s": "U3RhdGVmdWxQYXJ0aXRpb25lZENhbGwvc2VxdWVudGlhbC9ncnUvUGFydGl0aW9uZWRDYWxsL3doaWxl"}}}, {"name": "StatefulPartitionedCall/sequential/gru_1/PartitionedCall/while/enter/_118", "op": "Enter", "input": ["StatefulPartitionedCall/sequential/gru_1/PartitionedCall/while/loop_counter"], "attr": {"frame_name": {"s": "U3RhdGVmdWxQYXJ0aXRpb25lZENhbGwvc2VxdWVudGlhbC9ncnVfMS9QYXJ0aXRpb25lZENhbGwvd2hpbGU="}, "T": {"type": "DT_INT32"}, "is_constant": {"b": false}, "parallel_iterations": {"i": "32"}}}, {"name": "StatefulPartitionedCall/sequential/gru_2/PartitionedCall/while/enter/_178", "op": "Enter", "input": ["StatefulPartitionedCall/sequential/gru_2/PartitionedCall/while/loop_counter"], "attr": {"T": {"type": "DT_INT32"}, "is_constant": {"b": false}, "parallel_iterations": {"i": "32"}, "frame_name": {"s": "U3RhdGVmdWxQYXJ0aXRpb25lZENhbGwvc2VxdWVudGlhbC9ncnVfMi9QYXJ0aXRpb25lZENhbGwvd2hpbGU="}}}, {"name": "StatefulPartitionedCall/sequential/gru_3/PartitionedCall/while/enter/_238", "op": "Enter", "input": ["StatefulPartitionedCall/sequential/gru_3/PartitionedCall/while/loop_counter"], "attr": {"T": {"type": "DT_INT32"}, "is_constant": {"b": false}, "parallel_iterations": {"i": "32"}, "frame_name": {"s": "U3RhdGVmdWxQYXJ0aXRpb25lZENhbGwvc2VxdWVudGlhbC9ncnVfMy9QYXJ0aXRpb25lZENhbGwvd2hpbGU="}}}, {"name": "StatefulPartitionedCall/sequential/DataPreprocessing/spectrogram/stft/frame/Shape", "op": "Shape", "input": ["input_1"], "attr": {"out_type": {"type": "DT_INT32"}, "T": {"type": "DT_FLOAT"}}}, {"name": "StatefulPartitionedCall/sequential/gru_3/PartitionedCall/while/merge/_256", "op": "Merge", "input": ["StatefulPartitionedCall/sequential/gru_3/PartitionedCall/while/enter/_245", "StatefulPartitionedCall/sequential/gru_3/PartitionedCall/while/next_iteration/_292"], "attr": {"T": {"type": "DT_FLOAT"}, "N": {"i": "2"}}}, {"name": "StatefulPartitionedCall/sequential/gru_3/PartitionedCall/while/merge/_257", "op": "Merge", "input": ["StatefulPartitionedCall/sequential/gru_3/PartitionedCall/while/enter/_246", "StatefulPartitionedCall/sequential/gru_3/PartitionedCall/while/next_iteration/_293"], "attr": {"T": {"type": "DT_FLOAT"}, "N": {"i": "2"}}}, {"name": "StatefulPartitionedCall/sequential/gru_3/PartitionedCall/while/merge/_258", "op": "Merge", "input": ["StatefulPartitionedCall/sequential/gru_3/PartitionedCall/while/enter/_247", "StatefulPartitionedCall/sequential/gru_3/PartitionedCall/while/next_iteration/_294"], "attr": {"T": {"type": "DT_FLOAT"}, "N": {"i": "2"}}}, {"name": "StatefulPartitionedCall/sequential/gru_3/PartitionedCall/while/merge/_259", "op": "Merge", "input": ["StatefulPartitionedCall/sequential/gru_3/PartitionedCall/while/enter/_248", "StatefulPartitionedCall/sequential/gru_3/PartitionedCall/while/next_iteration/_295"], "attr": {"T": {"type": "DT_FLOAT"}, "N": {"i": "2"}}}, {"name": "StatefulPartitionedCall/sequential/gru_3/PartitionedCall/while/merge/_251", "op": "Merge", "input": ["StatefulPartitionedCall/sequential/gru_3/PartitionedCall/while/enter/_240", "StatefulPartitionedCall/sequential/gru_3/PartitionedCall/while/next_iteration/_287"], "attr": {"T": {"type": "DT_INT32"}, "N": {"i": "2"}}}, {"name": "StatefulPartitionedCall/sequential/gru_2/PartitionedCall/while/merge/_196", "op": "Merge", "input": ["StatefulPartitionedCall/sequential/gru_2/PartitionedCall/while/enter/_185", "StatefulPartitionedCall/sequential/gru_2/PartitionedCall/while/next_iteration/_232"], "attr": {"T": {"type": "DT_FLOAT"}, "N": {"i": "2"}}}, {"name": "StatefulPartitionedCall/sequential/gru_2/PartitionedCall/while/merge/_197", "op": "Merge", "input": ["StatefulPartitionedCall/sequential/gru_2/PartitionedCall/while/enter/_186", "StatefulPartitionedCall/sequential/gru_2/PartitionedCall/while/next_iteration/_233"], "attr": {"T": {"type": "DT_FLOAT"}, "N": {"i": "2"}}}, {"name": "StatefulPartitionedCall/sequential/gru_2/PartitionedCall/while/merge/_198", "op": "Merge", "input": ["StatefulPartitionedCall/sequential/gru_2/PartitionedCall/while/enter/_187", "StatefulPartitionedCall/sequential/gru_2/PartitionedCall/while/next_iteration/_234"], "attr": {"T": {"type": "DT_FLOAT"}, "N": {"i": "2"}}}, {"name": "StatefulPartitionedCall/sequential/gru_2/PartitionedCall/while/merge/_199", "op": "Merge", "input": ["StatefulPartitionedCall/sequential/gru_2/PartitionedCall/while/enter/_188", "StatefulPartitionedCall/sequential/gru_2/PartitionedCall/while/next_iteration/_235"], "attr": {"T": {"type": "DT_FLOAT"}, "N": {"i": "2"}}}, {"name": "StatefulPartitionedCall/sequential/gru_2/PartitionedCall/while/merge/_191", "op": "Merge", "input": ["StatefulPartitionedCall/sequential/gru_2/PartitionedCall/while/enter/_180", "StatefulPartitionedCall/sequential/gru_2/PartitionedCall/while/next_iteration/_227"], "attr": {"T": {"type": "DT_INT32"}, "N": {"i": "2"}}}, {"name": "StatefulPartitionedCall/sequential/gru_1/PartitionedCall/while/merge/_136", "op": "Merge", "input": ["StatefulPartitionedCall/sequential/gru_1/PartitionedCall/while/enter/_125", "StatefulPartitionedCall/sequential/gru_1/PartitionedCall/while/next_iteration/_172"], "attr": {"T": {"type": "DT_FLOAT"}, "N": {"i": "2"}}}, {"name": "StatefulPartitionedCall/sequential/gru_1/PartitionedCall/while/merge/_137", "op": "Merge", "input": ["StatefulPartitionedCall/sequential/gru_1/PartitionedCall/while/enter/_126", "StatefulPartitionedCall/sequential/gru_1/PartitionedCall/while/next_iteration/_173"], "attr": {"N": {"i": "2"}, "T": {"type": "DT_FLOAT"}}}, {"name": "StatefulPartitionedCall/sequential/gru_1/PartitionedCall/while/merge/_138", "op": "Merge", "input": ["StatefulPartitionedCall/sequential/gru_1/PartitionedCall/while/enter/_127", "StatefulPartitionedCall/sequential/gru_1/PartitionedCall/while/next_iteration/_174"], "attr": {"T": {"type": "DT_FLOAT"}, "N": {"i": "2"}}}, {"name": "StatefulPartitionedCall/sequential/gru_1/PartitionedCall/while/merge/_139", "op": "Merge", "input": ["StatefulPartitionedCall/sequential/gru_1/PartitionedCall/while/enter/_128", "StatefulPartitionedCall/sequential/gru_1/PartitionedCall/while/next_iteration/_175"], "attr": {"T": {"type": "DT_FLOAT"}, "N": {"i": "2"}}}, {"name": "StatefulPartitionedCall/sequential/gru_1/PartitionedCall/while/merge/_131", "op": "Merge", "input": ["StatefulPartitionedCall/sequential/gru_1/PartitionedCall/while/enter/_120", "StatefulPartitionedCall/sequential/gru_1/PartitionedCall/while/next_iteration/_167"], "attr": {"T": {"type": "DT_INT32"}, "N": {"i": "2"}}}, {"name": "StatefulPartitionedCall/sequential/gru/PartitionedCall/while/merge/_76", "op": "Merge", "input": ["StatefulPartitionedCall/sequential/gru/PartitionedCall/while/enter/_65", "StatefulPartitionedCall/sequential/gru/PartitionedCall/while/next_iteration/_112"], "attr": {"T": {"type": "DT_FLOAT"}, "N": {"i": "2"}}}, {"name": "StatefulPartitionedCall/sequential/gru/PartitionedCall/while/merge/_77", "op": "Merge", "input": ["StatefulPartitionedCall/sequential/gru/PartitionedCall/while/enter/_66", "StatefulPartitionedCall/sequential/gru/PartitionedCall/while/next_iteration/_113"], "attr": {"T": {"type": "DT_FLOAT"}, "N": {"i": "2"}}}, {"name": "StatefulPartitionedCall/sequential/gru/PartitionedCall/while/merge/_78", "op": "Merge", "input": ["StatefulPartitionedCall/sequential/gru/PartitionedCall/while/enter/_67", "StatefulPartitionedCall/sequential/gru/PartitionedCall/while/next_iteration/_114"], "attr": {"T": {"type": "DT_FLOAT"}, "N": {"i": "2"}}}, {"name": "StatefulPartitionedCall/sequential/gru/PartitionedCall/while/merge/_79", "op": "Merge", "input": ["StatefulPartitionedCall/sequential/gru/PartitionedCall/while/enter/_68", "StatefulPartitionedCall/sequential/gru/PartitionedCall/while/next_iteration/_115"], "attr": {"N": {"i": "2"}, "T": {"type": "DT_FLOAT"}}}, {"name": "StatefulPartitionedCall/sequential/gru/PartitionedCall/while/merge/_71", "op": "Merge", "input": ["StatefulPartitionedCall/sequential/gru/PartitionedCall/while/enter/_60", "StatefulPartitionedCall/sequential/gru/PartitionedCall/while/next_iteration/_107"], "attr": {"T": {"type": "DT_INT32"}, "N": {"i": "2"}}}, {"name": "StatefulPartitionedCall/sequential/gru/PartitionedCall/while/merge/_69", "op": "Merge", "input": ["StatefulPartitionedCall/sequential/gru/PartitionedCall/while/enter/_58", "StatefulPartitionedCall/sequential/gru/PartitionedCall/while/next_iteration/_105"], "attr": {"T": {"type": "DT_INT32"}, "N": {"i": "2"}}}, {"name": "StatefulPartitionedCall/sequential/gru_1/PartitionedCall/while/merge/_129", "op": "Merge", "input": ["StatefulPartitionedCall/sequential/gru_1/PartitionedCall/while/enter/_118", "StatefulPartitionedCall/sequential/gru_1/PartitionedCall/while/next_iteration/_165"], "attr": {"N": {"i": "2"}, "T": {"type": "DT_INT32"}}}, {"name": "StatefulPartitionedCall/sequential/gru_2/PartitionedCall/while/merge/_189", "op": "Merge", "input": ["StatefulPartitionedCall/sequential/gru_2/PartitionedCall/while/enter/_178", "StatefulPartitionedCall/sequential/gru_2/PartitionedCall/while/next_iteration/_225"], "attr": {"T": {"type": "DT_INT32"}, "N": {"i": "2"}}}, {"name": "StatefulPartitionedCall/sequential/gru_3/PartitionedCall/while/merge/_249", "op": "Merge", "input": ["StatefulPartitionedCall/sequential/gru_3/PartitionedCall/while/enter/_238", "StatefulPartitionedCall/sequential/gru_3/PartitionedCall/while/next_iteration/_285"], "attr": {"T": {"type": "DT_INT32"}, "N": {"i": "2"}}}, {"name": "StatefulPartitionedCall/sequential/DataPreprocessing/spectrogram/stft/frame/split", "op": "SplitV", "input": ["StatefulPartitionedCall/sequential/DataPreprocessing/spectrogram/stft/frame/Shape", "StatefulPartitionedCall/sequential/DataPreprocessing/spectrogram/stft/frame/packed", "StatefulPartitionedCall/sequential/DataPreprocessing/spectrogram/stft/frame/split/split_dim"], "attr": {"Tlen": {"type": "DT_INT32"}, "num_split": {"i": "3"}, "T": {"type": "DT_INT32"}}}, {"name": "StatefulPartitionedCall/sequential/DataPreprocessing/spectrogram/stft/frame/Reshape", "op": "Reshape", "input": ["StatefulPartitionedCall/sequential/DataPreprocessing/spectrogram/stft/frame/split:1", "StatefulPartitionedCall/sequential/DataPreprocessing/spectrogram/stft/frame/Reshape/shape"], "attr": {"T": {"type": "DT_INT32"}, "Tshape": {"type": "DT_INT32"}}}, {"name": "StatefulPartitionedCall/sequential/DataPreprocessing/spectrogram/stft/frame/floordiv_3", "op": "FloorDiv", "input": ["StatefulPartitionedCall/sequential/DataPreprocessing/spectrogram/stft/frame/Reshape", "StatefulPartitionedCall/sequential/DataPreprocessing/spectrogram/stft/frame/floordiv_3/y"], "attr": {"T": {"type": "DT_INT32"}}}, {"name": "StatefulPartitionedCall/sequential/DataPreprocessing/spectrogram/stft/frame/sub_2", "op": "Sub", "input": ["StatefulPartitionedCall/sequential/DataPreprocessing/spectrogram/stft/frame/Reshape", "StatefulPartitionedCall/sequential/DataPreprocessing/spectrogram/stft/frame_length"], "attr": {"T": {"type": "DT_INT32"}}}, {"name": "StatefulPartitionedCall/sequential/DataPreprocessing/spectrogram/stft/frame/mul", "op": "Mul", "input": ["StatefulPartitionedCall/sequential/DataPreprocessing/spectrogram/stft/frame/floordiv_3", "StatefulPartitionedCall/sequential/DataPreprocessing/spectrogram/stft/frame/mul/y"], "attr": {"T": {"type": "DT_INT32"}}}, {"name": "StatefulPartitionedCall/sequential/DataPreprocessing/spectrogram/stft/frame/concat_1/values_1", "op": "Pack", "input": ["StatefulPartitionedCall/sequential/DataPreprocessing/spectrogram/stft/frame/floordiv_3", "StatefulPartitionedCall/sequential/DataPreprocessing/spectrogram/stft/frame/concat_1/values_1/1"], "attr": {"T": {"type": "DT_INT32"}, "axis": {"i": "0"}, "N": {"i": "2"}}}, {"name": "StatefulPartitionedCall/sequential/DataPreprocessing/spectrogram/stft/frame/floordiv", "op": "FloorDiv", "input": ["StatefulPartitionedCall/sequential/DataPreprocessing/spectrogram/stft/frame/sub_2", "StatefulPartitionedCall/sequential/DataPreprocessing/spectrogram/stft/frame_step"], "attr": {"T": {"type": "DT_INT32"}}}, {"name": "ConstantFolding/StatefulPartitionedCall/sequential/DataPreprocessing/spectrogram/stft/frame/concat/values_1_const_axis", "op": "Const", "input": ["^StatefulPartitionedCall/sequential/DataPreprocessing/spectrogram/stft/frame/mul"], "attr": {"value": {"tensor": {"dtype": "DT_INT32", "tensorShape": {}}}, "dtype": {"type": "DT_INT32"}}}, {"name": "StatefulPartitionedCall/sequential/DataPreprocessing/spectrogram/stft/frame/concat_1", "op": "ConcatV2", "input": ["StatefulPartitionedCall/sequential/DataPreprocessing/spectrogram/stft/frame/split", "StatefulPartitionedCall/sequential/DataPreprocessing/spectrogram/stft/frame/concat_1/values_1", "StatefulPartitionedCall/sequential/DataPreprocessing/spectrogram/stft/frame/split:2", "StatefulPartitionedCall/sequential/DataPreprocessing/spectrogram/stft/frame/concat_1/axis"], "attr": {"T": {"type": "DT_INT32"}, "N": {"i": "3"}, "Tidx": {"type": "DT_INT32"}}}, {"name": "StatefulPartitionedCall/sequential/DataPreprocessing/spectrogram/stft/frame/add", "op": "AddV2", "input": ["StatefulPartitionedCall/sequential/DataPreprocessing/spectrogram/stft/frame/add/x", "StatefulPartitionedCall/sequential/DataPreprocessing/spectrogram/stft/frame/floordiv"], "attr": {"T": {"type": "DT_INT32"}}}, {"name": "StatefulPartitionedCall/sequential/DataPreprocessing/spectrogram/stft/frame/concat/values_1", "op": "ExpandDims", "input": ["StatefulPartitionedCall/sequential/DataPreprocessing/spectrogram/stft/frame/mul", "ConstantFolding/StatefulPartitionedCall/sequential/DataPreprocessing/spectrogram/stft/frame/concat/values_1_const_axis"], "attr": {"Tdim": {"type": "DT_INT32"}, "T": {"type": "DT_INT32"}}}, {"name": "StatefulPartitionedCall/sequential/DataPreprocessing/spectrogram/stft/frame/Maximum", "op": "Maximum", "input": ["StatefulPartitionedCall/sequential/DataPreprocessing/spectrogram/stft/frame/Maximum/x", "StatefulPartitionedCall/sequential/DataPreprocessing/spectrogram/stft/frame/add"], "attr": {"T": {"type": "DT_INT32"}}}, {"name": "StatefulPartitionedCall/sequential/DataPreprocessing/spectrogram/stft/frame/concat", "op": "ConcatV2", "input": ["StatefulPartitionedCall/sequential/DataPreprocessing/spectrogram/stft/frame/split", "StatefulPartitionedCall/sequential/DataPreprocessing/spectrogram/stft/frame/concat/values_1", "StatefulPartitionedCall/sequential/DataPreprocessing/spectrogram/stft/frame/split:2", "StatefulPartitionedCall/sequential/DataPreprocessing/spectrogram/stft/frame/concat/axis"], "attr": {"Tidx": {"type": "DT_INT32"}, "T": {"type": "DT_INT32"}, "N": {"i": "3"}}}, {"name": "StatefulPartitionedCall/sequential/DataPreprocessing/spectrogram/stft/frame/range_1", "op": "Range", "input": ["StatefulPartitionedCall/sequential/DataPreprocessing/spectrogram/stft/frame/range_1/start", "StatefulPartitionedCall/sequential/DataPreprocessing/spectrogram/stft/frame/Maximum", "StatefulPartitionedCall/sequential/DataPreprocessing/spectrogram/stft/frame/range_1/delta"], "attr": {"Tidx": {"type": "DT_INT32"}}}, {"name": "StatefulPartitionedCall/sequential/DataPreprocessing/spectrogram/stft/frame/Reshape_2/shape", "op": "Pack", "input": ["StatefulPartitionedCall/sequential/DataPreprocessing/spectrogram/stft/frame/Maximum", "StatefulPartitionedCall/sequential/DataPreprocessing/spectrogram/stft/frame/Reshape_2/shape/1"], "attr": {"T": {"type": "DT_INT32"}, "axis": {"i": "0"}, "N": {"i": "2"}}}, {"name": "StatefulPartitionedCall/sequential/DataPreprocessing/spectrogram/stft/frame/concat_2/values_1", "op": "Pack", "input": ["StatefulPartitionedCall/sequential/DataPreprocessing/spectrogram/stft/frame/Maximum", "StatefulPartitionedCall/sequential/DataPreprocessing/spectrogram/stft/frame_length"], "attr": {"T": {"type": "DT_INT32"}, "axis": {"i": "0"}, "N": {"i": "2"}}}, {"name": "StatefulPartitionedCall/sequential/DataPreprocessing/spectrogram/stft/frame/StridedSlice", "op": "StridedSlice", "input": ["input_1", "StatefulPartitionedCall/sequential/DataPreprocessing/spectrogram/stft/frame/zeros_like", "StatefulPartitionedCall/sequential/DataPreprocessing/spectrogram/stft/frame/concat", "StatefulPartitionedCall/sequential/DataPreprocessing/spectrogram/stft/frame/ones_like"], "attr": {"Index": {"type": "DT_INT32"}, "T": {"type": "DT_FLOAT"}, "shrink_axis_mask": {"i": "0"}, "begin_mask": {"i": "0"}, "ellipsis_mask": {"i": "0"}, "new_axis_mask": {"i": "0"}, "end_mask": {"i": "0"}}}, {"name": "StatefulPartitionedCall/sequential/DataPreprocessing/spectrogram/stft/frame/Reshape_2", "op": "Reshape", "input": ["StatefulPartitionedCall/sequential/DataPreprocessing/spectrogram/stft/frame/range_1", "StatefulPartitionedCall/sequential/DataPreprocessing/spectrogram/stft/frame/Reshape_2/shape"], "attr": {"T": {"type": "DT_INT32"}, "Tshape": {"type": "DT_INT32"}}}, {"name": "StatefulPartitionedCall/sequential/DataPreprocessing/spectrogram/stft/frame/concat_2", "op": "ConcatV2", "input": ["StatefulPartitionedCall/sequential/DataPreprocessing/spectrogram/stft/frame/split", "StatefulPartitionedCall/sequential/DataPreprocessing/spectrogram/stft/frame/concat_2/values_1", "StatefulPartitionedCall/sequential/DataPreprocessing/spectrogram/stft/frame/split:2", "StatefulPartitionedCall/sequential/DataPreprocessing/spectrogram/stft/frame/concat_2/axis"], "attr": {"N": {"i": "3"}, "Tidx": {"type": "DT_INT32"}, "T": {"type": "DT_INT32"}}}, {"name": "StatefulPartitionedCall/sequential/DataPreprocessing/spectrogram/stft/frame/Reshape_1", "op": "Reshape", "input": ["StatefulPartitionedCall/sequential/DataPreprocessing/spectrogram/stft/frame/StridedSlice", "StatefulPartitionedCall/sequential/DataPreprocessing/spectrogram/stft/frame/concat_1"], "attr": {"T": {"type": "DT_FLOAT"}, "Tshape": {"type": "DT_INT32"}}}, {"name": "StatefulPartitionedCall/sequential/DataPreprocessing/spectrogram/stft/frame/add_1", "op": "AddV2", "input": ["StatefulPartitionedCall/sequential/DataPreprocessing/spectrogram/stft/frame/Reshape_2", "StatefulPartitionedCall/sequential/DataPreprocessing/spectrogram/stft/frame/Reshape_3"], "attr": {"T": {"type": "DT_INT32"}}}, {"name": "StatefulPartitionedCall/sequential/DataPreprocessing/spectrogram/stft/frame/GatherV2", "op": "GatherV2", "input": ["StatefulPartitionedCall/sequential/DataPreprocessing/spectrogram/stft/frame/Reshape_1", "StatefulPartitionedCall/sequential/DataPreprocessing/spectrogram/stft/frame/add_1", "StatefulPartitionedCall/sequential/DataPreprocessing/spectrogram/stft/frame/strided_slice"], "attr": {"Taxis": {"type": "DT_INT32"}, "batch_dims": {"i": "0"}, "Tindices": {"type": "DT_INT32"}, "Tparams": {"type": "DT_FLOAT"}}}, {"name": "StatefulPartitionedCall/sequential/DataPreprocessing/spectrogram/stft/frame/Reshape_4", "op": "Reshape", "input": ["StatefulPartitionedCall/sequential/DataPreprocessing/spectrogram/stft/frame/GatherV2", "StatefulPartitionedCall/sequential/DataPreprocessing/spectrogram/stft/frame/concat_2"], "attr": {"T": {"type": "DT_FLOAT"}, "Tshape": {"type": "DT_INT32"}}}, {"name": "StatefulPartitionedCall/sequential/DataPreprocessing/spectrogram/stft/mul", "op": "Mul", "input": ["StatefulPartitionedCall/sequential/DataPreprocessing/spectrogram/stft/frame/Reshape_4", "StatefulPartitionedCall/sequential/DataPreprocessing/spectrogram/stft/hann_window/sub_2"], "attr": {"T": {"type": "DT_FLOAT"}}}, {"name": "StatefulPartitionedCall/sequential/DataPreprocessing/spectrogram/stft/rfft", "op": "RFFT", "input": ["StatefulPartitionedCall/sequential/DataPreprocessing/spectrogram/stft/mul", "StatefulPartitionedCall/sequential/DataPreprocessing/spectrogram/stft/rfft/fft_length"], "attr": {"Treal": {"type": "DT_FLOAT"}, "Tcomplex": {"type": "DT_COMPLEX64"}}}, {"name": "StatefulPartitionedCall/sequential/DataPreprocessing/spectrogram/Abs", "op": "ComplexAbs", "input": ["StatefulPartitionedCall/sequential/DataPreprocessing/spectrogram/stft/rfft"], "attr": {"Tout": {"type": "DT_FLOAT"}, "T": {"type": "DT_COMPLEX64"}}}, {"name": "StatefulPartitionedCall/sequential/DataPreprocessing/mel_spectrogram/Tensordot/Shape", "op": "Shape", "input": ["StatefulPartitionedCall/sequential/DataPreprocessing/spectrogram/Abs"], "attr": {"out_type": {"type": "DT_INT32"}, "T": {"type": "DT_FLOAT"}}}, {"name": "StatefulPartitionedCall/sequential/DataPreprocessing/mel_spectrogram/Tensordot/GatherV2_1", "op": "GatherV2", "input": ["StatefulPartitionedCall/sequential/DataPreprocessing/mel_spectrogram/Tensordot/Shape", "StatefulPartitionedCall/sequential/DataPreprocessing/mel_spectrogram/Tensordot/axes", "StatefulPartitionedCall/sequential/DataPreprocessing/mel_spectrogram/Tensordot/GatherV2_1/axis"], "attr": {"Tindices": {"type": "DT_INT32"}, "Tparams": {"type": "DT_INT32"}, "Taxis": {"type": "DT_INT32"}, "batch_dims": {"i": "0"}}}, {"name": "StatefulPartitionedCall/sequential/DataPreprocessing/mel_spectrogram/Tensordot/GatherV2", "op": "GatherV2", "input": ["StatefulPartitionedCall/sequential/DataPreprocessing/mel_spectrogram/Tensordot/Shape", "StatefulPartitionedCall/sequential/DataPreprocessing/mel_spectrogram/Tensordot/free", "StatefulPartitionedCall/sequential/DataPreprocessing/mel_spectrogram/Tensordot/GatherV2/axis"], "attr": {"Tindices": {"type": "DT_INT32"}, "Tparams": {"type": "DT_INT32"}, "Taxis": {"type": "DT_INT32"}, "batch_dims": {"i": "0"}}}, {"name": "StatefulPartitionedCall/sequential/DataPreprocessing/mel_spectrogram/Tensordot/Prod_1", "op": "Prod", "input": ["StatefulPartitionedCall/sequential/DataPreprocessing/mel_spectrogram/Tensordot/GatherV2_1", "StatefulPartitionedCall/sequential/DataPreprocessing/mel_spectrogram/Tensordot/Const_1"], "attr": {"T": {"type": "DT_INT32"}, "Tidx": {"type": "DT_INT32"}, "keep_dims": {"b": false}}}, {"name": "StatefulPartitionedCall/sequential/DataPreprocessing/mel_spectrogram/Tensordot/Prod", "op": "Prod", "input": ["StatefulPartitionedCall/sequential/DataPreprocessing/mel_spectrogram/Tensordot/GatherV2", "StatefulPartitionedCall/sequential/DataPreprocessing/mel_spectrogram/Tensordot/Const"], "attr": {"Tidx": {"type": "DT_INT32"}, "keep_dims": {"b": false}, "T": {"type": "DT_INT32"}}}, {"name": "StatefulPartitionedCall/sequential/DataPreprocessing/mel_spectrogram/Tensordot/concat_1", "op": "ConcatV2", "input": ["StatefulPartitionedCall/sequential/DataPreprocessing/mel_spectrogram/Tensordot/GatherV2", "StatefulPartitionedCall/sequential/DataPreprocessing/mel_spectrogram/Tensordot/Const_2", "StatefulPartitionedCall/sequential/DataPreprocessing/mel_spectrogram/Tensordot/concat_1/axis"], "attr": {"N": {"i": "2"}, "Tidx": {"type": "DT_INT32"}, "T": {"type": "DT_INT32"}}}, {"name": "StatefulPartitionedCall/sequential/DataPreprocessing/mel_spectrogram/Tensordot/stack", "op": "Pack", "input": ["StatefulPartitionedCall/sequential/DataPreprocessing/mel_spectrogram/Tensordot/Prod", "StatefulPartitionedCall/sequential/DataPreprocessing/mel_spectrogram/Tensordot/Prod_1"], "attr": {"T": {"type": "DT_INT32"}, "axis": {"i": "0"}, "N": {"i": "2"}}}, {"name": "StatefulPartitionedCall/sequential/DataPreprocessing/mel_spectrogram/Tensordot/Reshape", "op": "Reshape", "input": ["StatefulPartitionedCall/sequential/DataPreprocessing/spectrogram/Abs", "StatefulPartitionedCall/sequential/DataPreprocessing/mel_spectrogram/Tensordot/stack"], "attr": {"T": {"type": "DT_FLOAT"}, "Tshape": {"type": "DT_INT32"}}}, {"name": "StatefulPartitionedCall/sequential/DataPreprocessing/mel_spectrogram/Tensordot/MatMul", "op": "MatMul", "input": ["StatefulPartitionedCall/sequential/DataPreprocessing/mel_spectrogram/Tensordot/Reshape", "unknown"], "device": "/device:CPU:0", "attr": {"transpose_a": {"b": false}, "transpose_b": {"b": false}, "T": {"type": "DT_FLOAT"}}}, {"name": "StatefulPartitionedCall/sequential/DataPreprocessing/mel_spectrogram/Tensordot", "op": "Reshape", "input": ["StatefulPartitionedCall/sequential/DataPreprocessing/mel_spectrogram/Tensordot/MatMul", "StatefulPartitionedCall/sequential/DataPreprocessing/mel_spectrogram/Tensordot/concat_1"], "attr": {"T": {"type": "DT_FLOAT"}, "Tshape": {"type": "DT_INT32"}}}, {"name": "StatefulPartitionedCall/sequential/DataPreprocessing/log_mel_spectrogram/add", "op": "AddV2", "input": ["StatefulPartitionedCall/sequential/DataPreprocessing/mel_spectrogram/Tensordot", "StatefulPartitionedCall/sequential/DataPreprocessing/log_mel_spectrogram/add/y"], "attr": {"T": {"type": "DT_FLOAT"}}}, {"name": "StatefulPartitionedCall/sequential/DataPreprocessing/log_mel_spectrogram/Log", "op": "Log", "input": ["StatefulPartitionedCall/sequential/DataPreprocessing/log_mel_spectrogram/add"], "attr": {"T": {"type": "DT_FLOAT"}}}, {"name": "StatefulPartitionedCall/sequential/conv1d/conv1d/ExpandDims", "op": "ExpandDims", "input": ["StatefulPartitionedCall/sequential/DataPreprocessing/log_mel_spectrogram/Log", "StatefulPartitionedCall/sequential/conv1d/conv1d/ExpandDims/dim"], "attr": {"Tdim": {"type": "DT_INT32"}, "T": {"type": "DT_FLOAT"}}}, {"name": "StatefulPartitionedCall/sequential/conv1d/conv1d", "op": "_FusedConv2D", "input": ["StatefulPartitionedCall/sequential/conv1d/conv1d/ExpandDims", "StatefulPartitionedCall/sequential/conv1d/conv1d/ExpandDims_1", "unknown_1"], "device": "/device:CPU:0", "attr": {"dilations": {"list": {"i": ["1", "1", "1", "1"]}}, "T": {"type": "DT_FLOAT"}, "data_format": {"s": "TkhXQw=="}, "strides": {"list": {"i": ["1", "1", "2", "1"]}}, "use_cudnn_on_gpu": {"b": true}, "explicit_paddings": {"list": {}}, "num_args": {"i": "1"}, "epsilon": {"f": 0.0}, "padding": {"s": "VkFMSUQ="}, "fused_ops": {"list": {"s": ["Qmlhc0FkZA=="]}}}}, {"name": "StatefulPartitionedCall/sequential/conv1d/BiasAdd", "op": "Squeeze", "input": ["StatefulPartitionedCall/sequential/conv1d/conv1d"], "attr": {"squeeze_dims": {"list": {"i": ["-3"]}}, "T": {"type": "DT_FLOAT"}}}, {"name": "StatefulPartitionedCall/sequential/conv1d/Relu", "op": "Relu", "input": ["StatefulPartitionedCall/sequential/conv1d/BiasAdd"], "attr": {"T": {"type": "DT_FLOAT"}}}, {"name": "StatefulPartitionedCall/sequential/gru/Shape", "op": "Shape", "input": ["StatefulPartitionedCall/sequential/conv1d/Relu"], "attr": {"T": {"type": "DT_FLOAT"}, "out_type": {"type": "DT_INT32"}}}, {"name": "StatefulPartitionedCall/sequential/gru/PartitionedCall/transpose", "op": "Transpose", "input": ["StatefulPartitionedCall/sequential/conv1d/Relu", "StatefulPartitionedCall/sequential/gru/PartitionedCall/transpose/perm"], "attr": {"Tperm": {"type": "DT_INT32"}, "T": {"type": "DT_FLOAT"}}}, {"name": "StatefulPartitionedCall/sequential/gru/strided_slice", "op": "StridedSlice", "input": ["StatefulPartitionedCall/sequential/gru/Shape", "StatefulPartitionedCall/sequential/gru/strided_slice/stack", "StatefulPartitionedCall/sequential/gru/strided_slice/stack_1", "StatefulPartitionedCall/sequential/gru/strided_slice/stack_2"], "attr": {"T": {"type": "DT_INT32"}, "Index": {"type": "DT_INT32"}, "shrink_axis_mask": {"i": "1"}, "ellipsis_mask": {"i": "0"}, "begin_mask": {"i": "0"}, "new_axis_mask": {"i": "0"}, "end_mask": {"i": "0"}}}, {"name": "StatefulPartitionedCall/sequential/gru/PartitionedCall/TensorArrayUnstack/TensorListFromTensor", "op": "TensorListFromTensor", "input": ["StatefulPartitionedCall/sequential/gru/PartitionedCall/transpose", "StatefulPartitionedCall/sequential/gru/PartitionedCall/TensorArrayUnstack/TensorListFromTensor/element_shape"], "attr": {"element_dtype": {"type": "DT_FLOAT"}, "shape_type": {"type": "DT_INT32"}}}, {"name": "StatefulPartitionedCall/sequential/gru/PartitionedCall/Shape", "op": "Shape", "input": ["StatefulPartitionedCall/sequential/gru/PartitionedCall/transpose"], "attr": {"out_type": {"type": "DT_INT32"}, "T": {"type": "DT_FLOAT"}}}, {"name": "StatefulPartitionedCall/sequential/gru/zeros/packed", "op": "Pack", "input": ["StatefulPartitionedCall/sequential/gru/strided_slice", "StatefulPartitionedCall/sequential/gru/zeros/packed/1"], "attr": {"T": {"type": "DT_INT32"}, "axis": {"i": "0"}, "N": {"i": "2"}}}, {"name": "StatefulPartitionedCall/sequential/gru/PartitionedCall/while/enter/_64", "op": "Enter", "input": ["StatefulPartitionedCall/sequential/gru/PartitionedCall/TensorArrayUnstack/TensorListFromTensor"], "attr": {"is_constant": {"b": false}, "parallel_iterations": {"i": "32"}, "frame_name": {"s": "U3RhdGVmdWxQYXJ0aXRpb25lZENhbGwvc2VxdWVudGlhbC9ncnUvUGFydGl0aW9uZWRDYWxsL3doaWxl"}, "T": {"type": "DT_VARIANT"}}}, {"name": "StatefulPartitionedCall/sequential/gru/PartitionedCall/strided_slice", "op": "StridedSlice", "input": ["StatefulPartitionedCall/sequential/gru/PartitionedCall/Shape", "StatefulPartitionedCall/sequential/gru/PartitionedCall/strided_slice/stack", "StatefulPartitionedCall/sequential/gru/PartitionedCall/strided_slice/stack_1", "StatefulPartitionedCall/sequential/gru/PartitionedCall/strided_slice/stack_2"], "attr": {"new_axis_mask": {"i": "0"}, "end_mask": {"i": "0"}, "Index": {"type": "DT_INT32"}, "T": {"type": "DT_INT32"}, "shrink_axis_mask": {"i": "1"}, "begin_mask": {"i": "0"}, "ellipsis_mask": {"i": "0"}}}, {"name": "StatefulPartitionedCall/sequential/gru/zeros", "op": "Fill", "input": ["StatefulPartitionedCall/sequential/gru/zeros/packed", "StatefulPartitionedCall/sequential/gru/zeros/Const"], "attr": {"T": {"type": "DT_FLOAT"}, "index_type": {"type": "DT_INT32"}}}, {"name": "StatefulPartitionedCall/sequential/gru/PartitionedCall/while/merge/_75", "op": "Merge", "input": ["StatefulPartitionedCall/sequential/gru/PartitionedCall/while/enter/_64", "StatefulPartitionedCall/sequential/gru/PartitionedCall/while/next_iteration/_111"], "attr": {"T": {"type": "DT_VARIANT"}, "N": {"i": "2"}}}, {"name": "StatefulPartitionedCall/sequential/gru/PartitionedCall/TensorArrayV2_1", "op": "TensorListReserve", "input": ["StatefulPartitionedCall/sequential/gru/PartitionedCall/TensorArrayV2_1/element_shape", "StatefulPartitionedCall/sequential/gru/PartitionedCall/strided_slice"], "attr": {"shape_type": {"type": "DT_INT32"}, "element_dtype": {"type": "DT_FLOAT"}}}, {"name": "StatefulPartitionedCall/sequential/gru/PartitionedCall/while/enter/_63", "op": "Enter", "input": ["StatefulPartitionedCall/sequential/gru/PartitionedCall/strided_slice"], "attr": {"T": {"type": "DT_INT32"}, "is_constant": {"b": false}, "parallel_iterations": {"i": "32"}, "frame_name": {"s": "U3RhdGVmdWxQYXJ0aXRpb25lZENhbGwvc2VxdWVudGlhbC9ncnUvUGFydGl0aW9uZWRDYWxsL3doaWxl"}}}, {"name": "StatefulPartitionedCall/sequential/gru/PartitionedCall/while/enter/_62", "op": "Enter", "input": ["StatefulPartitionedCall/sequential/gru/zeros"], "attr": {"T": {"type": "DT_FLOAT"}, "is_constant": {"b": false}, "parallel_iterations": {"i": "32"}, "frame_name": {"s": "U3RhdGVmdWxQYXJ0aXRpb25lZENhbGwvc2VxdWVudGlhbC9ncnUvUGFydGl0aW9uZWRDYWxsL3doaWxl"}}}, {"name": "StatefulPartitionedCall/sequential/gru/PartitionedCall/while/enter/_61", "op": "Enter", "input": ["StatefulPartitionedCall/sequential/gru/PartitionedCall/TensorArrayV2_1"], "attr": {"frame_name": {"s": "U3RhdGVmdWxQYXJ0aXRpb25lZENhbGwvc2VxdWVudGlhbC9ncnUvUGFydGl0aW9uZWRDYWxsL3doaWxl"}, "T": {"type": "DT_VARIANT"}, "is_constant": {"b": false}, "parallel_iterations": {"i": "32"}}}, {"name": "StatefulPartitionedCall/sequential/gru/PartitionedCall/while/merge/_74", "op": "Merge", "input": ["StatefulPartitionedCall/sequential/gru/PartitionedCall/while/enter/_63", "StatefulPartitionedCall/sequential/gru/PartitionedCall/while/next_iteration/_110"], "attr": {"T": {"type": "DT_INT32"}, "N": {"i": "2"}}}, {"name": "StatefulPartitionedCall/sequential/gru/PartitionedCall/while/merge/_73", "op": "Merge", "input": ["StatefulPartitionedCall/sequential/gru/PartitionedCall/while/enter/_62", "StatefulPartitionedCall/sequential/gru/PartitionedCall/while/next_iteration/_109"], "attr": {"T": {"type": "DT_FLOAT"}, "N": {"i": "2"}}}, {"name": "StatefulPartitionedCall/sequential/gru/PartitionedCall/while/merge/_72", "op": "Merge", "input": ["StatefulPartitionedCall/sequential/gru/PartitionedCall/while/enter/_61", "StatefulPartitionedCall/sequential/gru/PartitionedCall/while/next_iteration/_108"], "attr": {"T": {"type": "DT_VARIANT"}, "N": {"i": "2"}}}, {"name": "StatefulPartitionedCall/sequential/gru/PartitionedCall/while/cond/_56/while/Less", "op": "Less", "input": ["StatefulPartitionedCall/sequential/gru/PartitionedCall/while/merge/_71", "StatefulPartitionedCall/sequential/gru/PartitionedCall/while/merge/_74", "^StatefulPartitionedCall/sequential/gru/PartitionedCall/while/merge/_69"], "attr": {"T": {"type": "DT_INT32"}}}, {"name": "StatefulPartitionedCall/sequential/gru/PartitionedCall/while/LoopCond/_80", "op": "LoopCond", "input": ["StatefulPartitionedCall/sequential/gru/PartitionedCall/while/cond/_56/while/Less"]}, {"name": "StatefulPartitionedCall/sequential/gru/PartitionedCall/while/StatefulPartitionedCall/sequential/gru/PartitionedCall/TensorArrayUnstack/TensorListFromTensor_switch/_87", "op": "Switch", "input": ["StatefulPartitionedCall/sequential/gru/PartitionedCall/while/merge/_75", "StatefulPartitionedCall/sequential/gru/PartitionedCall/while/LoopCond/_80"], "attr": {"T": {"type": "DT_VARIANT"}}}, {"name": "StatefulPartitionedCall/sequential/gru/PartitionedCall/while/Func/StatefulPartitionedCall/sequential/gru/PartitionedCall/input/_22_switch/_88", "op": "Switch", "input": ["StatefulPartitionedCall/sequential/gru/PartitionedCall/while/merge/_76", "StatefulPartitionedCall/sequential/gru/PartitionedCall/while/LoopCond/_80"], "attr": {"T": {"type": "DT_FLOAT"}}}, {"name": "StatefulPartitionedCall/sequential/gru/PartitionedCall/while/StatefulPartitionedCall/sequential/gru/PartitionedCall/unstack_switch/_89", "op": "Switch", "input": ["StatefulPartitionedCall/sequential/gru/PartitionedCall/while/merge/_77", "StatefulPartitionedCall/sequential/gru/PartitionedCall/while/LoopCond/_80"], "attr": {"T": {"type": "DT_FLOAT"}}}, {"name": "StatefulPartitionedCall/sequential/gru/PartitionedCall/while/Func/StatefulPartitionedCall/sequential/gru/PartitionedCall/input/_21_switch/_85", "op": "Switch", "input": ["StatefulPartitionedCall/sequential/gru/PartitionedCall/while/merge/_73", "StatefulPartitionedCall/sequential/gru/PartitionedCall/while/LoopCond/_80"], "attr": {"T": {"type": "DT_FLOAT"}}}, {"name": "StatefulPartitionedCall/sequential/gru/PartitionedCall/while/Func/StatefulPartitionedCall/sequential/gru/PartitionedCall/input/_23_switch/_90", "op": "Switch", "input": ["StatefulPartitionedCall/sequential/gru/PartitionedCall/while/merge/_78", "StatefulPartitionedCall/sequential/gru/PartitionedCall/while/LoopCond/_80"], "attr": {"T": {"type": "DT_FLOAT"}}}, {"name": "StatefulPartitionedCall/sequential/gru/PartitionedCall/while/StatefulPartitionedCall/sequential/gru/PartitionedCall/unstack_switch/_91", "op": "Switch", "input": ["StatefulPartitionedCall/sequential/gru/PartitionedCall/while/merge/_79", "StatefulPartitionedCall/sequential/gru/PartitionedCall/while/LoopCond/_80"], "attr": {"T": {"type": "DT_FLOAT"}}}, {"name": "StatefulPartitionedCall/sequential/gru/PartitionedCall/while/StatefulPartitionedCall/sequential/gru/PartitionedCall/time_switch/_83", "op": "Switch", "input": ["StatefulPartitionedCall/sequential/gru/PartitionedCall/while/merge/_71", "StatefulPartitionedCall/sequential/gru/PartitionedCall/while/LoopCond/_80"], "attr": {"T": {"type": "DT_INT32"}}}, {"name": "StatefulPartitionedCall/sequential/gru/PartitionedCall/while/StatefulPartitionedCall/sequential/gru/PartitionedCall/while/loop_counter_switch/_81", "op": "Switch", "input": ["StatefulPartitionedCall/sequential/gru/PartitionedCall/while/merge/_69", "StatefulPartitionedCall/sequential/gru/PartitionedCall/while/LoopCond/_80"], "attr": {"T": {"type": "DT_INT32"}}}, {"name": "StatefulPartitionedCall/sequential/gru/PartitionedCall/while/StatefulPartitionedCall/sequential/gru/PartitionedCall/TensorArrayV2_1_switch/_84", "op": "Switch", "input": ["StatefulPartitionedCall/sequential/gru/PartitionedCall/while/merge/_72", "StatefulPartitionedCall/sequential/gru/PartitionedCall/while/LoopCond/_80"], "attr": {"T": {"type": "DT_VARIANT"}}}, {"name": "StatefulPartitionedCall/sequential/gru/PartitionedCall/while/StatefulPartitionedCall/sequential/gru/PartitionedCall/strided_slice_switch/_86", "op": "Switch", "input": ["StatefulPartitionedCall/sequential/gru/PartitionedCall/while/merge/_74", "StatefulPartitionedCall/sequential/gru/PartitionedCall/while/LoopCond/_80"], "attr": {"T": {"type": "DT_INT32"}}}, {"name": "StatefulPartitionedCall/sequential/gru/PartitionedCall/while/loop_body_control/_92", "op": "Identity", "input": ["StatefulPartitionedCall/sequential/gru/PartitionedCall/while/StatefulPartitionedCall/sequential/gru/PartitionedCall/while/loop_counter_switch/_81:1"], "attr": {"T": {"type": "DT_INT32"}}}, {"name": "StatefulPartitionedCall/sequential/gru/PartitionedCall/while/exit/_96", "op": "Exit", "input": ["StatefulPartitionedCall/sequential/gru/PartitionedCall/while/StatefulPartitionedCall/sequential/gru/PartitionedCall/TensorArrayV2_1_switch/_84"], "attr": {"T": {"type": "DT_VARIANT"}}}, {"name": "StatefulPartitionedCall/sequential/gru/PartitionedCall/while/body/_57/while/sub/x", "op": "Const", "input": ["^StatefulPartitionedCall/sequential/gru/PartitionedCall/while/loop_body_control/_92"], "attr": {"value": {"tensor": {"dtype": "DT_FLOAT", "tensorShape": {}}}, "dtype": {"type": "DT_FLOAT"}}}, {"name": "StatefulPartitionedCall/sequential/gru/PartitionedCall/while/body/_57/while/split/split_dim", "op": "Const", "input": ["^StatefulPartitionedCall/sequential/gru/PartitionedCall/while/loop_body_control/_92"], "attr": {"value": {"tensor": {"dtype": "DT_INT32", "tensorShape": {}}}, "dtype": {"type": "DT_INT32"}}}, {"name": "StatefulPartitionedCall/sequential/gru/PartitionedCall/while/next_iteration/_111", "op": "NextIteration", "input": ["StatefulPartitionedCall/sequential/gru/PartitionedCall/while/StatefulPartitionedCall/sequential/gru/PartitionedCall/TensorArrayUnstack/TensorListFromTensor_switch/_87:1", "^StatefulPartitionedCall/sequential/gru/PartitionedCall/while/loop_body_control/_92"], "attr": {"T": {"type": "DT_VARIANT"}}}, {"name": "StatefulPartitionedCall/sequential/gru/PartitionedCall/while/body/_57/while/TensorArrayV2Read/TensorListGetItem/element_shape", "op": "Const", "input": ["^StatefulPartitionedCall/sequential/gru/PartitionedCall/while/loop_body_control/_92"], "attr": {"value": {"tensor": {"dtype": "DT_INT32", "tensorShape": {"dim": [{"size": "2"}]}}}, "dtype": {"type": "DT_INT32"}}}, {"name": "StatefulPartitionedCall/sequential/gru/PartitionedCall/while/next_iteration/_112", "op": "NextIteration", "input": ["StatefulPartitionedCall/sequential/gru/PartitionedCall/while/Func/StatefulPartitionedCall/sequential/gru/PartitionedCall/input/_22_switch/_88:1", "^StatefulPartitionedCall/sequential/gru/PartitionedCall/while/loop_body_control/_92"], "attr": {"T": {"type": "DT_FLOAT"}}}, {"name": "StatefulPartitionedCall/sequential/gru/PartitionedCall/while/next_iteration/_113", "op": "NextIteration", "input": ["StatefulPartitionedCall/sequential/gru/PartitionedCall/while/StatefulPartitionedCall/sequential/gru/PartitionedCall/unstack_switch/_89:1", "^StatefulPartitionedCall/sequential/gru/PartitionedCall/while/loop_body_control/_92"], "attr": {"T": {"type": "DT_FLOAT"}}}, {"name": "StatefulPartitionedCall/sequential/gru/PartitionedCall/while/body/_57/while/split_1/split_dim", "op": "Const", "input": ["^StatefulPartitionedCall/sequential/gru/PartitionedCall/while/loop_body_control/_92"], "attr": {"value": {"tensor": {"dtype": "DT_INT32", "tensorShape": {}}}, "dtype": {"type": "DT_INT32"}}}, {"name": "StatefulPartitionedCall/sequential/gru/PartitionedCall/while/next_iteration/_114", "op": "NextIteration", "input": ["StatefulPartitionedCall/sequential/gru/PartitionedCall/while/Func/StatefulPartitionedCall/sequential/gru/PartitionedCall/input/_23_switch/_90:1", "^StatefulPartitionedCall/sequential/gru/PartitionedCall/while/loop_body_control/_92"], "attr": {"T": {"type": "DT_FLOAT"}}}, {"name": "StatefulPartitionedCall/sequential/gru/PartitionedCall/while/body/_57/while/MatMul_1", "op": "MatMul", "input": ["StatefulPartitionedCall/sequential/gru/PartitionedCall/while/Func/StatefulPartitionedCall/sequential/gru/PartitionedCall/input/_21_switch/_85:1", "StatefulPartitionedCall/sequential/gru/PartitionedCall/while/Func/StatefulPartitionedCall/sequential/gru/PartitionedCall/input/_23_switch/_90:1", "^StatefulPartitionedCall/sequential/gru/PartitionedCall/while/loop_body_control/_92"], "device": "/device:CPU:0", "attr": {"transpose_a": {"b": false}, "transpose_b": {"b": false}, "T": {"type": "DT_FLOAT"}}}, {"name": "StatefulPartitionedCall/sequential/gru/PartitionedCall/while/next_iteration/_115", "op": "NextIteration", "input": ["StatefulPartitionedCall/sequential/gru/PartitionedCall/while/StatefulPartitionedCall/sequential/gru/PartitionedCall/unstack_switch/_91:1", "^StatefulPartitionedCall/sequential/gru/PartitionedCall/while/loop_body_control/_92"], "attr": {"T": {"type": "DT_FLOAT"}}}, {"name": "Func/StatefulPartitionedCall/sequential/gru/PartitionedCall/while/body/_57/input/_312", "op": "Identity", "input": ["StatefulPartitionedCall/sequential/gru/PartitionedCall/while/StatefulPartitionedCall/sequential/gru/PartitionedCall/time_switch/_83:1", "^StatefulPartitionedCall/sequential/gru/PartitionedCall/while/loop_body_control/_92"], "attr": {"T": {"type": "DT_INT32"}}}, {"name": "StatefulPartitionedCall/sequential/gru/PartitionedCall/while/body/_57/while/add_4/y", "op": "Const", "input": ["^StatefulPartitionedCall/sequential/gru/PartitionedCall/while/loop_body_control/_92"], "attr": {"value": {"tensor": {"dtype": "DT_INT32", "tensorShape": {}}}, "dtype": {"type": "DT_INT32"}}}, {"name": "StatefulPartitionedCall/sequential/gru/PartitionedCall/while/body/_57/while/add_5/y", "op": "Const", "input": ["^StatefulPartitionedCall/sequential/gru/PartitionedCall/while/loop_body_control/_92"], "attr": {"value": {"tensor": {"dtype": "DT_INT32", "tensorShape": {}}}, "dtype": {"type": "DT_INT32"}}}, {"name": "StatefulPartitionedCall/sequential/gru/PartitionedCall/while/next_iteration/_110", "op": "NextIteration", "input": ["StatefulPartitionedCall/sequential/gru/PartitionedCall/while/StatefulPartitionedCall/sequential/gru/PartitionedCall/strided_slice_switch/_86:1", "^StatefulPartitionedCall/sequential/gru/PartitionedCall/while/loop_body_control/_92"], "attr": {"T": {"type": "DT_INT32"}}}, {"name": "StatefulPartitionedCall/sequential/gru/PartitionedCall/TensorArrayV2Stack/TensorListStack", "op": "TensorListStack", "input": ["StatefulPartitionedCall/sequential/gru/PartitionedCall/while/exit/_96", "StatefulPartitionedCall/sequential/gru/PartitionedCall/TensorArrayV2Stack/TensorListStack/element_shape"], "attr": {"num_elements": {"i": "-1"}, "element_dtype": {"type": "DT_FLOAT"}}}, {"name": "StatefulPartitionedCall/sequential/gru/PartitionedCall/while/body/_57/while/BiasAdd_1", "op": "BiasAdd", "input": ["StatefulPartitionedCall/sequential/gru/PartitionedCall/while/body/_57/while/MatMul_1", "StatefulPartitionedCall/sequential/gru/PartitionedCall/while/StatefulPartitionedCall/sequential/gru/PartitionedCall/unstack_switch/_91:1"], "attr": {"data_format": {"s": "TkhXQw=="}, "T": {"type": "DT_FLOAT"}}}, {"name": "StatefulPartitionedCall/sequential/gru/PartitionedCall/while/body/_57/while/TensorArrayV2Read/TensorListGetItem", "op": "TensorListGetItem", "input": ["StatefulPartitionedCall/sequential/gru/PartitionedCall/while/StatefulPartitionedCall/sequential/gru/PartitionedCall/TensorArrayUnstack/TensorListFromTensor_switch/_87:1", "Func/StatefulPartitionedCall/sequential/gru/PartitionedCall/while/body/_57/input/_312", "StatefulPartitionedCall/sequential/gru/PartitionedCall/while/body/_57/while/TensorArrayV2Read/TensorListGetItem/element_shape"], "attr": {"element_dtype": {"type": "DT_FLOAT"}}}, {"name": "StatefulPartitionedCall/sequential/gru/PartitionedCall/while/body/_57/while/add_4", "op": "AddV2", "input": ["Func/StatefulPartitionedCall/sequential/gru/PartitionedCall/while/body/_57/input/_312", "StatefulPartitionedCall/sequential/gru/PartitionedCall/while/body/_57/while/add_4/y"], "attr": {"T": {"type": "DT_INT32"}}}, {"name": "StatefulPartitionedCall/sequential/gru/PartitionedCall/while/body/_57/while/add_5", "op": "AddV2", "input": ["StatefulPartitionedCall/sequential/gru/PartitionedCall/while/StatefulPartitionedCall/sequential/gru/PartitionedCall/while/loop_counter_switch/_81:1", "StatefulPartitionedCall/sequential/gru/PartitionedCall/while/body/_57/while/add_5/y"], "attr": {"T": {"type": "DT_INT32"}}}, {"name": "StatefulPartitionedCall/sequential/gru_1/PartitionedCall/TensorArrayUnstack/TensorListFromTensor", "op": "TensorListFromTensor", "input": ["StatefulPartitionedCall/sequential/gru/PartitionedCall/TensorArrayV2Stack/TensorListStack", "StatefulPartitionedCall/sequential/gru_1/PartitionedCall/TensorArrayUnstack/TensorListFromTensor/element_shape"], "attr": {"shape_type": {"type": "DT_INT32"}, "element_dtype": {"type": "DT_FLOAT"}}}, {"name": "StatefulPartitionedCall/sequential/gru/PartitionedCall/transpose_1", "op": "Transpose", "input": ["StatefulPartitionedCall/sequential/gru/PartitionedCall/TensorArrayV2Stack/TensorListStack", "StatefulPartitionedCall/sequential/gru/PartitionedCall/transpose_1/perm"], "attr": {"Tperm": {"type": "DT_INT32"}, "T": {"type": "DT_FLOAT"}}}, {"name": "StatefulPartitionedCall/sequential/gru_1/PartitionedCall/Shape", "op": "Shape", "input": ["StatefulPartitionedCall/sequential/gru/PartitionedCall/TensorArrayV2Stack/TensorListStack"], "attr": {"T": {"type": "DT_FLOAT"}, "out_type": {"type": "DT_INT32"}}}, {"name": "StatefulPartitionedCall/sequential/gru/PartitionedCall/while/body/_57/while/split_1", "op": "Split", "input": ["StatefulPartitionedCall/sequential/gru/PartitionedCall/while/body/_57/while/split_1/split_dim", "StatefulPartitionedCall/sequential/gru/PartitionedCall/while/body/_57/while/BiasAdd_1"], "attr": {"num_split": {"i": "3"}, "T": {"type": "DT_FLOAT"}}}, {"name": "StatefulPartitionedCall/sequential/gru/PartitionedCall/while/body/_57/while/BiasAdd", "op": "_FusedMatMul", "input": ["StatefulPartitionedCall/sequential/gru/PartitionedCall/while/body/_57/while/TensorArrayV2Read/TensorListGetItem", "StatefulPartitionedCall/sequential/gru/PartitionedCall/while/Func/StatefulPartitionedCall/sequential/gru/PartitionedCall/input/_22_switch/_88:1", "StatefulPartitionedCall/sequential/gru/PartitionedCall/while/StatefulPartitionedCall/sequential/gru/PartitionedCall/unstack_switch/_89:1"], "device": "/device:CPU:0", "attr": {"num_args": {"i": "1"}, "epsilon": {"f": 0.0}, "fused_ops": {"list": {"s": ["Qmlhc0FkZA=="]}}, "transpose_a": {"b": false}, "transpose_b": {"b": false}, "T": {"type": "DT_FLOAT"}}}, {"name": "StatefulPartitionedCall/sequential/gru/PartitionedCall/while/next_iteration/_107", "op": "NextIteration", "input": ["StatefulPartitionedCall/sequential/gru/PartitionedCall/while/body/_57/while/add_4", "^StatefulPartitionedCall/sequential/gru/PartitionedCall/while/loop_body_control/_92"], "attr": {"T": {"type": "DT_INT32"}}}, {"name": "StatefulPartitionedCall/sequential/gru/PartitionedCall/while/next_iteration/_105", "op": "NextIteration", "input": ["StatefulPartitionedCall/sequential/gru/PartitionedCall/while/body/_57/while/add_5", "^StatefulPartitionedCall/sequential/gru/PartitionedCall/while/loop_body_control/_92"], "attr": {"T": {"type": "DT_INT32"}}}, {"name": "StatefulPartitionedCall/sequential/gru_1/PartitionedCall/while/enter/_124", "op": "Enter", "input": ["StatefulPartitionedCall/sequential/gru_1/PartitionedCall/TensorArrayUnstack/TensorListFromTensor"], "attr": {"is_constant": {"b": false}, "parallel_iterations": {"i": "32"}, "frame_name": {"s": "U3RhdGVmdWxQYXJ0aXRpb25lZENhbGwvc2VxdWVudGlhbC9ncnVfMS9QYXJ0aXRpb25lZENhbGwvd2hpbGU="}, "T": {"type": "DT_VARIANT"}}}, {"name": "StatefulPartitionedCall/sequential/gru_1/Shape", "op": "Shape", "input": ["StatefulPartitionedCall/sequential/gru/PartitionedCall/transpose_1"], "attr": {"T": {"type": "DT_FLOAT"}, "out_type": {"type": "DT_INT32"}}}, {"name": "StatefulPartitionedCall/sequential/gru_1/PartitionedCall/strided_slice", "op": "StridedSlice", "input": ["StatefulPartitionedCall/sequential/gru_1/PartitionedCall/Shape", "StatefulPartitionedCall/sequential/gru_1/PartitionedCall/strided_slice/stack", "StatefulPartitionedCall/sequential/gru_1/PartitionedCall/strided_slice/stack_1", "StatefulPartitionedCall/sequential/gru_1/PartitionedCall/strided_slice/stack_2"], "attr": {"shrink_axis_mask": {"i": "1"}, "ellipsis_mask": {"i": "0"}, "begin_mask": {"i": "0"}, "new_axis_mask": {"i": "0"}, "end_mask": {"i": "0"}, "T": {"type": "DT_INT32"}, "Index": {"type": "DT_INT32"}}}, {"name": "StatefulPartitionedCall/sequential/gru/PartitionedCall/while/body/_57/while/split", "op": "Split", "input": ["StatefulPartitionedCall/sequential/gru/PartitionedCall/while/body/_57/while/split/split_dim", "StatefulPartitionedCall/sequential/gru/PartitionedCall/while/body/_57/while/BiasAdd"], "attr": {"num_split": {"i": "3"}, "T": {"type": "DT_FLOAT"}}}, {"name": "StatefulPartitionedCall/sequential/gru_1/PartitionedCall/while/merge/_135", "op": "Merge", "input": ["StatefulPartitionedCall/sequential/gru_1/PartitionedCall/while/enter/_124", "StatefulPartitionedCall/sequential/gru_1/PartitionedCall/while/next_iteration/_171"], "attr": {"N": {"i": "2"}, "T": {"type": "DT_VARIANT"}}}, {"name": "StatefulPartitionedCall/sequential/gru_1/strided_slice", "op": "StridedSlice", "input": ["StatefulPartitionedCall/sequential/gru_1/Shape", "StatefulPartitionedCall/sequential/gru_1/strided_slice/stack", "StatefulPartitionedCall/sequential/gru_1/strided_slice/stack_1", "StatefulPartitionedCall/sequential/gru_1/strided_slice/stack_2"], "attr": {"end_mask": {"i": "0"}, "T": {"type": "DT_INT32"}, "Index": {"type": "DT_INT32"}, "shrink_axis_mask": {"i": "1"}, "begin_mask": {"i": "0"}, "ellipsis_mask": {"i": "0"}, "new_axis_mask": {"i": "0"}}}, {"name": "StatefulPartitionedCall/sequential/gru_1/PartitionedCall/TensorArrayV2_1", "op": "TensorListReserve", "input": ["StatefulPartitionedCall/sequential/gru_1/PartitionedCall/TensorArrayV2_1/element_shape", "StatefulPartitionedCall/sequential/gru_1/PartitionedCall/strided_slice"], "attr": {"shape_type": {"type": "DT_INT32"}, "element_dtype": {"type": "DT_FLOAT"}}}, {"name": "StatefulPartitionedCall/sequential/gru_1/PartitionedCall/while/enter/_123", "op": "Enter", "input": ["StatefulPartitionedCall/sequential/gru_1/PartitionedCall/strided_slice"], "attr": {"T": {"type": "DT_INT32"}, "is_constant": {"b": false}, "parallel_iterations": {"i": "32"}, "frame_name": {"s": "U3RhdGVmdWxQYXJ0aXRpb25lZENhbGwvc2VxdWVudGlhbC9ncnVfMS9QYXJ0aXRpb25lZENhbGwvd2hpbGU="}}}, {"name": "StatefulPartitionedCall/sequential/gru/PartitionedCall/while/body/_57/while/add", "op": "AddV2", "input": ["StatefulPartitionedCall/sequential/gru/PartitionedCall/while/body/_57/while/split", "StatefulPartitionedCall/sequential/gru/PartitionedCall/while/body/_57/while/split_1"], "attr": {"T": {"type": "DT_FLOAT"}}}, {"name": "StatefulPartitionedCall/sequential/gru/PartitionedCall/while/body/_57/while/add_1", "op": "AddV2", "input": ["StatefulPartitionedCall/sequential/gru/PartitionedCall/while/body/_57/while/split:1", "StatefulPartitionedCall/sequential/gru/PartitionedCall/while/body/_57/while/split_1:1"], "attr": {"T": {"type": "DT_FLOAT"}}}, {"name": "StatefulPartitionedCall/sequential/gru_1/zeros/packed", "op": "Pack", "input": ["StatefulPartitionedCall/sequential/gru_1/strided_slice", "StatefulPartitionedCall/sequential/gru_1/zeros/packed/1"], "attr": {"T": {"type": "DT_INT32"}, "axis": {"i": "0"}, "N": {"i": "2"}}}, {"name": "StatefulPartitionedCall/sequential/gru_1/PartitionedCall/while/enter/_121", "op": "Enter", "input": ["StatefulPartitionedCall/sequential/gru_1/PartitionedCall/TensorArrayV2_1"], "attr": {"parallel_iterations": {"i": "32"}, "frame_name": {"s": "U3RhdGVmdWxQYXJ0aXRpb25lZENhbGwvc2VxdWVudGlhbC9ncnVfMS9QYXJ0aXRpb25lZENhbGwvd2hpbGU="}, "T": {"type": "DT_VARIANT"}, "is_constant": {"b": false}}}, {"name": "StatefulPartitionedCall/sequential/gru_1/PartitionedCall/while/merge/_134", "op": "Merge", "input": ["StatefulPartitionedCall/sequential/gru_1/PartitionedCall/while/enter/_123", "StatefulPartitionedCall/sequential/gru_1/PartitionedCall/while/next_iteration/_170"], "attr": {"N": {"i": "2"}, "T": {"type": "DT_INT32"}}}, {"name": "StatefulPartitionedCall/sequential/gru/PartitionedCall/while/body/_57/while/Sigmoid", "op": "Sigmoid", "input": ["StatefulPartitionedCall/sequential/gru/PartitionedCall/while/body/_57/while/add"], "attr": {"T": {"type": "DT_FLOAT"}}}, {"name": "StatefulPartitionedCall/sequential/gru/PartitionedCall/while/body/_57/while/Sigmoid_1", "op": "Sigmoid", "input": ["StatefulPartitionedCall/sequential/gru/PartitionedCall/while/body/_57/while/add_1"], "attr": {"T": {"type": "DT_FLOAT"}}}, {"name": "StatefulPartitionedCall/sequential/gru_1/zeros", "op": "Fill", "input": ["StatefulPartitionedCall/sequential/gru_1/zeros/packed", "StatefulPartitionedCall/sequential/gru_1/zeros/Const"], "attr": {"T": {"type": "DT_FLOAT"}, "index_type": {"type": "DT_INT32"}}}, {"name": "StatefulPartitionedCall/sequential/gru_1/PartitionedCall/while/merge/_132", "op": "Merge", "input": ["StatefulPartitionedCall/sequential/gru_1/PartitionedCall/while/enter/_121", "StatefulPartitionedCall/sequential/gru_1/PartitionedCall/while/next_iteration/_168"], "attr": {"N": {"i": "2"}, "T": {"type": "DT_VARIANT"}}}, {"name": "StatefulPartitionedCall/sequential/gru_1/PartitionedCall/while/cond/_116/while/Less", "op": "Less", "input": ["StatefulPartitionedCall/sequential/gru_1/PartitionedCall/while/merge/_131", "StatefulPartitionedCall/sequential/gru_1/PartitionedCall/while/merge/_134", "^StatefulPartitionedCall/sequential/gru_1/PartitionedCall/while/merge/_129"], "attr": {"T": {"type": "DT_INT32"}}}, {"name": "StatefulPartitionedCall/sequential/gru/PartitionedCall/while/body/_57/while/mul_1", "op": "Mul", "input": ["StatefulPartitionedCall/sequential/gru/PartitionedCall/while/body/_57/while/Sigmoid", "StatefulPartitionedCall/sequential/gru/PartitionedCall/while/Func/StatefulPartitionedCall/sequential/gru/PartitionedCall/input/_21_switch/_85:1"], "attr": {"T": {"type": "DT_FLOAT"}}}, {"name": "StatefulPartitionedCall/sequential/gru/PartitionedCall/while/body/_57/while/sub", "op": "Sub", "input": ["StatefulPartitionedCall/sequential/gru/PartitionedCall/while/body/_57/while/sub/x", "StatefulPartitionedCall/sequential/gru/PartitionedCall/while/body/_57/while/Sigmoid"], "attr": {"T": {"type": "DT_FLOAT"}}}, {"name": "StatefulPartitionedCall/sequential/gru/PartitionedCall/while/body/_57/while/mul", "op": "Mul", "input": ["StatefulPartitionedCall/sequential/gru/PartitionedCall/while/body/_57/while/Sigmoid_1", "StatefulPartitionedCall/sequential/gru/PartitionedCall/while/body/_57/while/split_1:2"], "attr": {"T": {"type": "DT_FLOAT"}}}, {"name": "StatefulPartitionedCall/sequential/gru_1/PartitionedCall/while/enter/_122", "op": "Enter", "input": ["StatefulPartitionedCall/sequential/gru_1/zeros"], "attr": {"T": {"type": "DT_FLOAT"}, "is_constant": {"b": false}, "parallel_iterations": {"i": "32"}, "frame_name": {"s": "U3RhdGVmdWxQYXJ0aXRpb25lZENhbGwvc2VxdWVudGlhbC9ncnVfMS9QYXJ0aXRpb25lZENhbGwvd2hpbGU="}}}, {"name": "StatefulPartitionedCall/sequential/gru_1/PartitionedCall/while/LoopCond/_140", "op": "LoopCond", "input": ["StatefulPartitionedCall/sequential/gru_1/PartitionedCall/while/cond/_116/while/Less"]}, {"name": "StatefulPartitionedCall/sequential/gru/PartitionedCall/while/body/_57/while/add_2", "op": "AddV2", "input": ["StatefulPartitionedCall/sequential/gru/PartitionedCall/while/body/_57/while/split:2", "StatefulPartitionedCall/sequential/gru/PartitionedCall/while/body/_57/while/mul"], "attr": {"T": {"type": "DT_FLOAT"}}}, {"name": "StatefulPartitionedCall/sequential/gru_1/PartitionedCall/while/merge/_133", "op": "Merge", "input": ["StatefulPartitionedCall/sequential/gru_1/PartitionedCall/while/enter/_122", "StatefulPartitionedCall/sequential/gru_1/PartitionedCall/while/next_iteration/_169"], "attr": {"T": {"type": "DT_FLOAT"}, "N": {"i": "2"}}}, {"name": "StatefulPartitionedCall/sequential/gru_1/PartitionedCall/while/StatefulPartitionedCall/sequential/gru_1/PartitionedCall/TensorArrayUnstack/TensorListFromTensor_switch/_147", "op": "Switch", "input": ["StatefulPartitionedCall/sequential/gru_1/PartitionedCall/while/merge/_135", "StatefulPartitionedCall/sequential/gru_1/PartitionedCall/while/LoopCond/_140"], "attr": {"T": {"type": "DT_VARIANT"}}}, {"name": "StatefulPartitionedCall/sequential/gru_1/PartitionedCall/while/Func/StatefulPartitionedCall/sequential/gru_1/PartitionedCall/input/_31_switch/_148", "op": "Switch", "input": ["StatefulPartitionedCall/sequential/gru_1/PartitionedCall/while/merge/_136", "StatefulPartitionedCall/sequential/gru_1/PartitionedCall/while/LoopCond/_140"], "attr": {"T": {"type": "DT_FLOAT"}}}, {"name": "StatefulPartitionedCall/sequential/gru_1/PartitionedCall/while/StatefulPartitionedCall/sequential/gru_1/PartitionedCall/unstack_switch/_149", "op": "Switch", "input": ["StatefulPartitionedCall/sequential/gru_1/PartitionedCall/while/merge/_137", "StatefulPartitionedCall/sequential/gru_1/PartitionedCall/while/LoopCond/_140"], "attr": {"T": {"type": "DT_FLOAT"}}}, {"name": "StatefulPartitionedCall/sequential/gru_1/PartitionedCall/while/Func/StatefulPartitionedCall/sequential/gru_1/PartitionedCall/input/_32_switch/_150", "op": "Switch", "input": ["StatefulPartitionedCall/sequential/gru_1/PartitionedCall/while/merge/_138", "StatefulPartitionedCall/sequential/gru_1/PartitionedCall/while/LoopCond/_140"], "attr": {"T": {"type": "DT_FLOAT"}}}, {"name": "StatefulPartitionedCall/sequential/gru_1/PartitionedCall/while/StatefulPartitionedCall/sequential/gru_1/PartitionedCall/unstack_switch/_151", "op": "Switch", "input": ["StatefulPartitionedCall/sequential/gru_1/PartitionedCall/while/merge/_139", "StatefulPartitionedCall/sequential/gru_1/PartitionedCall/while/LoopCond/_140"], "attr": {"T": {"type": "DT_FLOAT"}}}, {"name": "StatefulPartitionedCall/sequential/gru_1/PartitionedCall/while/StatefulPartitionedCall/sequential/gru_1/PartitionedCall/time_switch/_143", "op": "Switch", "input": ["StatefulPartitionedCall/sequential/gru_1/PartitionedCall/while/merge/_131", "StatefulPartitionedCall/sequential/gru_1/PartitionedCall/while/LoopCond/_140"], "attr": {"T": {"type": "DT_INT32"}}}, {"name": "StatefulPartitionedCall/sequential/gru_1/PartitionedCall/while/StatefulPartitionedCall/sequential/gru_1/PartitionedCall/while/loop_counter_switch/_141", "op": "Switch", "input": ["StatefulPartitionedCall/sequential/gru_1/PartitionedCall/while/merge/_129", "StatefulPartitionedCall/sequential/gru_1/PartitionedCall/while/LoopCond/_140"], "attr": {"T": {"type": "DT_INT32"}}}, {"name": "StatefulPartitionedCall/sequential/gru_1/PartitionedCall/while/StatefulPartitionedCall/sequential/gru_1/PartitionedCall/TensorArrayV2_1_switch/_144", "op": "Switch", "input": ["StatefulPartitionedCall/sequential/gru_1/PartitionedCall/while/merge/_132", "StatefulPartitionedCall/sequential/gru_1/PartitionedCall/while/LoopCond/_140"], "attr": {"T": {"type": "DT_VARIANT"}}}, {"name": "StatefulPartitionedCall/sequential/gru_1/PartitionedCall/while/StatefulPartitionedCall/sequential/gru_1/PartitionedCall/strided_slice_switch/_146", "op": "Switch", "input": ["StatefulPartitionedCall/sequential/gru_1/PartitionedCall/while/merge/_134", "StatefulPartitionedCall/sequential/gru_1/PartitionedCall/while/LoopCond/_140"], "attr": {"T": {"type": "DT_INT32"}}}, {"name": "StatefulPartitionedCall/sequential/gru/PartitionedCall/while/body/_57/while/Tanh", "op": "Tanh", "input": ["StatefulPartitionedCall/sequential/gru/PartitionedCall/while/body/_57/while/add_2"], "attr": {"T": {"type": "DT_FLOAT"}}}, {"name": "StatefulPartitionedCall/sequential/gru_1/PartitionedCall/while/Func/StatefulPartitionedCall/sequential/gru_1/PartitionedCall/input/_30_switch/_145", "op": "Switch", "input": ["StatefulPartitionedCall/sequential/gru_1/PartitionedCall/while/merge/_133", "StatefulPartitionedCall/sequential/gru_1/PartitionedCall/while/LoopCond/_140"], "attr": {"T": {"type": "DT_FLOAT"}}}, {"name": "StatefulPartitionedCall/sequential/gru_1/PartitionedCall/while/loop_body_control/_152", "op": "Identity", "input": ["StatefulPartitionedCall/sequential/gru_1/PartitionedCall/while/StatefulPartitionedCall/sequential/gru_1/PartitionedCall/while/loop_counter_switch/_141:1"], "attr": {"T": {"type": "DT_INT32"}}}, {"name": "StatefulPartitionedCall/sequential/gru_1/PartitionedCall/while/exit/_156", "op": "Exit", "input": ["StatefulPartitionedCall/sequential/gru_1/PartitionedCall/while/StatefulPartitionedCall/sequential/gru_1/PartitionedCall/TensorArrayV2_1_switch/_144"], "attr": {"T": {"type": "DT_VARIANT"}}}, {"name": "StatefulPartitionedCall/sequential/gru/PartitionedCall/while/body/_57/while/mul_2", "op": "Mul", "input": ["StatefulPartitionedCall/sequential/gru/PartitionedCall/while/body/_57/while/sub", "StatefulPartitionedCall/sequential/gru/PartitionedCall/while/body/_57/while/Tanh"], "attr": {"T": {"type": "DT_FLOAT"}}}, {"name": "StatefulPartitionedCall/sequential/gru_1/PartitionedCall/while/body/_117/while/sub/x", "op": "Const", "input": ["^StatefulPartitionedCall/sequential/gru_1/PartitionedCall/while/loop_body_control/_152"], "attr": {"value": {"tensor": {"dtype": "DT_FLOAT", "tensorShape": {}}}, "dtype": {"type": "DT_FLOAT"}}}, {"name": "StatefulPartitionedCall/sequential/gru_1/PartitionedCall/while/body/_117/while/split/split_dim", "op": "Const", "input": ["^StatefulPartitionedCall/sequential/gru_1/PartitionedCall/while/loop_body_control/_152"], "attr": {"value": {"tensor": {"dtype": "DT_INT32", "tensorShape": {}}}, "dtype": {"type": "DT_INT32"}}}, {"name": "StatefulPartitionedCall/sequential/gru_1/PartitionedCall/while/next_iteration/_171", "op": "NextIteration", "input": ["StatefulPartitionedCall/sequential/gru_1/PartitionedCall/while/StatefulPartitionedCall/sequential/gru_1/PartitionedCall/TensorArrayUnstack/TensorListFromTensor_switch/_147:1", "^StatefulPartitionedCall/sequential/gru_1/PartitionedCall/while/loop_body_control/_152"], "attr": {"T": {"type": "DT_VARIANT"}}}, {"name": "StatefulPartitionedCall/sequential/gru_1/PartitionedCall/while/body/_117/while/TensorArrayV2Read/TensorListGetItem/element_shape", "op": "Const", "input": ["^StatefulPartitionedCall/sequential/gru_1/PartitionedCall/while/loop_body_control/_152"], "attr": {"dtype": {"type": "DT_INT32"}, "value": {"tensor": {"dtype": "DT_INT32", "tensorShape": {"dim": [{"size": "2"}]}}}}}, {"name": "StatefulPartitionedCall/sequential/gru_1/PartitionedCall/while/next_iteration/_172", "op": "NextIteration", "input": ["StatefulPartitionedCall/sequential/gru_1/PartitionedCall/while/Func/StatefulPartitionedCall/sequential/gru_1/PartitionedCall/input/_31_switch/_148:1", "^StatefulPartitionedCall/sequential/gru_1/PartitionedCall/while/loop_body_control/_152"], "attr": {"T": {"type": "DT_FLOAT"}}}, {"name": "StatefulPartitionedCall/sequential/gru_1/PartitionedCall/while/next_iteration/_173", "op": "NextIteration", "input": ["StatefulPartitionedCall/sequential/gru_1/PartitionedCall/while/StatefulPartitionedCall/sequential/gru_1/PartitionedCall/unstack_switch/_149:1", "^StatefulPartitionedCall/sequential/gru_1/PartitionedCall/while/loop_body_control/_152"], "attr": {"T": {"type": "DT_FLOAT"}}}, {"name": "StatefulPartitionedCall/sequential/gru_1/PartitionedCall/while/body/_117/while/split_1/split_dim", "op": "Const", "input": ["^StatefulPartitionedCall/sequential/gru_1/PartitionedCall/while/loop_body_control/_152"], "attr": {"value": {"tensor": {"dtype": "DT_INT32", "tensorShape": {}}}, "dtype": {"type": "DT_INT32"}}}, {"name": "StatefulPartitionedCall/sequential/gru_1/PartitionedCall/while/next_iteration/_174", "op": "NextIteration", "input": ["StatefulPartitionedCall/sequential/gru_1/PartitionedCall/while/Func/StatefulPartitionedCall/sequential/gru_1/PartitionedCall/input/_32_switch/_150:1", "^StatefulPartitionedCall/sequential/gru_1/PartitionedCall/while/loop_body_control/_152"], "attr": {"T": {"type": "DT_FLOAT"}}}, {"name": "StatefulPartitionedCall/sequential/gru_1/PartitionedCall/while/next_iteration/_175", "op": "NextIteration", "input": ["StatefulPartitionedCall/sequential/gru_1/PartitionedCall/while/StatefulPartitionedCall/sequential/gru_1/PartitionedCall/unstack_switch/_151:1", "^StatefulPartitionedCall/sequential/gru_1/PartitionedCall/while/loop_body_control/_152"], "attr": {"T": {"type": "DT_FLOAT"}}}, {"name": "Func/StatefulPartitionedCall/sequential/gru_1/PartitionedCall/while/body/_117/input/_349", "op": "Identity", "input": ["StatefulPartitionedCall/sequential/gru_1/PartitionedCall/while/StatefulPartitionedCall/sequential/gru_1/PartitionedCall/time_switch/_143:1", "^StatefulPartitionedCall/sequential/gru_1/PartitionedCall/while/loop_body_control/_152"], "attr": {"T": {"type": "DT_INT32"}}}, {"name": "StatefulPartitionedCall/sequential/gru_1/PartitionedCall/while/body/_117/while/add_4/y", "op": "Const", "input": ["^StatefulPartitionedCall/sequential/gru_1/PartitionedCall/while/loop_body_control/_152"], "attr": {"value": {"tensor": {"dtype": "DT_INT32", "tensorShape": {}}}, "dtype": {"type": "DT_INT32"}}}, {"name": "StatefulPartitionedCall/sequential/gru_1/PartitionedCall/while/body/_117/while/add_5/y", "op": "Const", "input": ["^StatefulPartitionedCall/sequential/gru_1/PartitionedCall/while/loop_body_control/_152"], "attr": {"value": {"tensor": {"dtype": "DT_INT32", "tensorShape": {}}}, "dtype": {"type": "DT_INT32"}}}, {"name": "StatefulPartitionedCall/sequential/gru_1/PartitionedCall/while/body/_117/while/MatMul_1", "op": "MatMul", "input": ["StatefulPartitionedCall/sequential/gru_1/PartitionedCall/while/Func/StatefulPartitionedCall/sequential/gru_1/PartitionedCall/input/_30_switch/_145:1", "StatefulPartitionedCall/sequential/gru_1/PartitionedCall/while/Func/StatefulPartitionedCall/sequential/gru_1/PartitionedCall/input/_32_switch/_150:1", "^StatefulPartitionedCall/sequential/gru_1/PartitionedCall/while/loop_body_control/_152"], "device": "/device:CPU:0", "attr": {"T": {"type": "DT_FLOAT"}, "transpose_a": {"b": false}, "transpose_b": {"b": false}}}, {"name": "StatefulPartitionedCall/sequential/gru_1/PartitionedCall/while/next_iteration/_170", "op": "NextIteration", "input": ["StatefulPartitionedCall/sequential/gru_1/PartitionedCall/while/StatefulPartitionedCall/sequential/gru_1/PartitionedCall/strided_slice_switch/_146:1", "^StatefulPartitionedCall/sequential/gru_1/PartitionedCall/while/loop_body_control/_152"], "attr": {"T": {"type": "DT_INT32"}}}, {"name": "StatefulPartitionedCall/sequential/gru_1/PartitionedCall/TensorArrayV2Stack/TensorListStack", "op": "TensorListStack", "input": ["StatefulPartitionedCall/sequential/gru_1/PartitionedCall/while/exit/_156", "StatefulPartitionedCall/sequential/gru_1/PartitionedCall/TensorArrayV2Stack/TensorListStack/element_shape"], "attr": {"num_elements": {"i": "-1"}, "element_dtype": {"type": "DT_FLOAT"}}}, {"name": "StatefulPartitionedCall/sequential/gru/PartitionedCall/while/body/_57/while/add_3", "op": "AddV2", "input": ["StatefulPartitionedCall/sequential/gru/PartitionedCall/while/body/_57/while/mul_1", "StatefulPartitionedCall/sequential/gru/PartitionedCall/while/body/_57/while/mul_2"], "attr": {"T": {"type": "DT_FLOAT"}}}, {"name": "StatefulPartitionedCall/sequential/gru_1/PartitionedCall/while/body/_117/while/TensorArrayV2Read/TensorListGetItem", "op": "TensorListGetItem", "input": ["StatefulPartitionedCall/sequential/gru_1/PartitionedCall/while/StatefulPartitionedCall/sequential/gru_1/PartitionedCall/TensorArrayUnstack/TensorListFromTensor_switch/_147:1", "Func/StatefulPartitionedCall/sequential/gru_1/PartitionedCall/while/body/_117/input/_349", "StatefulPartitionedCall/sequential/gru_1/PartitionedCall/while/body/_117/while/TensorArrayV2Read/TensorListGetItem/element_shape"], "attr": {"element_dtype": {"type": "DT_FLOAT"}}}, {"name": "StatefulPartitionedCall/sequential/gru_1/PartitionedCall/while/body/_117/while/add_4", "op": "AddV2", "input": ["Func/StatefulPartitionedCall/sequential/gru_1/PartitionedCall/while/body/_117/input/_349", "StatefulPartitionedCall/sequential/gru_1/PartitionedCall/while/body/_117/while/add_4/y"], "attr": {"T": {"type": "DT_INT32"}}}, {"name": "StatefulPartitionedCall/sequential/gru_1/PartitionedCall/while/body/_117/while/add_5", "op": "AddV2", "input": ["StatefulPartitionedCall/sequential/gru_1/PartitionedCall/while/StatefulPartitionedCall/sequential/gru_1/PartitionedCall/while/loop_counter_switch/_141:1", "StatefulPartitionedCall/sequential/gru_1/PartitionedCall/while/body/_117/while/add_5/y"], "attr": {"T": {"type": "DT_INT32"}}}, {"name": "StatefulPartitionedCall/sequential/gru_1/PartitionedCall/while/body/_117/while/BiasAdd_1", "op": "BiasAdd", "input": ["StatefulPartitionedCall/sequential/gru_1/PartitionedCall/while/body/_117/while/MatMul_1", "StatefulPartitionedCall/sequential/gru_1/PartitionedCall/while/StatefulPartitionedCall/sequential/gru_1/PartitionedCall/unstack_switch/_151:1"], "attr": {"data_format": {"s": "TkhXQw=="}, "T": {"type": "DT_FLOAT"}}}, {"name": "StatefulPartitionedCall/sequential/gru_2/PartitionedCall/TensorArrayUnstack/TensorListFromTensor", "op": "TensorListFromTensor", "input": ["StatefulPartitionedCall/sequential/gru_1/PartitionedCall/TensorArrayV2Stack/TensorListStack", "StatefulPartitionedCall/sequential/gru_2/PartitionedCall/TensorArrayUnstack/TensorListFromTensor/element_shape"], "attr": {"shape_type": {"type": "DT_INT32"}, "element_dtype": {"type": "DT_FLOAT"}}}, {"name": "StatefulPartitionedCall/sequential/gru_1/PartitionedCall/transpose_1", "op": "Transpose", "input": ["StatefulPartitionedCall/sequential/gru_1/PartitionedCall/TensorArrayV2Stack/TensorListStack", "StatefulPartitionedCall/sequential/gru_1/PartitionedCall/transpose_1/perm"], "attr": {"T": {"type": "DT_FLOAT"}, "Tperm": {"type": "DT_INT32"}}}, {"name": "StatefulPartitionedCall/sequential/gru_2/PartitionedCall/Shape", "op": "Shape", "input": ["StatefulPartitionedCall/sequential/gru_1/PartitionedCall/TensorArrayV2Stack/TensorListStack"], "attr": {"T": {"type": "DT_FLOAT"}, "out_type": {"type": "DT_INT32"}}}, {"name": "StatefulPartitionedCall/sequential/gru/PartitionedCall/while/next_iteration/_109", "op": "NextIteration", "input": ["StatefulPartitionedCall/sequential/gru/PartitionedCall/while/body/_57/while/add_3", "^StatefulPartitionedCall/sequential/gru/PartitionedCall/while/loop_body_control/_92"], "attr": {"T": {"type": "DT_FLOAT"}}}, {"name": "StatefulPartitionedCall/sequential/gru/PartitionedCall/while/body/_57/while/TensorArrayV2Write/TensorListSetItem", "op": "TensorListSetItem", "input": ["StatefulPartitionedCall/sequential/gru/PartitionedCall/while/StatefulPartitionedCall/sequential/gru/PartitionedCall/TensorArrayV2_1_switch/_84:1", "Func/StatefulPartitionedCall/sequential/gru/PartitionedCall/while/body/_57/input/_312", "StatefulPartitionedCall/sequential/gru/PartitionedCall/while/body/_57/while/add_3"], "attr": {"element_dtype": {"type": "DT_FLOAT"}}}, {"name": "StatefulPartitionedCall/sequential/gru_1/PartitionedCall/while/body/_117/while/BiasAdd", "op": "_FusedMatMul", "input": ["StatefulPartitionedCall/sequential/gru_1/PartitionedCall/while/body/_117/while/TensorArrayV2Read/TensorListGetItem", "StatefulPartitionedCall/sequential/gru_1/PartitionedCall/while/Func/StatefulPartitionedCall/sequential/gru_1/PartitionedCall/input/_31_switch/_148:1", "StatefulPartitionedCall/sequential/gru_1/PartitionedCall/while/StatefulPartitionedCall/sequential/gru_1/PartitionedCall/unstack_switch/_149:1"], "device": "/device:CPU:0", "attr": {"T": {"type": "DT_FLOAT"}, "num_args": {"i": "1"}, "epsilon": {"f": 0.0}, "fused_ops": {"list": {"s": ["Qmlhc0FkZA=="]}}, "transpose_a": {"b": false}, "transpose_b": {"b": false}}}, {"name": "StatefulPartitionedCall/sequential/gru_1/PartitionedCall/while/next_iteration/_167", "op": "NextIteration", "input": ["StatefulPartitionedCall/sequential/gru_1/PartitionedCall/while/body/_117/while/add_4", "^StatefulPartitionedCall/sequential/gru_1/PartitionedCall/while/loop_body_control/_152"], "attr": {"T": {"type": "DT_INT32"}}}, {"name": "StatefulPartitionedCall/sequential/gru_1/PartitionedCall/while/next_iteration/_165", "op": "NextIteration", "input": ["StatefulPartitionedCall/sequential/gru_1/PartitionedCall/while/body/_117/while/add_5", "^StatefulPartitionedCall/sequential/gru_1/PartitionedCall/while/loop_body_control/_152"], "attr": {"T": {"type": "DT_INT32"}}}, {"name": "StatefulPartitionedCall/sequential/gru_1/PartitionedCall/while/body/_117/while/split_1", "op": "Split", "input": ["StatefulPartitionedCall/sequential/gru_1/PartitionedCall/while/body/_117/while/split_1/split_dim", "StatefulPartitionedCall/sequential/gru_1/PartitionedCall/while/body/_117/while/BiasAdd_1"], "attr": {"T": {"type": "DT_FLOAT"}, "num_split": {"i": "3"}}}, {"name": "StatefulPartitionedCall/sequential/gru_2/PartitionedCall/while/enter/_184", "op": "Enter", "input": ["StatefulPartitionedCall/sequential/gru_2/PartitionedCall/TensorArrayUnstack/TensorListFromTensor"], "attr": {"parallel_iterations": {"i": "32"}, "frame_name": {"s": "U3RhdGVmdWxQYXJ0aXRpb25lZENhbGwvc2VxdWVudGlhbC9ncnVfMi9QYXJ0aXRpb25lZENhbGwvd2hpbGU="}, "T": {"type": "DT_VARIANT"}, "is_constant": {"b": false}}}, {"name": "StatefulPartitionedCall/sequential/gru_2/Shape", "op": "Shape", "input": ["StatefulPartitionedCall/sequential/gru_1/PartitionedCall/transpose_1"], "attr": {"out_type": {"type": "DT_INT32"}, "T": {"type": "DT_FLOAT"}}}, {"name": "StatefulPartitionedCall/sequential/gru_2/PartitionedCall/strided_slice", "op": "StridedSlice", "input": ["StatefulPartitionedCall/sequential/gru_2/PartitionedCall/Shape", "StatefulPartitionedCall/sequential/gru_2/PartitionedCall/strided_slice/stack", "StatefulPartitionedCall/sequential/gru_2/PartitionedCall/strided_slice/stack_1", "StatefulPartitionedCall/sequential/gru_2/PartitionedCall/strided_slice/stack_2"], "attr": {"ellipsis_mask": {"i": "0"}, "begin_mask": {"i": "0"}, "new_axis_mask": {"i": "0"}, "end_mask": {"i": "0"}, "T": {"type": "DT_INT32"}, "Index": {"type": "DT_INT32"}, "shrink_axis_mask": {"i": "1"}}}, {"name": "StatefulPartitionedCall/sequential/gru/PartitionedCall/while/next_iteration/_108", "op": "NextIteration", "input": ["StatefulPartitionedCall/sequential/gru/PartitionedCall/while/body/_57/while/TensorArrayV2Write/TensorListSetItem", "^StatefulPartitionedCall/sequential/gru/PartitionedCall/while/loop_body_control/_92"], "attr": {"T": {"type": "DT_VARIANT"}}}, {"name": "StatefulPartitionedCall/sequential/gru_1/PartitionedCall/while/body/_117/while/split", "op": "Split", "input": ["StatefulPartitionedCall/sequential/gru_1/PartitionedCall/while/body/_117/while/split/split_dim", "StatefulPartitionedCall/sequential/gru_1/PartitionedCall/while/body/_117/while/BiasAdd"], "attr": {"T": {"type": "DT_FLOAT"}, "num_split": {"i": "3"}}}, {"name": "StatefulPartitionedCall/sequential/gru_2/PartitionedCall/while/merge/_195", "op": "Merge", "input": ["StatefulPartitionedCall/sequential/gru_2/PartitionedCall/while/enter/_184", "StatefulPartitionedCall/sequential/gru_2/PartitionedCall/while/next_iteration/_231"], "attr": {"T": {"type": "DT_VARIANT"}, "N": {"i": "2"}}}, {"name": "StatefulPartitionedCall/sequential/gru_2/strided_slice", "op": "StridedSlice", "input": ["StatefulPartitionedCall/sequential/gru_2/Shape", "StatefulPartitionedCall/sequential/gru_2/strided_slice/stack", "StatefulPartitionedCall/sequential/gru_2/strided_slice/stack_1", "StatefulPartitionedCall/sequential/gru_2/strided_slice/stack_2"], "attr": {"shrink_axis_mask": {"i": "1"}, "begin_mask": {"i": "0"}, "ellipsis_mask": {"i": "0"}, "new_axis_mask": {"i": "0"}, "end_mask": {"i": "0"}, "Index": {"type": "DT_INT32"}, "T": {"type": "DT_INT32"}}}, {"name": "StatefulPartitionedCall/sequential/gru_2/PartitionedCall/TensorArrayV2_1", "op": "TensorListReserve", "input": ["StatefulPartitionedCall/sequential/gru_2/PartitionedCall/TensorArrayV2_1/element_shape", "StatefulPartitionedCall/sequential/gru_2/PartitionedCall/strided_slice"], "attr": {"shape_type": {"type": "DT_INT32"}, "element_dtype": {"type": "DT_FLOAT"}}}, {"name": "StatefulPartitionedCall/sequential/gru_2/PartitionedCall/while/enter/_183", "op": "Enter", "input": ["StatefulPartitionedCall/sequential/gru_2/PartitionedCall/strided_slice"], "attr": {"T": {"type": "DT_INT32"}, "is_constant": {"b": false}, "parallel_iterations": {"i": "32"}, "frame_name": {"s": "U3RhdGVmdWxQYXJ0aXRpb25lZENhbGwvc2VxdWVudGlhbC9ncnVfMi9QYXJ0aXRpb25lZENhbGwvd2hpbGU="}}}, {"name": "StatefulPartitionedCall/sequential/gru_1/PartitionedCall/while/body/_117/while/add", "op": "AddV2", "input": ["StatefulPartitionedCall/sequential/gru_1/PartitionedCall/while/body/_117/while/split", "StatefulPartitionedCall/sequential/gru_1/PartitionedCall/while/body/_117/while/split_1"], "attr": {"T": {"type": "DT_FLOAT"}}}, {"name": "StatefulPartitionedCall/sequential/gru_1/PartitionedCall/while/body/_117/while/add_1", "op": "AddV2", "input": ["StatefulPartitionedCall/sequential/gru_1/PartitionedCall/while/body/_117/while/split:1", "StatefulPartitionedCall/sequential/gru_1/PartitionedCall/while/body/_117/while/split_1:1"], "attr": {"T": {"type": "DT_FLOAT"}}}, {"name": "StatefulPartitionedCall/sequential/gru_2/zeros/packed", "op": "Pack", "input": ["StatefulPartitionedCall/sequential/gru_2/strided_slice", "StatefulPartitionedCall/sequential/gru_2/zeros/packed/1"], "attr": {"axis": {"i": "0"}, "N": {"i": "2"}, "T": {"type": "DT_INT32"}}}, {"name": "StatefulPartitionedCall/sequential/gru_2/PartitionedCall/while/enter/_181", "op": "Enter", "input": ["StatefulPartitionedCall/sequential/gru_2/PartitionedCall/TensorArrayV2_1"], "attr": {"T": {"type": "DT_VARIANT"}, "is_constant": {"b": false}, "parallel_iterations": {"i": "32"}, "frame_name": {"s": "U3RhdGVmdWxQYXJ0aXRpb25lZENhbGwvc2VxdWVudGlhbC9ncnVfMi9QYXJ0aXRpb25lZENhbGwvd2hpbGU="}}}, {"name": "StatefulPartitionedCall/sequential/gru_2/PartitionedCall/while/merge/_194", "op": "Merge", "input": ["StatefulPartitionedCall/sequential/gru_2/PartitionedCall/while/enter/_183", "StatefulPartitionedCall/sequential/gru_2/PartitionedCall/while/next_iteration/_230"], "attr": {"T": {"type": "DT_INT32"}, "N": {"i": "2"}}}, {"name": "StatefulPartitionedCall/sequential/gru_1/PartitionedCall/while/body/_117/while/Sigmoid", "op": "Sigmoid", "input": ["StatefulPartitionedCall/sequential/gru_1/PartitionedCall/while/body/_117/while/add"], "attr": {"T": {"type": "DT_FLOAT"}}}, {"name": "StatefulPartitionedCall/sequential/gru_1/PartitionedCall/while/body/_117/while/Sigmoid_1", "op": "Sigmoid", "input": ["StatefulPartitionedCall/sequential/gru_1/PartitionedCall/while/body/_117/while/add_1"], "attr": {"T": {"type": "DT_FLOAT"}}}, {"name": "StatefulPartitionedCall/sequential/gru_2/zeros", "op": "Fill", "input": ["StatefulPartitionedCall/sequential/gru_2/zeros/packed", "StatefulPartitionedCall/sequential/gru_2/zeros/Const"], "attr": {"T": {"type": "DT_FLOAT"}, "index_type": {"type": "DT_INT32"}}}, {"name": "StatefulPartitionedCall/sequential/gru_2/PartitionedCall/while/merge/_192", "op": "Merge", "input": ["StatefulPartitionedCall/sequential/gru_2/PartitionedCall/while/enter/_181", "StatefulPartitionedCall/sequential/gru_2/PartitionedCall/while/next_iteration/_228"], "attr": {"N": {"i": "2"}, "T": {"type": "DT_VARIANT"}}}, {"name": "StatefulPartitionedCall/sequential/gru_2/PartitionedCall/while/cond/_176/while/Less", "op": "Less", "input": ["StatefulPartitionedCall/sequential/gru_2/PartitionedCall/while/merge/_191", "StatefulPartitionedCall/sequential/gru_2/PartitionedCall/while/merge/_194", "^StatefulPartitionedCall/sequential/gru_2/PartitionedCall/while/merge/_189"], "attr": {"T": {"type": "DT_INT32"}}}, {"name": "StatefulPartitionedCall/sequential/gru_1/PartitionedCall/while/body/_117/while/sub", "op": "Sub", "input": ["StatefulPartitionedCall/sequential/gru_1/PartitionedCall/while/body/_117/while/sub/x", "StatefulPartitionedCall/sequential/gru_1/PartitionedCall/while/body/_117/while/Sigmoid"], "attr": {"T": {"type": "DT_FLOAT"}}}, {"name": "StatefulPartitionedCall/sequential/gru_1/PartitionedCall/while/body/_117/while/mul_1", "op": "Mul", "input": ["StatefulPartitionedCall/sequential/gru_1/PartitionedCall/while/body/_117/while/Sigmoid", "StatefulPartitionedCall/sequential/gru_1/PartitionedCall/while/Func/StatefulPartitionedCall/sequential/gru_1/PartitionedCall/input/_30_switch/_145:1"], "attr": {"T": {"type": "DT_FLOAT"}}}, {"name": "StatefulPartitionedCall/sequential/gru_1/PartitionedCall/while/body/_117/while/mul", "op": "Mul", "input": ["StatefulPartitionedCall/sequential/gru_1/PartitionedCall/while/body/_117/while/Sigmoid_1", "StatefulPartitionedCall/sequential/gru_1/PartitionedCall/while/body/_117/while/split_1:2"], "attr": {"T": {"type": "DT_FLOAT"}}}, {"name": "StatefulPartitionedCall/sequential/gru_2/PartitionedCall/while/enter/_182", "op": "Enter", "input": ["StatefulPartitionedCall/sequential/gru_2/zeros"], "attr": {"T": {"type": "DT_FLOAT"}, "is_constant": {"b": false}, "parallel_iterations": {"i": "32"}, "frame_name": {"s": "U3RhdGVmdWxQYXJ0aXRpb25lZENhbGwvc2VxdWVudGlhbC9ncnVfMi9QYXJ0aXRpb25lZENhbGwvd2hpbGU="}}}, {"name": "StatefulPartitionedCall/sequential/gru_2/PartitionedCall/while/LoopCond/_200", "op": "LoopCond", "input": ["StatefulPartitionedCall/sequential/gru_2/PartitionedCall/while/cond/_176/while/Less"]}, {"name": "StatefulPartitionedCall/sequential/gru_1/PartitionedCall/while/body/_117/while/add_2", "op": "AddV2", "input": ["StatefulPartitionedCall/sequential/gru_1/PartitionedCall/while/body/_117/while/split:2", "StatefulPartitionedCall/sequential/gru_1/PartitionedCall/while/body/_117/while/mul"], "attr": {"T": {"type": "DT_FLOAT"}}}, {"name": "StatefulPartitionedCall/sequential/gru_2/PartitionedCall/while/merge/_193", "op": "Merge", "input": ["StatefulPartitionedCall/sequential/gru_2/PartitionedCall/while/enter/_182", "StatefulPartitionedCall/sequential/gru_2/PartitionedCall/while/next_iteration/_229"], "attr": {"T": {"type": "DT_FLOAT"}, "N": {"i": "2"}}}, {"name": "StatefulPartitionedCall/sequential/gru_2/PartitionedCall/while/StatefulPartitionedCall/sequential/gru_2/PartitionedCall/TensorArrayUnstack/TensorListFromTensor_switch/_207", "op": "Switch", "input": ["StatefulPartitionedCall/sequential/gru_2/PartitionedCall/while/merge/_195", "StatefulPartitionedCall/sequential/gru_2/PartitionedCall/while/LoopCond/_200"], "attr": {"T": {"type": "DT_VARIANT"}}}, {"name": "StatefulPartitionedCall/sequential/gru_2/PartitionedCall/while/Func/StatefulPartitionedCall/sequential/gru_2/PartitionedCall/input/_40_switch/_208", "op": "Switch", "input": ["StatefulPartitionedCall/sequential/gru_2/PartitionedCall/while/merge/_196", "StatefulPartitionedCall/sequential/gru_2/PartitionedCall/while/LoopCond/_200"], "attr": {"T": {"type": "DT_FLOAT"}}}, {"name": "StatefulPartitionedCall/sequential/gru_2/PartitionedCall/while/StatefulPartitionedCall/sequential/gru_2/PartitionedCall/unstack_switch/_209", "op": "Switch", "input": ["StatefulPartitionedCall/sequential/gru_2/PartitionedCall/while/merge/_197", "StatefulPartitionedCall/sequential/gru_2/PartitionedCall/while/LoopCond/_200"], "attr": {"T": {"type": "DT_FLOAT"}}}, {"name": "StatefulPartitionedCall/sequential/gru_2/PartitionedCall/while/Func/StatefulPartitionedCall/sequential/gru_2/PartitionedCall/input/_41_switch/_210", "op": "Switch", "input": ["StatefulPartitionedCall/sequential/gru_2/PartitionedCall/while/merge/_198", "StatefulPartitionedCall/sequential/gru_2/PartitionedCall/while/LoopCond/_200"], "attr": {"T": {"type": "DT_FLOAT"}}}, {"name": "StatefulPartitionedCall/sequential/gru_2/PartitionedCall/while/StatefulPartitionedCall/sequential/gru_2/PartitionedCall/unstack_switch/_211", "op": "Switch", "input": ["StatefulPartitionedCall/sequential/gru_2/PartitionedCall/while/merge/_199", "StatefulPartitionedCall/sequential/gru_2/PartitionedCall/while/LoopCond/_200"], "attr": {"T": {"type": "DT_FLOAT"}}}, {"name": "StatefulPartitionedCall/sequential/gru_2/PartitionedCall/while/StatefulPartitionedCall/sequential/gru_2/PartitionedCall/time_switch/_203", "op": "Switch", "input": ["StatefulPartitionedCall/sequential/gru_2/PartitionedCall/while/merge/_191", "StatefulPartitionedCall/sequential/gru_2/PartitionedCall/while/LoopCond/_200"], "attr": {"T": {"type": "DT_INT32"}}}, {"name": "StatefulPartitionedCall/sequential/gru_2/PartitionedCall/while/StatefulPartitionedCall/sequential/gru_2/PartitionedCall/while/loop_counter_switch/_201", "op": "Switch", "input": ["StatefulPartitionedCall/sequential/gru_2/PartitionedCall/while/merge/_189", "StatefulPartitionedCall/sequential/gru_2/PartitionedCall/while/LoopCond/_200"], "attr": {"T": {"type": "DT_INT32"}}}, {"name": "StatefulPartitionedCall/sequential/gru_2/PartitionedCall/while/StatefulPartitionedCall/sequential/gru_2/PartitionedCall/TensorArrayV2_1_switch/_204", "op": "Switch", "input": ["StatefulPartitionedCall/sequential/gru_2/PartitionedCall/while/merge/_192", "StatefulPartitionedCall/sequential/gru_2/PartitionedCall/while/LoopCond/_200"], "attr": {"T": {"type": "DT_VARIANT"}}}, {"name": "StatefulPartitionedCall/sequential/gru_2/PartitionedCall/while/StatefulPartitionedCall/sequential/gru_2/PartitionedCall/strided_slice_switch/_206", "op": "Switch", "input": ["StatefulPartitionedCall/sequential/gru_2/PartitionedCall/while/merge/_194", "StatefulPartitionedCall/sequential/gru_2/PartitionedCall/while/LoopCond/_200"], "attr": {"T": {"type": "DT_INT32"}}}, {"name": "StatefulPartitionedCall/sequential/gru_1/PartitionedCall/while/body/_117/while/Tanh", "op": "Tanh", "input": ["StatefulPartitionedCall/sequential/gru_1/PartitionedCall/while/body/_117/while/add_2"], "attr": {"T": {"type": "DT_FLOAT"}}}, {"name": "StatefulPartitionedCall/sequential/gru_2/PartitionedCall/while/Func/StatefulPartitionedCall/sequential/gru_2/PartitionedCall/input/_39_switch/_205", "op": "Switch", "input": ["StatefulPartitionedCall/sequential/gru_2/PartitionedCall/while/merge/_193", "StatefulPartitionedCall/sequential/gru_2/PartitionedCall/while/LoopCond/_200"], "attr": {"T": {"type": "DT_FLOAT"}}}, {"name": "StatefulPartitionedCall/sequential/gru_2/PartitionedCall/while/loop_body_control/_212", "op": "Identity", "input": ["StatefulPartitionedCall/sequential/gru_2/PartitionedCall/while/StatefulPartitionedCall/sequential/gru_2/PartitionedCall/while/loop_counter_switch/_201:1"], "attr": {"T": {"type": "DT_INT32"}}}, {"name": "StatefulPartitionedCall/sequential/gru_2/PartitionedCall/while/exit/_216", "op": "Exit", "input": ["StatefulPartitionedCall/sequential/gru_2/PartitionedCall/while/StatefulPartitionedCall/sequential/gru_2/PartitionedCall/TensorArrayV2_1_switch/_204"], "attr": {"T": {"type": "DT_VARIANT"}}}, {"name": "StatefulPartitionedCall/sequential/gru_1/PartitionedCall/while/body/_117/while/mul_2", "op": "Mul", "input": ["StatefulPartitionedCall/sequential/gru_1/PartitionedCall/while/body/_117/while/sub", "StatefulPartitionedCall/sequential/gru_1/PartitionedCall/while/body/_117/while/Tanh"], "attr": {"T": {"type": "DT_FLOAT"}}}, {"name": "StatefulPartitionedCall/sequential/gru_2/PartitionedCall/while/body/_177/while/sub/x", "op": "Const", "input": ["^StatefulPartitionedCall/sequential/gru_2/PartitionedCall/while/loop_body_control/_212"], "attr": {"value": {"tensor": {"dtype": "DT_FLOAT", "tensorShape": {}}}, "dtype": {"type": "DT_FLOAT"}}}, {"name": "StatefulPartitionedCall/sequential/gru_2/PartitionedCall/while/body/_177/while/split/split_dim", "op": "Const", "input": ["^StatefulPartitionedCall/sequential/gru_2/PartitionedCall/while/loop_body_control/_212"], "attr": {"value": {"tensor": {"dtype": "DT_INT32", "tensorShape": {}}}, "dtype": {"type": "DT_INT32"}}}, {"name": "StatefulPartitionedCall/sequential/gru_2/PartitionedCall/while/next_iteration/_231", "op": "NextIteration", "input": ["StatefulPartitionedCall/sequential/gru_2/PartitionedCall/while/StatefulPartitionedCall/sequential/gru_2/PartitionedCall/TensorArrayUnstack/TensorListFromTensor_switch/_207:1", "^StatefulPartitionedCall/sequential/gru_2/PartitionedCall/while/loop_body_control/_212"], "attr": {"T": {"type": "DT_VARIANT"}}}, {"name": "StatefulPartitionedCall/sequential/gru_2/PartitionedCall/while/body/_177/while/TensorArrayV2Read/TensorListGetItem/element_shape", "op": "Const", "input": ["^StatefulPartitionedCall/sequential/gru_2/PartitionedCall/while/loop_body_control/_212"], "attr": {"value": {"tensor": {"dtype": "DT_INT32", "tensorShape": {"dim": [{"size": "2"}]}}}, "dtype": {"type": "DT_INT32"}}}, {"name": "StatefulPartitionedCall/sequential/gru_2/PartitionedCall/while/next_iteration/_232", "op": "NextIteration", "input": ["StatefulPartitionedCall/sequential/gru_2/PartitionedCall/while/Func/StatefulPartitionedCall/sequential/gru_2/PartitionedCall/input/_40_switch/_208:1", "^StatefulPartitionedCall/sequential/gru_2/PartitionedCall/while/loop_body_control/_212"], "attr": {"T": {"type": "DT_FLOAT"}}}, {"name": "StatefulPartitionedCall/sequential/gru_2/PartitionedCall/while/next_iteration/_233", "op": "NextIteration", "input": ["StatefulPartitionedCall/sequential/gru_2/PartitionedCall/while/StatefulPartitionedCall/sequential/gru_2/PartitionedCall/unstack_switch/_209:1", "^StatefulPartitionedCall/sequential/gru_2/PartitionedCall/while/loop_body_control/_212"], "attr": {"T": {"type": "DT_FLOAT"}}}, {"name": "StatefulPartitionedCall/sequential/gru_2/PartitionedCall/while/body/_177/while/split_1/split_dim", "op": "Const", "input": ["^StatefulPartitionedCall/sequential/gru_2/PartitionedCall/while/loop_body_control/_212"], "attr": {"value": {"tensor": {"dtype": "DT_INT32", "tensorShape": {}}}, "dtype": {"type": "DT_INT32"}}}, {"name": "StatefulPartitionedCall/sequential/gru_2/PartitionedCall/while/next_iteration/_234", "op": "NextIteration", "input": ["StatefulPartitionedCall/sequential/gru_2/PartitionedCall/while/Func/StatefulPartitionedCall/sequential/gru_2/PartitionedCall/input/_41_switch/_210:1", "^StatefulPartitionedCall/sequential/gru_2/PartitionedCall/while/loop_body_control/_212"], "attr": {"T": {"type": "DT_FLOAT"}}}, {"name": "StatefulPartitionedCall/sequential/gru_2/PartitionedCall/while/next_iteration/_235", "op": "NextIteration", "input": ["StatefulPartitionedCall/sequential/gru_2/PartitionedCall/while/StatefulPartitionedCall/sequential/gru_2/PartitionedCall/unstack_switch/_211:1", "^StatefulPartitionedCall/sequential/gru_2/PartitionedCall/while/loop_body_control/_212"], "attr": {"T": {"type": "DT_FLOAT"}}}, {"name": "Func/StatefulPartitionedCall/sequential/gru_2/PartitionedCall/while/body/_177/input/_386", "op": "Identity", "input": ["StatefulPartitionedCall/sequential/gru_2/PartitionedCall/while/StatefulPartitionedCall/sequential/gru_2/PartitionedCall/time_switch/_203:1", "^StatefulPartitionedCall/sequential/gru_2/PartitionedCall/while/loop_body_control/_212"], "attr": {"T": {"type": "DT_INT32"}}}, {"name": "StatefulPartitionedCall/sequential/gru_2/PartitionedCall/while/body/_177/while/add_4/y", "op": "Const", "input": ["^StatefulPartitionedCall/sequential/gru_2/PartitionedCall/while/loop_body_control/_212"], "attr": {"value": {"tensor": {"dtype": "DT_INT32", "tensorShape": {}}}, "dtype": {"type": "DT_INT32"}}}, {"name": "StatefulPartitionedCall/sequential/gru_2/PartitionedCall/while/body/_177/while/add_5/y", "op": "Const", "input": ["^StatefulPartitionedCall/sequential/gru_2/PartitionedCall/while/loop_body_control/_212"], "attr": {"value": {"tensor": {"dtype": "DT_INT32", "tensorShape": {}}}, "dtype": {"type": "DT_INT32"}}}, {"name": "StatefulPartitionedCall/sequential/gru_2/PartitionedCall/while/body/_177/while/MatMul_1", "op": "MatMul", "input": ["StatefulPartitionedCall/sequential/gru_2/PartitionedCall/while/Func/StatefulPartitionedCall/sequential/gru_2/PartitionedCall/input/_39_switch/_205:1", "StatefulPartitionedCall/sequential/gru_2/PartitionedCall/while/Func/StatefulPartitionedCall/sequential/gru_2/PartitionedCall/input/_41_switch/_210:1", "^StatefulPartitionedCall/sequential/gru_2/PartitionedCall/while/loop_body_control/_212"], "device": "/device:CPU:0", "attr": {"transpose_a": {"b": false}, "transpose_b": {"b": false}, "T": {"type": "DT_FLOAT"}}}, {"name": "StatefulPartitionedCall/sequential/gru_2/PartitionedCall/while/next_iteration/_230", "op": "NextIteration", "input": ["StatefulPartitionedCall/sequential/gru_2/PartitionedCall/while/StatefulPartitionedCall/sequential/gru_2/PartitionedCall/strided_slice_switch/_206:1", "^StatefulPartitionedCall/sequential/gru_2/PartitionedCall/while/loop_body_control/_212"], "attr": {"T": {"type": "DT_INT32"}}}, {"name": "StatefulPartitionedCall/sequential/gru_2/PartitionedCall/TensorArrayV2Stack/TensorListStack", "op": "TensorListStack", "input": ["StatefulPartitionedCall/sequential/gru_2/PartitionedCall/while/exit/_216", "StatefulPartitionedCall/sequential/gru_2/PartitionedCall/TensorArrayV2Stack/TensorListStack/element_shape"], "attr": {"num_elements": {"i": "-1"}, "element_dtype": {"type": "DT_FLOAT"}}}, {"name": "StatefulPartitionedCall/sequential/gru_1/PartitionedCall/while/body/_117/while/add_3", "op": "AddV2", "input": ["StatefulPartitionedCall/sequential/gru_1/PartitionedCall/while/body/_117/while/mul_1", "StatefulPartitionedCall/sequential/gru_1/PartitionedCall/while/body/_117/while/mul_2"], "attr": {"T": {"type": "DT_FLOAT"}}}, {"name": "StatefulPartitionedCall/sequential/gru_2/PartitionedCall/while/body/_177/while/TensorArrayV2Read/TensorListGetItem", "op": "TensorListGetItem", "input": ["StatefulPartitionedCall/sequential/gru_2/PartitionedCall/while/StatefulPartitionedCall/sequential/gru_2/PartitionedCall/TensorArrayUnstack/TensorListFromTensor_switch/_207:1", "Func/StatefulPartitionedCall/sequential/gru_2/PartitionedCall/while/body/_177/input/_386", "StatefulPartitionedCall/sequential/gru_2/PartitionedCall/while/body/_177/while/TensorArrayV2Read/TensorListGetItem/element_shape"], "attr": {"element_dtype": {"type": "DT_FLOAT"}}}, {"name": "StatefulPartitionedCall/sequential/gru_2/PartitionedCall/while/body/_177/while/add_4", "op": "AddV2", "input": ["Func/StatefulPartitionedCall/sequential/gru_2/PartitionedCall/while/body/_177/input/_386", "StatefulPartitionedCall/sequential/gru_2/PartitionedCall/while/body/_177/while/add_4/y"], "attr": {"T": {"type": "DT_INT32"}}}, {"name": "StatefulPartitionedCall/sequential/gru_2/PartitionedCall/while/body/_177/while/add_5", "op": "AddV2", "input": ["StatefulPartitionedCall/sequential/gru_2/PartitionedCall/while/StatefulPartitionedCall/sequential/gru_2/PartitionedCall/while/loop_counter_switch/_201:1", "StatefulPartitionedCall/sequential/gru_2/PartitionedCall/while/body/_177/while/add_5/y"], "attr": {"T": {"type": "DT_INT32"}}}, {"name": "StatefulPartitionedCall/sequential/gru_2/PartitionedCall/while/body/_177/while/BiasAdd_1", "op": "BiasAdd", "input": ["StatefulPartitionedCall/sequential/gru_2/PartitionedCall/while/body/_177/while/MatMul_1", "StatefulPartitionedCall/sequential/gru_2/PartitionedCall/while/StatefulPartitionedCall/sequential/gru_2/PartitionedCall/unstack_switch/_211:1"], "attr": {"data_format": {"s": "TkhXQw=="}, "T": {"type": "DT_FLOAT"}}}, {"name": "StatefulPartitionedCall/sequential/gru_3/PartitionedCall/TensorArrayUnstack/TensorListFromTensor", "op": "TensorListFromTensor", "input": ["StatefulPartitionedCall/sequential/gru_2/PartitionedCall/TensorArrayV2Stack/TensorListStack", "StatefulPartitionedCall/sequential/gru_3/PartitionedCall/TensorArrayUnstack/TensorListFromTensor/element_shape"], "attr": {"shape_type": {"type": "DT_INT32"}, "element_dtype": {"type": "DT_FLOAT"}}}, {"name": "StatefulPartitionedCall/sequential/gru_2/PartitionedCall/transpose_1", "op": "Transpose", "input": ["StatefulPartitionedCall/sequential/gru_2/PartitionedCall/TensorArrayV2Stack/TensorListStack", "StatefulPartitionedCall/sequential/gru_2/PartitionedCall/transpose_1/perm"], "attr": {"Tperm": {"type": "DT_INT32"}, "T": {"type": "DT_FLOAT"}}}, {"name": "StatefulPartitionedCall/sequential/gru_3/PartitionedCall/Shape", "op": "Shape", "input": ["StatefulPartitionedCall/sequential/gru_2/PartitionedCall/TensorArrayV2Stack/TensorListStack"], "attr": {"T": {"type": "DT_FLOAT"}, "out_type": {"type": "DT_INT32"}}}, {"name": "StatefulPartitionedCall/sequential/gru_1/PartitionedCall/while/next_iteration/_169", "op": "NextIteration", "input": ["StatefulPartitionedCall/sequential/gru_1/PartitionedCall/while/body/_117/while/add_3", "^StatefulPartitionedCall/sequential/gru_1/PartitionedCall/while/loop_body_control/_152"], "attr": {"T": {"type": "DT_FLOAT"}}}, {"name": "StatefulPartitionedCall/sequential/gru_1/PartitionedCall/while/body/_117/while/TensorArrayV2Write/TensorListSetItem", "op": "TensorListSetItem", "input": ["StatefulPartitionedCall/sequential/gru_1/PartitionedCall/while/StatefulPartitionedCall/sequential/gru_1/PartitionedCall/TensorArrayV2_1_switch/_144:1", "Func/StatefulPartitionedCall/sequential/gru_1/PartitionedCall/while/body/_117/input/_349", "StatefulPartitionedCall/sequential/gru_1/PartitionedCall/while/body/_117/while/add_3"], "attr": {"element_dtype": {"type": "DT_FLOAT"}}}, {"name": "StatefulPartitionedCall/sequential/gru_2/PartitionedCall/while/body/_177/while/BiasAdd", "op": "_FusedMatMul", "input": ["StatefulPartitionedCall/sequential/gru_2/PartitionedCall/while/body/_177/while/TensorArrayV2Read/TensorListGetItem", "StatefulPartitionedCall/sequential/gru_2/PartitionedCall/while/Func/StatefulPartitionedCall/sequential/gru_2/PartitionedCall/input/_40_switch/_208:1", "StatefulPartitionedCall/sequential/gru_2/PartitionedCall/while/StatefulPartitionedCall/sequential/gru_2/PartitionedCall/unstack_switch/_209:1"], "device": "/device:CPU:0", "attr": {"epsilon": {"f": 0.0}, "fused_ops": {"list": {"s": ["Qmlhc0FkZA=="]}}, "transpose_a": {"b": false}, "transpose_b": {"b": false}, "T": {"type": "DT_FLOAT"}, "num_args": {"i": "1"}}}, {"name": "StatefulPartitionedCall/sequential/gru_2/PartitionedCall/while/next_iteration/_227", "op": "NextIteration", "input": ["StatefulPartitionedCall/sequential/gru_2/PartitionedCall/while/body/_177/while/add_4", "^StatefulPartitionedCall/sequential/gru_2/PartitionedCall/while/loop_body_control/_212"], "attr": {"T": {"type": "DT_INT32"}}}, {"name": "StatefulPartitionedCall/sequential/gru_2/PartitionedCall/while/next_iteration/_225", "op": "NextIteration", "input": ["StatefulPartitionedCall/sequential/gru_2/PartitionedCall/while/body/_177/while/add_5", "^StatefulPartitionedCall/sequential/gru_2/PartitionedCall/while/loop_body_control/_212"], "attr": {"T": {"type": "DT_INT32"}}}, {"name": "StatefulPartitionedCall/sequential/gru_2/PartitionedCall/while/body/_177/while/split_1", "op": "Split", "input": ["StatefulPartitionedCall/sequential/gru_2/PartitionedCall/while/body/_177/while/split_1/split_dim", "StatefulPartitionedCall/sequential/gru_2/PartitionedCall/while/body/_177/while/BiasAdd_1"], "attr": {"T": {"type": "DT_FLOAT"}, "num_split": {"i": "3"}}}, {"name": "StatefulPartitionedCall/sequential/gru_3/PartitionedCall/while/enter/_244", "op": "Enter", "input": ["StatefulPartitionedCall/sequential/gru_3/PartitionedCall/TensorArrayUnstack/TensorListFromTensor"], "attr": {"parallel_iterations": {"i": "32"}, "frame_name": {"s": "U3RhdGVmdWxQYXJ0aXRpb25lZENhbGwvc2VxdWVudGlhbC9ncnVfMy9QYXJ0aXRpb25lZENhbGwvd2hpbGU="}, "T": {"type": "DT_VARIANT"}, "is_constant": {"b": false}}}, {"name": "StatefulPartitionedCall/sequential/gru_3/Shape", "op": "Shape", "input": ["StatefulPartitionedCall/sequential/gru_2/PartitionedCall/transpose_1"], "attr": {"T": {"type": "DT_FLOAT"}, "out_type": {"type": "DT_INT32"}}}, {"name": "StatefulPartitionedCall/sequential/gru_3/PartitionedCall/strided_slice", "op": "StridedSlice", "input": ["StatefulPartitionedCall/sequential/gru_3/PartitionedCall/Shape", "StatefulPartitionedCall/sequential/gru_3/PartitionedCall/strided_slice/stack", "StatefulPartitionedCall/sequential/gru_3/PartitionedCall/strided_slice/stack_1", "StatefulPartitionedCall/sequential/gru_3/PartitionedCall/strided_slice/stack_2"], "attr": {"Index": {"type": "DT_INT32"}, "T": {"type": "DT_INT32"}, "shrink_axis_mask": {"i": "1"}, "begin_mask": {"i": "0"}, "ellipsis_mask": {"i": "0"}, "new_axis_mask": {"i": "0"}, "end_mask": {"i": "0"}}}, {"name": "StatefulPartitionedCall/sequential/gru_1/PartitionedCall/while/next_iteration/_168", "op": "NextIteration", "input": ["StatefulPartitionedCall/sequential/gru_1/PartitionedCall/while/body/_117/while/TensorArrayV2Write/TensorListSetItem", "^StatefulPartitionedCall/sequential/gru_1/PartitionedCall/while/loop_body_control/_152"], "attr": {"T": {"type": "DT_VARIANT"}}}, {"name": "StatefulPartitionedCall/sequential/gru_2/PartitionedCall/while/body/_177/while/split", "op": "Split", "input": ["StatefulPartitionedCall/sequential/gru_2/PartitionedCall/while/body/_177/while/split/split_dim", "StatefulPartitionedCall/sequential/gru_2/PartitionedCall/while/body/_177/while/BiasAdd"], "attr": {"T": {"type": "DT_FLOAT"}, "num_split": {"i": "3"}}}, {"name": "StatefulPartitionedCall/sequential/gru_3/PartitionedCall/while/merge/_255", "op": "Merge", "input": ["StatefulPartitionedCall/sequential/gru_3/PartitionedCall/while/enter/_244", "StatefulPartitionedCall/sequential/gru_3/PartitionedCall/while/next_iteration/_291"], "attr": {"T": {"type": "DT_VARIANT"}, "N": {"i": "2"}}}, {"name": "StatefulPartitionedCall/sequential/gru_3/strided_slice", "op": "StridedSlice", "input": ["StatefulPartitionedCall/sequential/gru_3/Shape", "StatefulPartitionedCall/sequential/gru_3/strided_slice/stack", "StatefulPartitionedCall/sequential/gru_3/strided_slice/stack_1", "StatefulPartitionedCall/sequential/gru_3/strided_slice/stack_2"], "attr": {"shrink_axis_mask": {"i": "1"}, "ellipsis_mask": {"i": "0"}, "begin_mask": {"i": "0"}, "new_axis_mask": {"i": "0"}, "end_mask": {"i": "0"}, "T": {"type": "DT_INT32"}, "Index": {"type": "DT_INT32"}}}, {"name": "StatefulPartitionedCall/sequential/gru_3/PartitionedCall/TensorArrayV2_1", "op": "TensorListReserve", "input": ["StatefulPartitionedCall/sequential/gru_3/PartitionedCall/TensorArrayV2_1/element_shape", "StatefulPartitionedCall/sequential/gru_3/PartitionedCall/strided_slice"], "attr": {"shape_type": {"type": "DT_INT32"}, "element_dtype": {"type": "DT_FLOAT"}}}, {"name": "StatefulPartitionedCall/sequential/gru_3/PartitionedCall/while/enter/_243", "op": "Enter", "input": ["StatefulPartitionedCall/sequential/gru_3/PartitionedCall/strided_slice"], "attr": {"T": {"type": "DT_INT32"}, "is_constant": {"b": false}, "parallel_iterations": {"i": "32"}, "frame_name": {"s": "U3RhdGVmdWxQYXJ0aXRpb25lZENhbGwvc2VxdWVudGlhbC9ncnVfMy9QYXJ0aXRpb25lZENhbGwvd2hpbGU="}}}, {"name": "StatefulPartitionedCall/sequential/gru_2/PartitionedCall/while/body/_177/while/add", "op": "AddV2", "input": ["StatefulPartitionedCall/sequential/gru_2/PartitionedCall/while/body/_177/while/split", "StatefulPartitionedCall/sequential/gru_2/PartitionedCall/while/body/_177/while/split_1"], "attr": {"T": {"type": "DT_FLOAT"}}}, {"name": "StatefulPartitionedCall/sequential/gru_2/PartitionedCall/while/body/_177/while/add_1", "op": "AddV2", "input": ["StatefulPartitionedCall/sequential/gru_2/PartitionedCall/while/body/_177/while/split:1", "StatefulPartitionedCall/sequential/gru_2/PartitionedCall/while/body/_177/while/split_1:1"], "attr": {"T": {"type": "DT_FLOAT"}}}, {"name": "StatefulPartitionedCall/sequential/gru_3/zeros/packed", "op": "Pack", "input": ["StatefulPartitionedCall/sequential/gru_3/strided_slice", "StatefulPartitionedCall/sequential/gru_3/zeros/packed/1"], "attr": {"T": {"type": "DT_INT32"}, "axis": {"i": "0"}, "N": {"i": "2"}}}, {"name": "StatefulPartitionedCall/sequential/gru_3/PartitionedCall/while/enter/_241", "op": "Enter", "input": ["StatefulPartitionedCall/sequential/gru_3/PartitionedCall/TensorArrayV2_1"], "attr": {"is_constant": {"b": false}, "parallel_iterations": {"i": "32"}, "frame_name": {"s": "U3RhdGVmdWxQYXJ0aXRpb25lZENhbGwvc2VxdWVudGlhbC9ncnVfMy9QYXJ0aXRpb25lZENhbGwvd2hpbGU="}, "T": {"type": "DT_VARIANT"}}}, {"name": "StatefulPartitionedCall/sequential/gru_3/PartitionedCall/while/merge/_254", "op": "Merge", "input": ["StatefulPartitionedCall/sequential/gru_3/PartitionedCall/while/enter/_243", "StatefulPartitionedCall/sequential/gru_3/PartitionedCall/while/next_iteration/_290"], "attr": {"T": {"type": "DT_INT32"}, "N": {"i": "2"}}}, {"name": "StatefulPartitionedCall/sequential/gru_2/PartitionedCall/while/body/_177/while/Sigmoid", "op": "Sigmoid", "input": ["StatefulPartitionedCall/sequential/gru_2/PartitionedCall/while/body/_177/while/add"], "attr": {"T": {"type": "DT_FLOAT"}}}, {"name": "StatefulPartitionedCall/sequential/gru_2/PartitionedCall/while/body/_177/while/Sigmoid_1", "op": "Sigmoid", "input": ["StatefulPartitionedCall/sequential/gru_2/PartitionedCall/while/body/_177/while/add_1"], "attr": {"T": {"type": "DT_FLOAT"}}}, {"name": "StatefulPartitionedCall/sequential/gru_3/zeros", "op": "Fill", "input": ["StatefulPartitionedCall/sequential/gru_3/zeros/packed", "StatefulPartitionedCall/sequential/gru_3/zeros/Const"], "attr": {"T": {"type": "DT_FLOAT"}, "index_type": {"type": "DT_INT32"}}}, {"name": "StatefulPartitionedCall/sequential/gru_3/PartitionedCall/while/merge/_252", "op": "Merge", "input": ["StatefulPartitionedCall/sequential/gru_3/PartitionedCall/while/enter/_241", "StatefulPartitionedCall/sequential/gru_3/PartitionedCall/while/next_iteration/_288"], "attr": {"N": {"i": "2"}, "T": {"type": "DT_VARIANT"}}}, {"name": "StatefulPartitionedCall/sequential/gru_3/PartitionedCall/while/cond/_236/while/Less", "op": "Less", "input": ["StatefulPartitionedCall/sequential/gru_3/PartitionedCall/while/merge/_251", "StatefulPartitionedCall/sequential/gru_3/PartitionedCall/while/merge/_254", "^StatefulPartitionedCall/sequential/gru_3/PartitionedCall/while/merge/_249"], "attr": {"T": {"type": "DT_INT32"}}}, {"name": "StatefulPartitionedCall/sequential/gru_2/PartitionedCall/while/body/_177/while/sub", "op": "Sub", "input": ["StatefulPartitionedCall/sequential/gru_2/PartitionedCall/while/body/_177/while/sub/x", "StatefulPartitionedCall/sequential/gru_2/PartitionedCall/while/body/_177/while/Sigmoid"], "attr": {"T": {"type": "DT_FLOAT"}}}, {"name": "StatefulPartitionedCall/sequential/gru_2/PartitionedCall/while/body/_177/while/mul_1", "op": "Mul", "input": ["StatefulPartitionedCall/sequential/gru_2/PartitionedCall/while/body/_177/while/Sigmoid", "StatefulPartitionedCall/sequential/gru_2/PartitionedCall/while/Func/StatefulPartitionedCall/sequential/gru_2/PartitionedCall/input/_39_switch/_205:1"], "attr": {"T": {"type": "DT_FLOAT"}}}, {"name": "StatefulPartitionedCall/sequential/gru_2/PartitionedCall/while/body/_177/while/mul", "op": "Mul", "input": ["StatefulPartitionedCall/sequential/gru_2/PartitionedCall/while/body/_177/while/Sigmoid_1", "StatefulPartitionedCall/sequential/gru_2/PartitionedCall/while/body/_177/while/split_1:2"], "attr": {"T": {"type": "DT_FLOAT"}}}, {"name": "StatefulPartitionedCall/sequential/gru_3/PartitionedCall/while/enter/_242", "op": "Enter", "input": ["StatefulPartitionedCall/sequential/gru_3/zeros"], "attr": {"parallel_iterations": {"i": "32"}, "frame_name": {"s": "U3RhdGVmdWxQYXJ0aXRpb25lZENhbGwvc2VxdWVudGlhbC9ncnVfMy9QYXJ0aXRpb25lZENhbGwvd2hpbGU="}, "T": {"type": "DT_FLOAT"}, "is_constant": {"b": false}}}, {"name": "StatefulPartitionedCall/sequential/gru_3/PartitionedCall/while/LoopCond/_260", "op": "LoopCond", "input": ["StatefulPartitionedCall/sequential/gru_3/PartitionedCall/while/cond/_236/while/Less"]}, {"name": "StatefulPartitionedCall/sequential/gru_2/PartitionedCall/while/body/_177/while/add_2", "op": "AddV2", "input": ["StatefulPartitionedCall/sequential/gru_2/PartitionedCall/while/body/_177/while/split:2", "StatefulPartitionedCall/sequential/gru_2/PartitionedCall/while/body/_177/while/mul"], "attr": {"T": {"type": "DT_FLOAT"}}}, {"name": "StatefulPartitionedCall/sequential/gru_3/PartitionedCall/while/merge/_253", "op": "Merge", "input": ["StatefulPartitionedCall/sequential/gru_3/PartitionedCall/while/enter/_242", "StatefulPartitionedCall/sequential/gru_3/PartitionedCall/while/next_iteration/_289"], "attr": {"T": {"type": "DT_FLOAT"}, "N": {"i": "2"}}}, {"name": "StatefulPartitionedCall/sequential/gru_3/PartitionedCall/while/StatefulPartitionedCall/sequential/gru_3/PartitionedCall/TensorArrayUnstack/TensorListFromTensor_switch/_267", "op": "Switch", "input": ["StatefulPartitionedCall/sequential/gru_3/PartitionedCall/while/merge/_255", "StatefulPartitionedCall/sequential/gru_3/PartitionedCall/while/LoopCond/_260"], "attr": {"T": {"type": "DT_VARIANT"}}}, {"name": "StatefulPartitionedCall/sequential/gru_3/PartitionedCall/while/Func/StatefulPartitionedCall/sequential/gru_3/PartitionedCall/input/_49_switch/_268", "op": "Switch", "input": ["StatefulPartitionedCall/sequential/gru_3/PartitionedCall/while/merge/_256", "StatefulPartitionedCall/sequential/gru_3/PartitionedCall/while/LoopCond/_260"], "attr": {"T": {"type": "DT_FLOAT"}}}, {"name": "StatefulPartitionedCall/sequential/gru_3/PartitionedCall/while/StatefulPartitionedCall/sequential/gru_3/PartitionedCall/unstack_switch/_269", "op": "Switch", "input": ["StatefulPartitionedCall/sequential/gru_3/PartitionedCall/while/merge/_257", "StatefulPartitionedCall/sequential/gru_3/PartitionedCall/while/LoopCond/_260"], "attr": {"T": {"type": "DT_FLOAT"}}}, {"name": "StatefulPartitionedCall/sequential/gru_3/PartitionedCall/while/Func/StatefulPartitionedCall/sequential/gru_3/PartitionedCall/input/_50_switch/_270", "op": "Switch", "input": ["StatefulPartitionedCall/sequential/gru_3/PartitionedCall/while/merge/_258", "StatefulPartitionedCall/sequential/gru_3/PartitionedCall/while/LoopCond/_260"], "attr": {"T": {"type": "DT_FLOAT"}}}, {"name": "StatefulPartitionedCall/sequential/gru_3/PartitionedCall/while/StatefulPartitionedCall/sequential/gru_3/PartitionedCall/unstack_switch/_271", "op": "Switch", "input": ["StatefulPartitionedCall/sequential/gru_3/PartitionedCall/while/merge/_259", "StatefulPartitionedCall/sequential/gru_3/PartitionedCall/while/LoopCond/_260"], "attr": {"T": {"type": "DT_FLOAT"}}}, {"name": "StatefulPartitionedCall/sequential/gru_3/PartitionedCall/while/StatefulPartitionedCall/sequential/gru_3/PartitionedCall/time_switch/_263", "op": "Switch", "input": ["StatefulPartitionedCall/sequential/gru_3/PartitionedCall/while/merge/_251", "StatefulPartitionedCall/sequential/gru_3/PartitionedCall/while/LoopCond/_260"], "attr": {"T": {"type": "DT_INT32"}}}, {"name": "StatefulPartitionedCall/sequential/gru_3/PartitionedCall/while/StatefulPartitionedCall/sequential/gru_3/PartitionedCall/while/loop_counter_switch/_261", "op": "Switch", "input": ["StatefulPartitionedCall/sequential/gru_3/PartitionedCall/while/merge/_249", "StatefulPartitionedCall/sequential/gru_3/PartitionedCall/while/LoopCond/_260"], "attr": {"T": {"type": "DT_INT32"}}}, {"name": "StatefulPartitionedCall/sequential/gru_3/PartitionedCall/while/StatefulPartitionedCall/sequential/gru_3/PartitionedCall/TensorArrayV2_1_switch/_264", "op": "Switch", "input": ["StatefulPartitionedCall/sequential/gru_3/PartitionedCall/while/merge/_252", "StatefulPartitionedCall/sequential/gru_3/PartitionedCall/while/LoopCond/_260"], "attr": {"T": {"type": "DT_VARIANT"}}}, {"name": "StatefulPartitionedCall/sequential/gru_3/PartitionedCall/while/StatefulPartitionedCall/sequential/gru_3/PartitionedCall/strided_slice_switch/_266", "op": "Switch", "input": ["StatefulPartitionedCall/sequential/gru_3/PartitionedCall/while/merge/_254", "StatefulPartitionedCall/sequential/gru_3/PartitionedCall/while/LoopCond/_260"], "attr": {"T": {"type": "DT_INT32"}}}, {"name": "StatefulPartitionedCall/sequential/gru_2/PartitionedCall/while/body/_177/while/Tanh", "op": "Tanh", "input": ["StatefulPartitionedCall/sequential/gru_2/PartitionedCall/while/body/_177/while/add_2"], "attr": {"T": {"type": "DT_FLOAT"}}}, {"name": "StatefulPartitionedCall/sequential/gru_3/PartitionedCall/while/Func/StatefulPartitionedCall/sequential/gru_3/PartitionedCall/input/_48_switch/_265", "op": "Switch", "input": ["StatefulPartitionedCall/sequential/gru_3/PartitionedCall/while/merge/_253", "StatefulPartitionedCall/sequential/gru_3/PartitionedCall/while/LoopCond/_260"], "attr": {"T": {"type": "DT_FLOAT"}}}, {"name": "StatefulPartitionedCall/sequential/gru_3/PartitionedCall/while/loop_body_control/_272", "op": "Identity", "input": ["StatefulPartitionedCall/sequential/gru_3/PartitionedCall/while/StatefulPartitionedCall/sequential/gru_3/PartitionedCall/while/loop_counter_switch/_261:1"], "attr": {"T": {"type": "DT_INT32"}}}, {"name": "StatefulPartitionedCall/sequential/gru_3/PartitionedCall/while/exit/_276", "op": "Exit", "input": ["StatefulPartitionedCall/sequential/gru_3/PartitionedCall/while/StatefulPartitionedCall/sequential/gru_3/PartitionedCall/TensorArrayV2_1_switch/_264"], "attr": {"T": {"type": "DT_VARIANT"}}}, {"name": "StatefulPartitionedCall/sequential/gru_2/PartitionedCall/while/body/_177/while/mul_2", "op": "Mul", "input": ["StatefulPartitionedCall/sequential/gru_2/PartitionedCall/while/body/_177/while/sub", "StatefulPartitionedCall/sequential/gru_2/PartitionedCall/while/body/_177/while/Tanh"], "attr": {"T": {"type": "DT_FLOAT"}}}, {"name": "StatefulPartitionedCall/sequential/gru_3/PartitionedCall/while/body/_237/while/sub/x", "op": "Const", "input": ["^StatefulPartitionedCall/sequential/gru_3/PartitionedCall/while/loop_body_control/_272"], "attr": {"dtype": {"type": "DT_FLOAT"}, "value": {"tensor": {"dtype": "DT_FLOAT", "tensorShape": {}}}}}, {"name": "StatefulPartitionedCall/sequential/gru_3/PartitionedCall/while/body/_237/while/split/split_dim", "op": "Const", "input": ["^StatefulPartitionedCall/sequential/gru_3/PartitionedCall/while/loop_body_control/_272"], "attr": {"value": {"tensor": {"dtype": "DT_INT32", "tensorShape": {}}}, "dtype": {"type": "DT_INT32"}}}, {"name": "StatefulPartitionedCall/sequential/gru_3/PartitionedCall/while/next_iteration/_291", "op": "NextIteration", "input": ["StatefulPartitionedCall/sequential/gru_3/PartitionedCall/while/StatefulPartitionedCall/sequential/gru_3/PartitionedCall/TensorArrayUnstack/TensorListFromTensor_switch/_267:1", "^StatefulPartitionedCall/sequential/gru_3/PartitionedCall/while/loop_body_control/_272"], "attr": {"T": {"type": "DT_VARIANT"}}}, {"name": "StatefulPartitionedCall/sequential/gru_3/PartitionedCall/while/body/_237/while/TensorArrayV2Read/TensorListGetItem/element_shape", "op": "Const", "input": ["^StatefulPartitionedCall/sequential/gru_3/PartitionedCall/while/loop_body_control/_272"], "attr": {"value": {"tensor": {"dtype": "DT_INT32", "tensorShape": {"dim": [{"size": "2"}]}}}, "dtype": {"type": "DT_INT32"}}}, {"name": "StatefulPartitionedCall/sequential/gru_3/PartitionedCall/while/next_iteration/_292", "op": "NextIteration", "input": ["StatefulPartitionedCall/sequential/gru_3/PartitionedCall/while/Func/StatefulPartitionedCall/sequential/gru_3/PartitionedCall/input/_49_switch/_268:1", "^StatefulPartitionedCall/sequential/gru_3/PartitionedCall/while/loop_body_control/_272"], "attr": {"T": {"type": "DT_FLOAT"}}}, {"name": "StatefulPartitionedCall/sequential/gru_3/PartitionedCall/while/next_iteration/_293", "op": "NextIteration", "input": ["StatefulPartitionedCall/sequential/gru_3/PartitionedCall/while/StatefulPartitionedCall/sequential/gru_3/PartitionedCall/unstack_switch/_269:1", "^StatefulPartitionedCall/sequential/gru_3/PartitionedCall/while/loop_body_control/_272"], "attr": {"T": {"type": "DT_FLOAT"}}}, {"name": "StatefulPartitionedCall/sequential/gru_3/PartitionedCall/while/body/_237/while/split_1/split_dim", "op": "Const", "input": ["^StatefulPartitionedCall/sequential/gru_3/PartitionedCall/while/loop_body_control/_272"], "attr": {"value": {"tensor": {"dtype": "DT_INT32", "tensorShape": {}}}, "dtype": {"type": "DT_INT32"}}}, {"name": "StatefulPartitionedCall/sequential/gru_3/PartitionedCall/while/next_iteration/_294", "op": "NextIteration", "input": ["StatefulPartitionedCall/sequential/gru_3/PartitionedCall/while/Func/StatefulPartitionedCall/sequential/gru_3/PartitionedCall/input/_50_switch/_270:1", "^StatefulPartitionedCall/sequential/gru_3/PartitionedCall/while/loop_body_control/_272"], "attr": {"T": {"type": "DT_FLOAT"}}}, {"name": "StatefulPartitionedCall/sequential/gru_3/PartitionedCall/while/next_iteration/_295", "op": "NextIteration", "input": ["StatefulPartitionedCall/sequential/gru_3/PartitionedCall/while/StatefulPartitionedCall/sequential/gru_3/PartitionedCall/unstack_switch/_271:1", "^StatefulPartitionedCall/sequential/gru_3/PartitionedCall/while/loop_body_control/_272"], "attr": {"T": {"type": "DT_FLOAT"}}}, {"name": "Func/StatefulPartitionedCall/sequential/gru_3/PartitionedCall/while/body/_237/input/_423", "op": "Identity", "input": ["StatefulPartitionedCall/sequential/gru_3/PartitionedCall/while/StatefulPartitionedCall/sequential/gru_3/PartitionedCall/time_switch/_263:1", "^StatefulPartitionedCall/sequential/gru_3/PartitionedCall/while/loop_body_control/_272"], "attr": {"T": {"type": "DT_INT32"}}}, {"name": "StatefulPartitionedCall/sequential/gru_3/PartitionedCall/while/body/_237/while/add_4/y", "op": "Const", "input": ["^StatefulPartitionedCall/sequential/gru_3/PartitionedCall/while/loop_body_control/_272"], "attr": {"dtype": {"type": "DT_INT32"}, "value": {"tensor": {"dtype": "DT_INT32", "tensorShape": {}}}}}, {"name": "StatefulPartitionedCall/sequential/gru_3/PartitionedCall/while/body/_237/while/add_5/y", "op": "Const", "input": ["^StatefulPartitionedCall/sequential/gru_3/PartitionedCall/while/loop_body_control/_272"], "attr": {"value": {"tensor": {"dtype": "DT_INT32", "tensorShape": {}}}, "dtype": {"type": "DT_INT32"}}}, {"name": "StatefulPartitionedCall/sequential/gru_3/PartitionedCall/while/body/_237/while/MatMul_1", "op": "MatMul", "input": ["StatefulPartitionedCall/sequential/gru_3/PartitionedCall/while/Func/StatefulPartitionedCall/sequential/gru_3/PartitionedCall/input/_48_switch/_265:1", "StatefulPartitionedCall/sequential/gru_3/PartitionedCall/while/Func/StatefulPartitionedCall/sequential/gru_3/PartitionedCall/input/_50_switch/_270:1", "^StatefulPartitionedCall/sequential/gru_3/PartitionedCall/while/loop_body_control/_272"], "device": "/device:CPU:0", "attr": {"T": {"type": "DT_FLOAT"}, "transpose_a": {"b": false}, "transpose_b": {"b": false}}}, {"name": "StatefulPartitionedCall/sequential/gru_3/PartitionedCall/while/next_iteration/_290", "op": "NextIteration", "input": ["StatefulPartitionedCall/sequential/gru_3/PartitionedCall/while/StatefulPartitionedCall/sequential/gru_3/PartitionedCall/strided_slice_switch/_266:1", "^StatefulPartitionedCall/sequential/gru_3/PartitionedCall/while/loop_body_control/_272"], "attr": {"T": {"type": "DT_INT32"}}}, {"name": "StatefulPartitionedCall/sequential/gru_3/PartitionedCall/TensorArrayV2Stack/TensorListStack", "op": "TensorListStack", "input": ["StatefulPartitionedCall/sequential/gru_3/PartitionedCall/while/exit/_276", "StatefulPartitionedCall/sequential/gru_3/PartitionedCall/TensorArrayV2Stack/TensorListStack/element_shape"], "attr": {"num_elements": {"i": "-1"}, "element_dtype": {"type": "DT_FLOAT"}}}, {"name": "StatefulPartitionedCall/sequential/gru_2/PartitionedCall/while/body/_177/while/add_3", "op": "AddV2", "input": ["StatefulPartitionedCall/sequential/gru_2/PartitionedCall/while/body/_177/while/mul_1", "StatefulPartitionedCall/sequential/gru_2/PartitionedCall/while/body/_177/while/mul_2"], "attr": {"T": {"type": "DT_FLOAT"}}}, {"name": "StatefulPartitionedCall/sequential/gru_3/PartitionedCall/while/body/_237/while/TensorArrayV2Read/TensorListGetItem", "op": "TensorListGetItem", "input": ["StatefulPartitionedCall/sequential/gru_3/PartitionedCall/while/StatefulPartitionedCall/sequential/gru_3/PartitionedCall/TensorArrayUnstack/TensorListFromTensor_switch/_267:1", "Func/StatefulPartitionedCall/sequential/gru_3/PartitionedCall/while/body/_237/input/_423", "StatefulPartitionedCall/sequential/gru_3/PartitionedCall/while/body/_237/while/TensorArrayV2Read/TensorListGetItem/element_shape"], "attr": {"element_dtype": {"type": "DT_FLOAT"}}}, {"name": "StatefulPartitionedCall/sequential/gru_3/PartitionedCall/while/body/_237/while/add_4", "op": "AddV2", "input": ["Func/StatefulPartitionedCall/sequential/gru_3/PartitionedCall/while/body/_237/input/_423", "StatefulPartitionedCall/sequential/gru_3/PartitionedCall/while/body/_237/while/add_4/y"], "attr": {"T": {"type": "DT_INT32"}}}, {"name": "StatefulPartitionedCall/sequential/gru_3/PartitionedCall/while/body/_237/while/add_5", "op": "AddV2", "input": ["StatefulPartitionedCall/sequential/gru_3/PartitionedCall/while/StatefulPartitionedCall/sequential/gru_3/PartitionedCall/while/loop_counter_switch/_261:1", "StatefulPartitionedCall/sequential/gru_3/PartitionedCall/while/body/_237/while/add_5/y"], "attr": {"T": {"type": "DT_INT32"}}}, {"name": "StatefulPartitionedCall/sequential/gru_3/PartitionedCall/while/body/_237/while/BiasAdd_1", "op": "BiasAdd", "input": ["StatefulPartitionedCall/sequential/gru_3/PartitionedCall/while/body/_237/while/MatMul_1", "StatefulPartitionedCall/sequential/gru_3/PartitionedCall/while/StatefulPartitionedCall/sequential/gru_3/PartitionedCall/unstack_switch/_271:1"], "attr": {"T": {"type": "DT_FLOAT"}, "data_format": {"s": "TkhXQw=="}}}, {"name": "StatefulPartitionedCall/sequential/gru_3/PartitionedCall/strided_slice_2", "op": "StridedSlice", "input": ["StatefulPartitionedCall/sequential/gru_3/PartitionedCall/TensorArrayV2Stack/TensorListStack", "StatefulPartitionedCall/sequential/gru_3/PartitionedCall/strided_slice_2/stack", "StatefulPartitionedCall/sequential/gru_3/PartitionedCall/strided_slice_2/stack_1", "StatefulPartitionedCall/sequential/gru_3/PartitionedCall/strided_slice_2/stack_2"], "attr": {"begin_mask": {"i": "0"}, "ellipsis_mask": {"i": "0"}, "new_axis_mask": {"i": "0"}, "end_mask": {"i": "0"}, "Index": {"type": "DT_INT32"}, "T": {"type": "DT_FLOAT"}, "shrink_axis_mask": {"i": "1"}}}, {"name": "StatefulPartitionedCall/sequential/gru_2/PartitionedCall/while/next_iteration/_229", "op": "NextIteration", "input": ["StatefulPartitionedCall/sequential/gru_2/PartitionedCall/while/body/_177/while/add_3", "^StatefulPartitionedCall/sequential/gru_2/PartitionedCall/while/loop_body_control/_212"], "attr": {"T": {"type": "DT_FLOAT"}}}, {"name": "StatefulPartitionedCall/sequential/gru_2/PartitionedCall/while/body/_177/while/TensorArrayV2Write/TensorListSetItem", "op": "TensorListSetItem", "input": ["StatefulPartitionedCall/sequential/gru_2/PartitionedCall/while/StatefulPartitionedCall/sequential/gru_2/PartitionedCall/TensorArrayV2_1_switch/_204:1", "Func/StatefulPartitionedCall/sequential/gru_2/PartitionedCall/while/body/_177/input/_386", "StatefulPartitionedCall/sequential/gru_2/PartitionedCall/while/body/_177/while/add_3"], "attr": {"element_dtype": {"type": "DT_FLOAT"}}}, {"name": "StatefulPartitionedCall/sequential/gru_3/PartitionedCall/while/body/_237/while/BiasAdd", "op": "_FusedMatMul", "input": ["StatefulPartitionedCall/sequential/gru_3/PartitionedCall/while/body/_237/while/TensorArrayV2Read/TensorListGetItem", "StatefulPartitionedCall/sequential/gru_3/PartitionedCall/while/Func/StatefulPartitionedCall/sequential/gru_3/PartitionedCall/input/_49_switch/_268:1", "StatefulPartitionedCall/sequential/gru_3/PartitionedCall/while/StatefulPartitionedCall/sequential/gru_3/PartitionedCall/unstack_switch/_269:1"], "device": "/device:CPU:0", "attr": {"num_args": {"i": "1"}, "epsilon": {"f": 0.0}, "fused_ops": {"list": {"s": ["Qmlhc0FkZA=="]}}, "transpose_a": {"b": false}, "transpose_b": {"b": false}, "T": {"type": "DT_FLOAT"}}}, {"name": "StatefulPartitionedCall/sequential/gru_3/PartitionedCall/while/next_iteration/_287", "op": "NextIteration", "input": ["StatefulPartitionedCall/sequential/gru_3/PartitionedCall/while/body/_237/while/add_4", "^StatefulPartitionedCall/sequential/gru_3/PartitionedCall/while/loop_body_control/_272"], "attr": {"T": {"type": "DT_INT32"}}}, {"name": "StatefulPartitionedCall/sequential/gru_3/PartitionedCall/while/next_iteration/_285", "op": "NextIteration", "input": ["StatefulPartitionedCall/sequential/gru_3/PartitionedCall/while/body/_237/while/add_5", "^StatefulPartitionedCall/sequential/gru_3/PartitionedCall/while/loop_body_control/_272"], "attr": {"T": {"type": "DT_INT32"}}}, {"name": "StatefulPartitionedCall/sequential/gru_3/PartitionedCall/while/body/_237/while/split_1", "op": "Split", "input": ["StatefulPartitionedCall/sequential/gru_3/PartitionedCall/while/body/_237/while/split_1/split_dim", "StatefulPartitionedCall/sequential/gru_3/PartitionedCall/while/body/_237/while/BiasAdd_1"], "attr": {"num_split": {"i": "3"}, "T": {"type": "DT_FLOAT"}}}, {"name": "StatefulPartitionedCall/sequential/dense/BiasAdd", "op": "_FusedMatMul", "input": ["StatefulPartitionedCall/sequential/gru_3/PartitionedCall/strided_slice_2", "unknown_14", "unknown_15"], "device": "/device:CPU:0", "attr": {"transpose_a": {"b": false}, "transpose_b": {"b": false}, "T": {"type": "DT_FLOAT"}, "num_args": {"i": "1"}, "epsilon": {"f": 0.0}, "fused_ops": {"list": {"s": ["Qmlhc0FkZA=="]}}}}, {"name": "StatefulPartitionedCall/sequential/gru_2/PartitionedCall/while/next_iteration/_228", "op": "NextIteration", "input": ["StatefulPartitionedCall/sequential/gru_2/PartitionedCall/while/body/_177/while/TensorArrayV2Write/TensorListSetItem", "^StatefulPartitionedCall/sequential/gru_2/PartitionedCall/while/loop_body_control/_212"], "attr": {"T": {"type": "DT_VARIANT"}}}, {"name": "StatefulPartitionedCall/sequential/gru_3/PartitionedCall/while/body/_237/while/split", "op": "Split", "input": ["StatefulPartitionedCall/sequential/gru_3/PartitionedCall/while/body/_237/while/split/split_dim", "StatefulPartitionedCall/sequential/gru_3/PartitionedCall/while/body/_237/while/BiasAdd"], "attr": {"T": {"type": "DT_FLOAT"}, "num_split": {"i": "3"}}}, {"name": "StatefulPartitionedCall/sequential/dense/Sigmoid", "op": "Sigmoid", "input": ["StatefulPartitionedCall/sequential/dense/BiasAdd"], "attr": {"T": {"type": "DT_FLOAT"}}}, {"name": "StatefulPartitionedCall/sequential/gru_3/PartitionedCall/while/body/_237/while/add", "op": "AddV2", "input": ["StatefulPartitionedCall/sequential/gru_3/PartitionedCall/while/body/_237/while/split", "StatefulPartitionedCall/sequential/gru_3/PartitionedCall/while/body/_237/while/split_1"], "attr": {"T": {"type": "DT_FLOAT"}}}, {"name": "StatefulPartitionedCall/sequential/gru_3/PartitionedCall/while/body/_237/while/add_1", "op": "AddV2", "input": ["StatefulPartitionedCall/sequential/gru_3/PartitionedCall/while/body/_237/while/split:1", "StatefulPartitionedCall/sequential/gru_3/PartitionedCall/while/body/_237/while/split_1:1"], "attr": {"T": {"type": "DT_FLOAT"}}}, {"name": "Identity", "op": "Identity", "input": ["StatefulPartitionedCall/sequential/dense/Sigmoid"], "attr": {"T": {"type": "DT_FLOAT"}}}, {"name": "StatefulPartitionedCall/sequential/gru_3/PartitionedCall/while/body/_237/while/Sigmoid", "op": "Sigmoid", "input": ["StatefulPartitionedCall/sequential/gru_3/PartitionedCall/while/body/_237/while/add"], "attr": {"T": {"type": "DT_FLOAT"}}}, {"name": "StatefulPartitionedCall/sequential/gru_3/PartitionedCall/while/body/_237/while/Sigmoid_1", "op": "Sigmoid", "input": ["StatefulPartitionedCall/sequential/gru_3/PartitionedCall/while/body/_237/while/add_1"], "attr": {"T": {"type": "DT_FLOAT"}}}, {"name": "StatefulPartitionedCall/sequential/gru_3/PartitionedCall/while/body/_237/while/sub", "op": "Sub", "input": ["StatefulPartitionedCall/sequential/gru_3/PartitionedCall/while/body/_237/while/sub/x", "StatefulPartitionedCall/sequential/gru_3/PartitionedCall/while/body/_237/while/Sigmoid"], "attr": {"T": {"type": "DT_FLOAT"}}}, {"name": "StatefulPartitionedCall/sequential/gru_3/PartitionedCall/while/body/_237/while/mul_1", "op": "Mul", "input": ["StatefulPartitionedCall/sequential/gru_3/PartitionedCall/while/body/_237/while/Sigmoid", "StatefulPartitionedCall/sequential/gru_3/PartitionedCall/while/Func/StatefulPartitionedCall/sequential/gru_3/PartitionedCall/input/_48_switch/_265:1"], "attr": {"T": {"type": "DT_FLOAT"}}}, {"name": "StatefulPartitionedCall/sequential/gru_3/PartitionedCall/while/body/_237/while/mul", "op": "Mul", "input": ["StatefulPartitionedCall/sequential/gru_3/PartitionedCall/while/body/_237/while/Sigmoid_1", "StatefulPartitionedCall/sequential/gru_3/PartitionedCall/while/body/_237/while/split_1:2"], "attr": {"T": {"type": "DT_FLOAT"}}}, {"name": "StatefulPartitionedCall/sequential/gru_3/PartitionedCall/while/body/_237/while/add_2", "op": "AddV2", "input": ["StatefulPartitionedCall/sequential/gru_3/PartitionedCall/while/body/_237/while/split:2", "StatefulPartitionedCall/sequential/gru_3/PartitionedCall/while/body/_237/while/mul"], "attr": {"T": {"type": "DT_FLOAT"}}}, {"name": "StatefulPartitionedCall/sequential/gru_3/PartitionedCall/while/body/_237/while/Tanh", "op": "Tanh", "input": ["StatefulPartitionedCall/sequential/gru_3/PartitionedCall/while/body/_237/while/add_2"], "attr": {"T": {"type": "DT_FLOAT"}}}, {"name": "StatefulPartitionedCall/sequential/gru_3/PartitionedCall/while/body/_237/while/mul_2", "op": "Mul", "input": ["StatefulPartitionedCall/sequential/gru_3/PartitionedCall/while/body/_237/while/sub", "StatefulPartitionedCall/sequential/gru_3/PartitionedCall/while/body/_237/while/Tanh"], "attr": {"T": {"type": "DT_FLOAT"}}}, {"name": "StatefulPartitionedCall/sequential/gru_3/PartitionedCall/while/body/_237/while/add_3", "op": "AddV2", "input": ["StatefulPartitionedCall/sequential/gru_3/PartitionedCall/while/body/_237/while/mul_1", "StatefulPartitionedCall/sequential/gru_3/PartitionedCall/while/body/_237/while/mul_2"], "attr": {"T": {"type": "DT_FLOAT"}}}, {"name": "StatefulPartitionedCall/sequential/gru_3/PartitionedCall/while/next_iteration/_289", "op": "NextIteration", "input": ["StatefulPartitionedCall/sequential/gru_3/PartitionedCall/while/body/_237/while/add_3", "^StatefulPartitionedCall/sequential/gru_3/PartitionedCall/while/loop_body_control/_272"], "attr": {"T": {"type": "DT_FLOAT"}}}, {"name": "StatefulPartitionedCall/sequential/gru_3/PartitionedCall/while/body/_237/while/TensorArrayV2Write/TensorListSetItem", "op": "TensorListSetItem", "input": ["StatefulPartitionedCall/sequential/gru_3/PartitionedCall/while/StatefulPartitionedCall/sequential/gru_3/PartitionedCall/TensorArrayV2_1_switch/_264:1", "Func/StatefulPartitionedCall/sequential/gru_3/PartitionedCall/while/body/_237/input/_423", "StatefulPartitionedCall/sequential/gru_3/PartitionedCall/while/body/_237/while/add_3"], "attr": {"element_dtype": {"type": "DT_FLOAT"}}}, {"name": "StatefulPartitionedCall/sequential/gru_3/PartitionedCall/while/next_iteration/_288", "op": "NextIteration", "input": ["StatefulPartitionedCall/sequential/gru_3/PartitionedCall/while/body/_237/while/TensorArrayV2Write/TensorListSetItem", "^StatefulPartitionedCall/sequential/gru_3/PartitionedCall/while/loop_body_control/_272"], "attr": {"T": {"type": "DT_VARIANT"}}}], "library": {}, "versions": {"producer": 440}}, "weightsManifest": [{"paths": ["group1-shard1of1.bin"], "weights": [{"name": "StatefulPartitionedCall/sequential/gru_3/PartitionedCall/TensorArrayV2_1/element_shape", "shape": [2], "dtype": "int32"}, {"name": "StatefulPartitionedCall/sequential/gru_3/PartitionedCall/TensorArrayUnstack/TensorListFromTensor/element_shape", "shape": [2], "dtype": "int32"}, {"name": "unknown_11", "shape": [128, 384], "dtype": "float32"}, {"name": "ConstantFolding/StatefulPartitionedCall/sequential/gru_3/PartitionedCall/unstack-folded-0", "shape": [384], "dtype": "float32"}, {"name": "StatefulPartitionedCall/sequential/gru_2/PartitionedCall/transpose_1/perm", "shape": [3], "dtype": "int32"}, {"name": "StatefulPartitionedCall/sequential/gru_3/strided_slice/stack", "shape": [1], "dtype": "int32"}, {"name": "StatefulPartitionedCall/sequential/gru_3/strided_slice/stack_1", "shape": [1], "dtype": "int32"}, {"name": "StatefulPartitionedCall/sequential/gru_3/strided_slice/stack_2", "shape": [1], "dtype": "int32"}, {"name": "StatefulPartitionedCall/sequential/gru_3/zeros/packed/1", "shape": [], "dtype": "int32"}, {"name": "StatefulPartitionedCall/sequential/gru_3/zeros/Const", "shape": [], "dtype": "float32"}, {"name": "unknown_12", "shape": [128, 384], "dtype": "float32"}, {"name": "ConstantFolding/StatefulPartitionedCall/sequential/gru_3/PartitionedCall/unstack-folded-1", "shape": [384], "dtype": "float32"}, {"name": "StatefulPartitionedCall/sequential/gru_3/PartitionedCall/time", "shape": [], "dtype": "int32"}, {"name": "StatefulPartitionedCall/sequential/gru_2/PartitionedCall/TensorArrayV2_1/element_shape", "shape": [2], "dtype": "int32"}, {"name": "StatefulPartitionedCall/sequential/gru_2/PartitionedCall/TensorArrayUnstack/TensorListFromTensor/element_shape", "shape": [2], "dtype": "int32"}, {"name": "unknown_8", "shape": [128, 384], "dtype": "float32"}, {"name": "ConstantFolding/StatefulPartitionedCall/sequential/gru_2/PartitionedCall/unstack-folded-0", "shape": [384], "dtype": "float32"}, {"name": "StatefulPartitionedCall/sequential/gru_1/PartitionedCall/transpose_1/perm", "shape": [3], "dtype": "int32"}, {"name": "StatefulPartitionedCall/sequential/gru_2/strided_slice/stack", "shape": [1], "dtype": "int32"}, {"name": "StatefulPartitionedCall/sequential/gru_2/strided_slice/stack_1", "shape": [1], "dtype": "int32"}, {"name": "StatefulPartitionedCall/sequential/gru_2/strided_slice/stack_2", "shape": [1], "dtype": "int32"}, {"name": "StatefulPartitionedCall/sequential/gru_2/zeros/packed/1", "shape": [], "dtype": "int32"}, {"name": "StatefulPartitionedCall/sequential/gru_2/zeros/Const", "shape": [], "dtype": "float32"}, {"name": "unknown_9", "shape": [128, 384], "dtype": "float32"}, {"name": "ConstantFolding/StatefulPartitionedCall/sequential/gru_2/PartitionedCall/unstack-folded-1", "shape": [384], "dtype": "float32"}, {"name": "StatefulPartitionedCall/sequential/gru_2/PartitionedCall/time", "shape": [], "dtype": "int32"}, {"name": "StatefulPartitionedCall/sequential/gru_1/PartitionedCall/TensorArrayV2_1/element_shape", "shape": [2], "dtype": "int32"}, {"name": "StatefulPartitionedCall/sequential/gru_1/PartitionedCall/TensorArrayUnstack/TensorListFromTensor/element_shape", "shape": [2], "dtype": "int32"}, {"name": "unknown_5", "shape": [128, 384], "dtype": "float32"}, {"name": "ConstantFolding/StatefulPartitionedCall/sequential/gru_1/PartitionedCall/unstack-folded-0", "shape": [384], "dtype": "float32"}, {"name": "StatefulPartitionedCall/sequential/gru/PartitionedCall/transpose_1/perm", "shape": [3], "dtype": "int32"}, {"name": "StatefulPartitionedCall/sequential/gru_1/strided_slice/stack", "shape": [1], "dtype": "int32"}, {"name": "StatefulPartitionedCall/sequential/gru_1/strided_slice/stack_1", "shape": [1], "dtype": "int32"}, {"name": "StatefulPartitionedCall/sequential/gru_1/strided_slice/stack_2", "shape": [1], "dtype": "int32"}, {"name": "StatefulPartitionedCall/sequential/gru_1/zeros/packed/1", "shape": [], "dtype": "int32"}, {"name": "StatefulPartitionedCall/sequential/gru_1/zeros/Const", "shape": [], "dtype": "float32"}, {"name": "unknown_6", "shape": [128, 384], "dtype": "float32"}, {"name": "ConstantFolding/StatefulPartitionedCall/sequential/gru_1/PartitionedCall/unstack-folded-1", "shape": [384], "dtype": "float32"}, {"name": "StatefulPartitionedCall/sequential/gru_1/PartitionedCall/time", "shape": [], "dtype": "int32"}, {"name": "StatefulPartitionedCall/sequential/gru/PartitionedCall/TensorArrayV2_1/element_shape", "shape": [2], "dtype": "int32"}, {"name": "StatefulPartitionedCall/sequential/gru/PartitionedCall/TensorArrayUnstack/TensorListFromTensor/element_shape", "shape": [2], "dtype": "int32"}, {"name": "unknown_2", "shape": [32, 384], "dtype": "float32"}, {"name": "ConstantFolding/StatefulPartitionedCall/sequential/gru/PartitionedCall/unstack-folded-0", "shape": [384], "dtype": "float32"}, {"name": "StatefulPartitionedCall/sequential/gru/strided_slice/stack", "shape": [1], "dtype": "int32"}, {"name": "StatefulPartitionedCall/sequential/gru/strided_slice/stack_1", "shape": [1], "dtype": "int32"}, {"name": "StatefulPartitionedCall/sequential/gru/strided_slice/stack_2", "shape": [1], "dtype": "int32"}, {"name": "StatefulPartitionedCall/sequential/gru/zeros/packed/1", "shape": [], "dtype": "int32"}, {"name": "StatefulPartitionedCall/sequential/gru/zeros/Const", "shape": [], "dtype": "float32"}, {"name": "unknown_3", "shape": [128, 384], "dtype": "float32"}, {"name": "ConstantFolding/StatefulPartitionedCall/sequential/gru/PartitionedCall/unstack-folded-1", "shape": [384], "dtype": "float32"}, {"name": "StatefulPartitionedCall/sequential/gru/PartitionedCall/time", "shape": [], "dtype": "int32"}, {"name": "StatefulPartitionedCall/sequential/DataPreprocessing/mel_spectrogram/Tensordot/Const", "shape": [1], "dtype": "int32"}, {"name": "StatefulPartitionedCall/sequential/DataPreprocessing/mel_spectrogram/Tensordot/axes", "shape": [1], "dtype": "int32"}, {"name": "StatefulPartitionedCall/sequential/DataPreprocessing/mel_spectrogram/Tensordot/GatherV2_1/axis", "shape": [], "dtype": "int32"}, {"name": "StatefulPartitionedCall/sequential/DataPreprocessing/mel_spectrogram/Tensordot/Const_1", "shape": [1], "dtype": "int32"}, {"name": "unknown", "shape": [257, 64], "dtype": "float32"}, {"name": "StatefulPartitionedCall/sequential/DataPreprocessing/spectrogram/stft/frame/zeros_like", "shape": [2], "dtype": "int32"}, {"name": "StatefulPartitionedCall/sequential/DataPreprocessing/spectrogram/stft/frame/mul/y", "shape": [], "dtype": "int32"}, {"name": "StatefulPartitionedCall/sequential/DataPreprocessing/spectrogram/stft/frame/concat/axis", "shape": [], "dtype": "int32"}, {"name": "StatefulPartitionedCall/sequential/DataPreprocessing/spectrogram/stft/frame/ones_like", "shape": [2], "dtype": "int32"}, {"name": "StatefulPartitionedCall/sequential/DataPreprocessing/spectrogram/stft/frame/floordiv_3/y", "shape": [], "dtype": "int32"}, {"name": "StatefulPartitionedCall/sequential/DataPreprocessing/spectrogram/stft/frame/concat_1/values_1/1", "shape": [], "dtype": "int32"}, {"name": "StatefulPartitionedCall/sequential/DataPreprocessing/spectrogram/stft/frame/concat_1/axis", "shape": [], "dtype": "int32"}, {"name": "StatefulPartitionedCall/sequential/DataPreprocessing/spectrogram/stft/frame/range_1/start", "shape": [], "dtype": "int32"}, {"name": "StatefulPartitionedCall/sequential/DataPreprocessing/spectrogram/stft/frame/range_1/delta", "shape": [], "dtype": "int32"}, {"name": "StatefulPartitionedCall/sequential/DataPreprocessing/spectrogram/stft/frame/Reshape_2/shape/1", "shape": [], "dtype": "int32"}, {"name": "StatefulPartitionedCall/sequential/DataPreprocessing/spectrogram/stft/frame/Reshape_3", "shape": [1, 2], "dtype": "int32"}, {"name": "StatefulPartitionedCall/sequential/DataPreprocessing/spectrogram/stft/frame/strided_slice", "shape": [], "dtype": "int32"}, {"name": "StatefulPartitionedCall/sequential/DataPreprocessing/spectrogram/stft/frame/Maximum/x", "shape": [], "dtype": "int32"}, {"name": "StatefulPartitionedCall/sequential/DataPreprocessing/spectrogram/stft/frame/add/x", "shape": [], "dtype": "int32"}, {"name": "StatefulPartitionedCall/sequential/DataPreprocessing/spectrogram/stft/frame/Reshape/shape", "shape": [0], "dtype": "int32"}, {"name": "StatefulPartitionedCall/sequential/DataPreprocessing/spectrogram/stft/frame_step", "shape": [], "dtype": "int32"}, {"name": "StatefulPartitionedCall/sequential/DataPreprocessing/spectrogram/stft/frame_length", "shape": [], "dtype": "int32"}, {"name": "StatefulPartitionedCall/sequential/DataPreprocessing/spectrogram/stft/frame/packed", "shape": [3], "dtype": "int32"}, {"name": "StatefulPartitionedCall/sequential/DataPreprocessing/spectrogram/stft/frame/split/split_dim", "shape": [], "dtype": "int32"}, {"name": "StatefulPartitionedCall/sequential/DataPreprocessing/spectrogram/stft/frame/concat_2/axis", "shape": [], "dtype": "int32"}, {"name": "StatefulPartitionedCall/sequential/DataPreprocessing/spectrogram/stft/hann_window/sub_2", "shape": [512], "dtype": "float32"}, {"name": "StatefulPartitionedCall/sequential/DataPreprocessing/spectrogram/stft/rfft/fft_length", "shape": [1], "dtype": "int32"}, {"name": "StatefulPartitionedCall/sequential/DataPreprocessing/mel_spectrogram/Tensordot/free", "shape": [2], "dtype": "int32"}, {"name": "StatefulPartitionedCall/sequential/DataPreprocessing/mel_spectrogram/Tensordot/GatherV2/axis", "shape": [], "dtype": "int32"}, {"name": "StatefulPartitionedCall/sequential/DataPreprocessing/mel_spectrogram/Tensordot/Const_2", "shape": [1], "dtype": "int32"}, {"name": "StatefulPartitionedCall/sequential/DataPreprocessing/mel_spectrogram/Tensordot/concat_1/axis", "shape": [], "dtype": "int32"}, {"name": "StatefulPartitionedCall/sequential/DataPreprocessing/log_mel_spectrogram/add/y", "shape": [], "dtype": "float32"}, {"name": "StatefulPartitionedCall/sequential/conv1d/conv1d/ExpandDims/dim", "shape": [], "dtype": "int32"}, {"name": "StatefulPartitionedCall/sequential/conv1d/conv1d/ExpandDims_1", "shape": [1, 1, 64, 32], "dtype": "float32"}, {"name": "unknown_1", "shape": [32], "dtype": "float32"}, {"name": "StatefulPartitionedCall/sequential/gru/PartitionedCall/transpose/perm", "shape": [3], "dtype": "int32"}, {"name": "StatefulPartitionedCall/sequential/gru/PartitionedCall/strided_slice/stack", "shape": [1], "dtype": "int32"}, {"name": "StatefulPartitionedCall/sequential/gru/PartitionedCall/strided_slice/stack_1", "shape": [1], "dtype": "int32"}, {"name": "StatefulPartitionedCall/sequential/gru/PartitionedCall/strided_slice/stack_2", "shape": [1], "dtype": "int32"}, {"name": "StatefulPartitionedCall/sequential/gru/PartitionedCall/while/loop_counter", "shape": [], "dtype": "int32"}, {"name": "StatefulPartitionedCall/sequential/gru/PartitionedCall/TensorArrayV2Stack/TensorListStack/element_shape", "shape": [2], "dtype": "int32"}, {"name": "StatefulPartitionedCall/sequential/gru_1/PartitionedCall/strided_slice/stack", "shape": [1], "dtype": "int32"}, {"name": "StatefulPartitionedCall/sequential/gru_1/PartitionedCall/strided_slice/stack_1", "shape": [1], "dtype": "int32"}, {"name": "StatefulPartitionedCall/sequential/gru_1/PartitionedCall/strided_slice/stack_2", "shape": [1], "dtype": "int32"}, {"name": "StatefulPartitionedCall/sequential/gru_1/PartitionedCall/while/loop_counter", "shape": [], "dtype": "int32"}, {"name": "StatefulPartitionedCall/sequential/gru_1/PartitionedCall/TensorArrayV2Stack/TensorListStack/element_shape", "shape": [2], "dtype": "int32"}, {"name": "StatefulPartitionedCall/sequential/gru_2/PartitionedCall/strided_slice/stack", "shape": [1], "dtype": "int32"}, {"name": "StatefulPartitionedCall/sequential/gru_2/PartitionedCall/strided_slice/stack_1", "shape": [1], "dtype": "int32"}, {"name": "StatefulPartitionedCall/sequential/gru_2/PartitionedCall/strided_slice/stack_2", "shape": [1], "dtype": "int32"}, {"name": "StatefulPartitionedCall/sequential/gru_2/PartitionedCall/while/loop_counter", "shape": [], "dtype": "int32"}, {"name": "StatefulPartitionedCall/sequential/gru_2/PartitionedCall/TensorArrayV2Stack/TensorListStack/element_shape", "shape": [2], "dtype": "int32"}, {"name": "StatefulPartitionedCall/sequential/gru_3/PartitionedCall/strided_slice/stack", "shape": [1], "dtype": "int32"}, {"name": "StatefulPartitionedCall/sequential/gru_3/PartitionedCall/strided_slice/stack_1", "shape": [1], "dtype": "int32"}, {"name": "StatefulPartitionedCall/sequential/gru_3/PartitionedCall/strided_slice/stack_2", "shape": [1], "dtype": "int32"}, {"name": "StatefulPartitionedCall/sequential/gru_3/PartitionedCall/while/loop_counter", "shape": [], "dtype": "int32"}, {"name": "StatefulPartitionedCall/sequential/gru_3/PartitionedCall/TensorArrayV2Stack/TensorListStack/element_shape", "shape": [2], "dtype": "int32"}, {"name": "StatefulPartitionedCall/sequential/gru_3/PartitionedCall/strided_slice_2/stack", "shape": [1], "dtype": "int32"}, {"name": "StatefulPartitionedCall/sequential/gru_3/PartitionedCall/strided_slice_2/stack_1", "shape": [1], "dtype": "int32"}, {"name": "StatefulPartitionedCall/sequential/gru_3/PartitionedCall/strided_slice_2/stack_2", "shape": [1], "dtype": "int32"}, {"name": "unknown_14", "shape": [128, 1], "dtype": "float32"}, {"name": "unknown_15", "shape": [1], "dtype": "float32"}, {"name": "ConstantFolding/StatefulPartitionedCall/sequential/DataPreprocessing/spectrogram/stft/frame/concat/values_1_const_axis", "shape": [], "dtype": "int32"}, {"name": "StatefulPartitionedCall/sequential/gru/PartitionedCall/while/body/_57/while/sub/x", "shape": [], "dtype": "float32"}, {"name": "StatefulPartitionedCall/sequential/gru/PartitionedCall/while/body/_57/while/split/split_dim", "shape": [], "dtype": "int32"}, {"name": "StatefulPartitionedCall/sequential/gru/PartitionedCall/while/body/_57/while/TensorArrayV2Read/TensorListGetItem/element_shape", "shape": [2], "dtype": "int32"}, {"name": "StatefulPartitionedCall/sequential/gru/PartitionedCall/while/body/_57/while/split_1/split_dim", "shape": [], "dtype": "int32"}, {"name": "StatefulPartitionedCall/sequential/gru/PartitionedCall/while/body/_57/while/add_4/y", "shape": [], "dtype": "int32"}, {"name": "StatefulPartitionedCall/sequential/gru/PartitionedCall/while/body/_57/while/add_5/y", "shape": [], "dtype": "int32"}, {"name": "StatefulPartitionedCall/sequential/gru_1/PartitionedCall/while/body/_117/while/sub/x", "shape": [], "dtype": "float32"}, {"name": "StatefulPartitionedCall/sequential/gru_1/PartitionedCall/while/body/_117/while/split/split_dim", "shape": [], "dtype": "int32"}, {"name": "StatefulPartitionedCall/sequential/gru_1/PartitionedCall/while/body/_117/while/TensorArrayV2Read/TensorListGetItem/element_shape", "shape": [2], "dtype": "int32"}, {"name": "StatefulPartitionedCall/sequential/gru_1/PartitionedCall/while/body/_117/while/split_1/split_dim", "shape": [], "dtype": "int32"}, {"name": "StatefulPartitionedCall/sequential/gru_1/PartitionedCall/while/body/_117/while/add_4/y", "shape": [], "dtype": "int32"}, {"name": "StatefulPartitionedCall/sequential/gru_1/PartitionedCall/while/body/_117/while/add_5/y", "shape": [], "dtype": "int32"}, {"name": "StatefulPartitionedCall/sequential/gru_2/PartitionedCall/while/body/_177/while/sub/x", "shape": [], "dtype": "float32"}, {"name": "StatefulPartitionedCall/sequential/gru_2/PartitionedCall/while/body/_177/while/split/split_dim", "shape": [], "dtype": "int32"}, {"name": "StatefulPartitionedCall/sequential/gru_2/PartitionedCall/while/body/_177/while/TensorArrayV2Read/TensorListGetItem/element_shape", "shape": [2], "dtype": "int32"}, {"name": "StatefulPartitionedCall/sequential/gru_2/PartitionedCall/while/body/_177/while/split_1/split_dim", "shape": [], "dtype": "int32"}, {"name": "StatefulPartitionedCall/sequential/gru_2/PartitionedCall/while/body/_177/while/add_4/y", "shape": [], "dtype": "int32"}, {"name": "StatefulPartitionedCall/sequential/gru_2/PartitionedCall/while/body/_177/while/add_5/y", "shape": [], "dtype": "int32"}, {"name": "StatefulPartitionedCall/sequential/gru_3/PartitionedCall/while/body/_237/while/sub/x", "shape": [], "dtype": "float32"}, {"name": "StatefulPartitionedCall/sequential/gru_3/PartitionedCall/while/body/_237/while/split/split_dim", "shape": [], "dtype": "int32"}, {"name": "StatefulPartitionedCall/sequential/gru_3/PartitionedCall/while/body/_237/while/TensorArrayV2Read/TensorListGetItem/element_shape", "shape": [2], "dtype": "int32"}, {"name": "StatefulPartitionedCall/sequential/gru_3/PartitionedCall/while/body/_237/while/split_1/split_dim", "shape": [], "dtype": "int32"}, {"name": "StatefulPartitionedCall/sequential/gru_3/PartitionedCall/while/body/_237/while/add_4/y", "shape": [], "dtype": "int32"}, {"name": "StatefulPartitionedCall/sequential/gru_3/PartitionedCall/while/body/_237/while/add_5/y", "shape": [], "dtype": "int32"}]}]}