Model: "sequential_24"
_________________________________________________________________
Layer (type)                 Output Shape              Param #   
=================================================================
DataPreprocessing (Sequentia (None, 61, 64)            0         
_________________________________________________________________
DataAugmentation (Sequential (None, 61, 64)            0         
_________________________________________________________________
conv1d_8 (Conv1D)            (None, 59, 64)            12352     
_________________________________________________________________
bidirectional_18 (Bidirectio (None, 59, 64)            18816     
_________________________________________________________________
bidirectional_19 (Bidirectio (None, 64)                18816     
_________________________________________________________________
dense_8 (Dense)              (None, 1)                 65        
=================================================================
Total params: 50,049
Trainable params: 50,049
Non-trainable params: 0
_________________________________________________________________
